plot/model/model_epoch9.pth (torch, 43647 bytes, 6 tensors)

conv1.weight f4 [16, 1, 3, 3]
0	0xbe4c39fc	-0.19943994
1	0xbe0c6a15	-0.13712342
2	0xbed39209	-0.41322353
3	0x3e98589b	0.297551
4	0x3ebd0627	0.36918756
5	0x3eb7ee58	0.3592403
6	0x3ee0840a	0.43850738
7	0x3b55d645	0.0032628935
8	0xbaf2f844	-0.0018537124
9	0xbee544a0	-0.4477892
10	0xbe918cca	-0.28427726
11	0x3eb7d06a	0.35901195
12	0xbf012cd8	-0.5045905
13	0xbe0d1996	-0.13779292
14	0x3ee000a0	0.43750477
15	0xbf19e320	-0.6011219
16	0x3e8ddd21	0.2770777
17	0x3f07c966	0.53041685
18	0xbe079830	-0.13241649
19	0xbdbc2b4e	-0.09187947
20	0x3dc53f6f	0.096312396
21	0xbdb9c13a	-0.09070058
22	0xbdce8976	-0.10084812
23	0xbdbd0101	-0.09228707
24	0x3e61c653	0.22048311
25	0xbd392d06	-0.045208953
26	0xbe851966	-0.2599594
27	0x3f3d2c68	0.73895884
28	0x3f16d714	0.58921933
29	0x3f174b2f	0.59099096
30	0x3ef83117	0.48474953
31	0x3e9ad71d	0.30242243
32	0xbe30bbf8	-0.17259204
33	0x3e2b62ab	0.16736858
34	0xbedacff8	-0.42736793
35	0x3d19f84c	0.03759031
36	0x3d2dfea7	0.042479184
37	0x3f01fc11	0.5077525
38	0x3f306044	0.6889689
39	0xbe0b6926	-0.1361433
40	0xbda83108	-0.08212477
41	0xbd1851ec	-0.0371875
42	0xbd6c65a2	-0.057714112
43	0xbf4a3ad1	-0.78995997
44	0xbe3381a1	-0.17529918
45	0x3e385cc6	0.1800414
46	0x3e799172	0.24371889
47	0x3de60f0d	0.112333395
48	0xbdc8847b	-0.09790894
49	0x3db56853	0.08857789
50	0x3ddfcb66	0.10927467
51	0xbbf54e34	-0.007486129
52	0x3daf39a5	0.08555917
53	0x3e3a1520	0.18172121
54	0x3e85057e	0.25980753
55	0x3e84bc9f	0.25925156
56	0x3e793a44	0.24338633
57	0x3ea82f9b	0.3284882
58	0xbe2b8a68	-0.16752017
59	0x3e6f3223	0.2335897
60	0xbea699aa	-0.3253911
61	0x3deed84f	0.11662351
62	0x3eb7573a	0.35808736
63	0x3e5e9cf1	0.21739556
64	0x3ea41042	0.32043654
65	0x3f0ac248	0.542027
66	0x3ed28440	0.41116524
67	0x3e5085e9	0.20363583
68	0x3e43eca9	0.19133247
69	0x3de2eb9c	0.11080095
70	0xbd37709a	-0.04478512
71	0xbe00ce4f	-0.125787
72	0x3e6767bd	0.22598167
73	0xbe4d022e	-0.20020363
74	0xbf1974a3	-0.599436
75	0xbd686555	-0.056737263
76	0x3e1005d0	0.14064717
77	0x3d6fca6d	0.058542658
78	0x3eb97ff1	0.36230424
79	0x3ea1f990	0.31635714
80	0x3e93f6b3	0.28899154
81	0x3ec82880	0.390934
82	0x3ee8f549	0.45499638
83	0x3d987ee2	0.07446076
84	0xbb9e8a3e	-0.004838257
85	0x3d5d550c	0.054036185
86	0x3ead4813	0.3384405
87	0xbf36a289	-0.7134176
88	0xbf0dee7c	-0.55442023
89	0xbcad4848	-0.02115263
90	0xbf270fdb	-0.6525857
91	0xbeeb6ee1	-0.4598303
92	0xbe645211	-0.22296931
93	0xbeb7d487	-0.35904333
94	0x3e183bca	0.14866558
95	0x3d9a2a42	0.07527591
96	0x3f24d55c	0.6438806
97	0x3ed0a771	0.40752748
98	0x3e4fe481	0.20302011
99	0xbe3e4c77	-0.18583857
100	0x3e1525e8	0.14565241
101	0x3c749667	0.014928437
102	0xbe930619	-0.2871559
103	0x3eaefcdc	0.3417729
104	0x3f05a305	0.52201873
105	0x3e66edd4	0.22551662
106	0xbe32edd1	-0.17473532
107	0x3e63991d	0.22226377
108	0xbd51be49	-0.05120686
109	0x3f3b0453	0.73053473
110	0x3efa3275	0.4886662
111	0xbf7a9775	-0.97887355
112	0xbe0de69d	-0.13857503
113	0xbecb3cea	-0.3969491
114	0xbeccdba9	-0.40011337
115	0xbf146db0	-0.5797987
116	0xbf31b419	-0.6941543
117	0xbe7b3346	-0.24531278
118	0x3e33b130	0.1754806
119	0x3e3b7aca	0.18308559
120	0x3f0db7c8	0.5535855
121	0x3ee365dc	0.4441365
122	0x3de02de4	0.10946253
123	0x3e31d895	0.17367776
124	0xbeb50e8e	-0.35362667
125	0xbf1f3739	-0.6219364
126	0x3e9a4f0d	0.30138436
127	0xbcb82c7a	-0.022482146
128	0x3e512be2	0.20426896
129	0x3e5e5f1c	0.21715969
130	0x3b8c4973	0.0042812168
131	0x3f358c9b	0.7091767
132	0x3f0174d2	0.5056888
133	0x3e4a09ff	0.19730376
134	0x3ead545d	0.33853427
135	0x3df04508	0.11731917
136	0xbf0732b5	-0.5281175
137	0xbf29b8a8	-0.6629739
138	0x3f1f7b89	0.62297875
139	0xbdff7169	-0.12472803
140	0x3cd04976	0.025425654
141	0x3ed24998	0.41071773
142	0xbe6abb48	-0.22923005
143	0x3ece6e0d	0.40318337

conv1.bias f4 [16]
0	0xbbc0f3b5	-0.005888427
1	0xbd37174d	-0.044699956
2	0xbeae1f2c	-0.34008157
3	0x3b3ba8ed	0.0028634623
4	0xbb5dd571	-0.0033849145
5	0x3cd6bd24	0.026213236
6	0xbedce87c	-0.43146122
7	0xbb6c8416	-0.0036089472
8	0xbe4033db	-0.18769781
9	0xbd222b56	-0.03959211
10	0x3e107a68	0.14109194
11	0xbd0848c2	-0.033272512
12	0x3dce0669	0.100598164
13	0xbdc5fd37	-0.096674375
14	0xbac1d725	-0.001478885
15	0xbd3b6b8a	-0.045756854

conv2.weight f4 [16, 16, 3, 3]
0	0xbdb6a44d	-0.08918057
1	0x3e3a88cd	0.18216248
2	0x3d6af75d	0.05736481
3	0x3e49e41e	0.19715926
4	0x3de8bf94	0.11364666
5	0xbd88947d	-0.06668947
6	0xbd3ae1c0	-0.04562545
7	0xbdb3b688	-0.087750494
8	0xbe4e859c	-0.20168155
9	0x3eb47ea9	0.35252884
10	0x3e5357bd	0.20638938
11	0x3e7e6141	0.24841787
12	0x3e0549f2	0.13016489
13	0x3e1ab3f8	0.15107715
14	0xbf2846d6	-0.6573309
15	0xbecdc0a8	-0.40186048
16	0xbec88dc2	-0.39170653
17	0xbea91056	-0.33020276
18	0xbd8917c2	-0.066939846
19	0x3d92e287	0.07172113
20	0x3c4daea0	0.012553841
21	0xbd9c3e78	-0.076291025
22	0xbd9b3d84	-0.075800925
23	0x3d2ccbc3	0.04218651
24	0x3d8067af	0.06269776
25	0xbd148700	-0.03626156
26	0x3db01ee2	0.085996404
27	0xbd3c422f	-0.045961555
28	0x3db36231	0.08758963
29	0x3de44f05	0.11147884
30	0xbe0f79c7	-0.14011298
31	0x3e6a25e2	0.22866014
32	0x3d7a51a2	0.061113007
33	0x3d1ef749	0.03881005
34	0x3bc07834	0.0058737043
35	0xbe09a8f1	-0.13443352
36	0xbe19e3c5	-0.15028293
37	0xbe24a534	-0.16078645
38	0xbe40788b	-0.18795983
39	0xbeb6cd7d	-0.3570365
40	0xbd9b0d64	-0.075709134
41	0xbd2723df	-0.040805694
42	0x3d5e4531	0.054265205
43	0xbda8c6e7	-0.082410626
44	0xbddbe2ed	-0.10736642
45	0x3daabf8c	0.08337316
46	0x3e36bb71	0.1784494
47	0x3ce2fb93	0.02770785
48	0x3dfe0991	0.124041684
49	0x3d9348d8	0.07191628
50	0xbe0eafa0	-0.13934183
51	0x3e01ed1b	0.12688105
52	0x3b76d18f	0.0037661528
53	0xbe66ea1e	-0.22550246
54	0xbd20d165	-0.039262194
55	0x3e36eeb0	0.1786449
56	0x3dee9f55	0.11651484
57	0xbdd486fe	-0.1037731
58	0x3e18422e	0.14868996
59	0xbe30ea01	-0.17276765
60	0x3e317940	0.1733141
61	0x3d9dfa8c	0.07713804
62	0xbea1ebba	-0.31625158
63	0xbe35c326	-0.17750224
64	0x3e3ef36e	0.18647549
65	0x3d1601c1	0.036622766
66	0xbd950378	-0.07276052
67	0x3dc5c6d6	0.096570656
68	0xbcdd2bf4	-0.026998498
69	0x3e09f3f0	0.13471961
70	0xbd466921	-0.048440102
71	0xbdcf1b5a	-0.10112639
72	0xbe3dfa0e	-0.1855242
73	0x3dcd0e17	0.10012453
74	0xbd5f47b9	-0.05451176
75	0x3d9f0cf1	0.0776614
76	0xbd91d059	-0.07119817
77	0xbe86ea0c	-0.2635044
78	0xbe08b947	-0.13351928
79	0xbe82457c	-0.25443637
80	0xbe02d4b9	-0.1277646
81	0xbbcc4546	-0.006233844
82	0xbe154fcb	-0.1458122
83	0xbe6bb2d0	-0.2301743
84	0xbedf80f0	-0.4365306
85	0x3d318834	0.043342784
86	0xbdf74abd	-0.12074802
87	0x3e942d3c	0.2894076
88	0x3cc769f8	0.024342522
89	0x3d4aa318	0.049471945
90	0x3e0b34e9	0.13594402
91	0xbc580da1	-0.013186843
92	0xbe0416fd	-0.12899394
93	0x3e87702b	0.26452765
94	0xbccaf85e	-0.024776634
95	0xbea08ca1	-0.3135729
96	0x3e128ed7	0.14312302
97	0xbe8d0114	-0.27539885
98	0xbdb85d1a	-0.09002133
99	0x3d8f24b7	0.06989425
100	0x3e6fd387	0.23420535
101	0x3dc57b21	0.096426256
102	0x3e64b2d8	0.22333848
103	0x3dfd71bb	0.12375208
104	0xbe9fa0bf	-0.31177327
105	0xbd86203c	-0.06549117
106	0xbdd6784b	-0.10472163
107	0xbea0edd8	-0.3143146
108	0xbdff9b3b	-0.1248078
109	0xbe5e5840	-0.21713352
110	0x3cd5ccc5	0.026098618
111	0xbed04b83	-0.4068261
112	0xbe5f101d	-0.2178349
113	0xbe4746d1	-0.19460608
114	0xbe080f02	-0.13286975
115	0x3e074344	0.13209254
116	0x3de05528	0.10953742
117	0xbdf4a315	-0.11945168
118	0x3e1f0c33	0.15531997
119	0x3eb2f94e	0.3495583
120	0x3e927d49	0.2861121
121	0x3e35ff15	0.17773087
122	0x3d3be721	0.04587472
123	0x3e9fc563	0.31205282
124	0x3daf2476	0.08551876
125	0xbda8e0ad	-0.082459785
126	0xbe481bae	-0.19541809
127	0x3e543253	0.20722322
128	0xbd047ec2	-0.03234745
129	0x3d314ce5	0.043286223
130	0x3e24f44d	0.16108818
131	0xbe0b82aa	-0.13624063
132	0xbb409bd2	-0.002938975
133	0xbe14c01d	-0.1452641
134	0xbe2ab798	-0.16671598
135	0xbe9601a3	-0.29298124
136	0xbdd946c7	-0.10609203
137	0xbe5989ab	-0.21243922
138	0xbe798ae4	-0.24369389
139	0xbdb48d42	-0.08816005
140	0xbe5b17b0	-0.21395755
141	0xbe7435a8	-0.23848593
142	0xbe6afc23	-0.22947745
143	0xbcc1f7e2	-0.02367777
144	0xbc30b8d9	-0.010786259
145	0x3cb77d2e	0.022398558
146	0x3e469d3b	0.19395916
147	0x3e2774c1	0.16353132
148	0x3dfbcdcc	0.12295112
149	0xbe081b80	-0.1329174
150	0xbe1179f0	-0.14206672
151	0x3db022c2	0.086003795
152	0xbe6f8b43	-0.23392968
153	0xbc7e6f66	-0.015529489
154	0xbc512f73	-0.01276766
155	0x3e03d9b1	0.12876011
156	0x3da5fed9	0.08105249
157	0x3e25231a	0.16126671
158	0xbd012c44	-0.031536356
159	0x3f478bd9	0.77947766
160	0x3e3dc4a2	0.1853204
161	0x3d224b2c	0.03962247
162	0x3c460b6b	0.012087683
163	0xbce2a3a1	-0.027665915
164	0x3c90597a	0.01762079
165	0xbd34827e	-0.04406976
166	0xbd00c492	-0.031437464
167	0x3d9ef4da	0.077615455
168	0xba7de8ab	-0.00096858543
169	0x3d8550d0	0.065095544
170	0x3cf70580	0.03015399
171	0xbd578f3f	-0.052626844
172	0xbdccc6eb	-0.09998878
173	0xbe09835b	-0.13429014
174	0xbd5b4554	-0.053532913
175	0xbc9b97fc	-0.01899337
176	0x3e027e6c	0.12743539
177	0x3d51e300	0.051241875
178	0x3e36092b	0.17776935
179	0x3c87258d	0.016497398
180	0x3c37aeaa	0.011211077
181	0xbee80cc2	-0.45322233
182	0xbf3e94f2	-0.7444602
183	0xbdf698c1	-0.12040854
184	0xbd7a2ce6	-0.061077975
185	0x3e8c94ee	0.27457374
186	0x3e3f1c1f	0.18663071
187	0xbd9a3fc1	-0.07531691
188	0xbd0d5ea7	-0.034514096
189	0xbce52e91	-0.027976306
190	0x3bca8848	0.006180797
191	0xbd9fd4d8	-0.078042686
192	0x3c5e1024	0.013553653
193	0xbd917ce4	-0.07103899
194	0xbd611dfc	-0.054960236
195	0x3d956de1	0.07296348
196	0x3dd4a430	0.10382879
197	0xbe84ad24	-0.25913346
198	0xbd87fdf1	-0.06640232
199	0xbdb976b9	-0.09055848
200	0xbc89e719	-0.016833829
201	0x3d232a32	0.039835162
202	0xbd19369a	-0.037405588
203	0x3d1fd799	0.03902397
204	0x3e0fff89	0.14062323
205	0x3d78bec5	0.060728807
206	0xbec4b06f	-0.38415858
207	0xbc8dd0b9	-0.01731144
208	0xbe0da092	-0.13830784
209	0xbdc4199e	-0.095751986
210	0x3c72804c	0.014801096
211	0x3d8e05fb	0.069347344
212	0x3dea6719	0.114454456
213	0xbd1e9022	-0.038711675
214	0x3e454fe2	0.19268754
215	0xbe64e362	-0.22352365
216	0xbe05f372	-0.13081148
217	0xbcd9419c	-0.026520543
218	0x3e8fd654	0.28093207
219	0x3d815b7d	0.06316278
220	0xbbd820f4	-0.006595725
221	0xbe7d994f	-0.24765514
222	0xbe79df9b	-0.24401705
223	0xbd167d86	-0.036740802
224	0xbeb1ac84	-0.3470193
225	0xbda1437f	-0.07874202
226	0xbe92808a	-0.28613693
227	0xbf0dc350	-0.5537615
228	0xbdd7d08a	-0.105378225
229	0xbe203649	-0.15645708
230	0x3de2d250	0.1107527
231	0x3e943c4c	0.28952253
232	0x3cb2569f	0.02176982
233	0xbcd90b54	-0.02649466
234	0x3ded0fa2	0.11575247
235	0xbcc1f004	-0.023674019
236	0x3e887a3f	0.26655766
237	0x3d87bf4d	0.066282846
238	0x3b59a961	0.003321253
239	0xbdd2591c	-0.102709025
240	0xbe0ebeff	-0.13940047
241	0x3e3b8311	0.18311717
242	0xbe036562	-0.12831643
243	0x3cd6a968	0.026203826
244	0xbcbf14df	-0.023325382
245	0x3ddf541b	0.10904714
246	0xbd0dfb3a	-0.034663416
247	0xbc5d9ae4	-0.013525698
248	0xbdf83822	-0.121200815
249	0xbc938511	-0.018007787
250	0x3df9038b	0.12158879
251	0xbe6d9116	-0.23199877
252	0x3dd3a032	0.10333289
253	0x3dabd2e2	0.08389832
254	0xbe84a5e2	-0.2590781
255	0xbe19710c	-0.1498453

conv2.bias f4 [16]
0	0x3de87f42	0.113523975
1	0xbd0ff985	-0.03515007
2	0x3c3ebf9c	0.011642363
3	0xbe371b7a	-0.17881575
4	0xbe1c7154	-0.15277606
5	0xbd30b3d5	-0.04314025
6	0x3b785b01	0.003789604
7	0xbe3d6735	-0.18496402
8	0x3bc01b3a	0.0058626207
9	0x3d782376	0.060580693
10	0xbda0da18	-0.07854098
11	0x3d8ba9d2	0.068195
12	0xbe453549	-0.19258608
13	0xbc00b053	-0.007854539
14	0xbd757a76	-0.05993124
15	0x3cf8b1f9	0.030358301

linear.weight f4 [10, 784]
0	0x3c9a0c2e	0.018804636
1	0xbd8fba17	-0.07017916
2	0xbe3caa80	-0.18424416
3	0xbe2124dd	-0.15736718
4	0xbec149f9	-0.3775175
5	0xbe584cd3	-0.21123056
6	0x3b2db398	0.0026504751
7	0xbbfdd626	-0.0077464757
8	0xbe88080f	-0.26568648
9	0xbe38e9e3	-0.1805797
10	0xbd6faf6c	-0.058516905
11	0xbe42738d	-0.18989392
12	0xbec165d1	-0.37772992
13	0x3d053a00	0.032526016
14	0xbd0320a2	-0.032013543
15	0xbbd16237	-0.006389882
16	0x3df1c970	0.11805999
17	0x3de286cd	0.110608675
18	0xbeca366c	-0.39494646
19	0xbee1f36e	-0.44131035
20	0xbd627589	-0.05528787
21	0xbe160f5a	-0.14654294
22	0x3d026811	0.031837527
23	0x3e241a32	0.16025618
24	0x3e2cbae1	0.16868164
25	0xbe0bed58	-0.13664758
26	0x3d8adf6c	0.067808956
27	0x3e11910f	0.14215492
28	0xbde79332	-0.11307372
29	0xbd91e0fd	-0.07122991
30	0xbdfb6c11	-0.122764714
31	0xbe5cb76c	-0.21554345
32	0x3e0b5aef	0.13608907
33	0x3db7821f	0.089603655
34	0x3e1b5986	0.15170869
35	0xbdcbd15e	-0.09952043
36	0x3dc8da08	0.09807211
37	0xbca58515	-0.02020506
38	0xbe007e86	-0.12548265
39	0xbe07f5d7	-0.13277374
40	0x3e1ae918	0.1512798
41	0x3e2aa7cc	0.16665572
42	0x3dd482b9	0.10376496
43	0x3dfafe53	0.1225554
44	0xbde2943e	-0.11063431
45	0xbe32bf20	-0.17455721
46	0xbf1dacd6	-0.6159185
47	0xbee93e46	-0.45555323
48	0x3d6c297c	0.05765675
49	0x3ce51fc3	0.027969247
50	0xbd0b7ebb	-0.034056406
51	0xbea74db8	-0.32676482
52	0x3b934a87	0.0044949683
53	0xbe42f934	-0.19040376
54	0x3da8066d	0.082043506
55	0xbd09b5da	-0.033620693
56	0xbdff79f0	-0.124744296
57	0xbe33c9b3	-0.17557411
58	0xbd6ee813	-0.058326792
59	0xbdf3aaaa	-0.11897786
60	0x3cb7b599	0.02242546
61	0xbc35d841	-0.011098922
62	0x3e42b59f	0.19014595
63	0x3dafc454	0.085823685
64	0x3d07e6b3	0.033178996
65	0x3e570eb6	0.21001706
66	0xbd2e230e	-0.0425139
67	0x3e23d39a	0.15998688
68	0x3dec35e6	0.11533718
69	0x3ddb1f04	0.10699275
70	0xbd9199f2	-0.07109441
71	0x3d800acc	0.06252059
72	0x3e5ac691	0.2136481
73	0xbe407527	-0.1879469
74	0xbe15eb45	-0.1464053
75	0x3e25751e	0.16157958
76	0x3deba24d	0.11505566
77	0xbe2ea33f	-0.17054461
78	0xbe02ee03	-0.12786107
79	0x3dbc9e1d	0.09209845
80	0xba6bdd33	-0.00089975
81	0x3c03399c	0.008009341
82	0x3c97d87a	0.018535841
83	0xbc2f2e7a	-0.010692233
84	0xbe5a95b9	-0.21346177
85	0x3be1ecda	0.00689469
86	0xbdfe106c	-0.12405476
87	0xbc1d1c9b	-0.00958934
88	0xbc87cb7e	-0.016576525
89	0xbe31adcd	-0.17351456
90	0xbd591af6	-0.053004228
91	0xbcb86412	-0.022508655
92	0xbec12794	-0.37725508
93	0xbe8f1612	-0.27946526
94	0xbe5c5696	-0.21517405
95	0xbe47fda2	-0.19530347
96	0xbe80ba5b	-0.25142178
97	0xbd29e92e	-0.041482143
98	0xbe56ab91	-0.20963885
99	0xbd571f4f	-0.052520093
100	0x3b92e88e	0.004483289
101	0xbc877ecc	-0.016539954
102	0x3cc6dba2	0.024274651
103	0xbd411b92	-0.047145434
104	0xbe2d9b45	-0.16953762
105	0xbdf5128c	-0.11966428
106	0x3d6bddb4	0.05758448
107	0xbe4aa0d7	-0.19787918
108	0x3cbe03b3	0.023195123
109	0x3d6bdf9f	0.05758631
110	0xbdafbb84	-0.08580688
111	0x3e1f273f	0.15542315
112	0xbdfc7b2e	-0.12328182
113	0xbde89d7b	-0.11358162
114	0x3e2a0b8d	0.16605969
115	0xbdb22719	-0.086988635
116	0x3de1c9ea	0.1102484
117	0x3e4e2bf0	0.20133948
118	0x3e11316d	0.1417901
119	0xbc598f5a	-0.013278807
120	0x3d1e8e7c	0.038710102
121	0x3e7d0cee	0.24711964
122	0xbeeafce9	-0.4589608
123	0x3d7e67fd	0.06211089
124	0x3e913b2e	0.28365463
125	0x3e105448	0.14094651
126	0x3d4b20bd	0.04959177
127	0xbdf4fe8a	-0.11962612
128	0x3e4eb8f5	0.20187743
129	0x3e7daa1c	0.24771923
130	0x3db8ec2e	0.09029423
131	0xbd35be7e	-0.04437112
132	0x3c8c3e59	0.017119573
133	0xbe285f9d	-0.16442724
134	0xbe1d5910	-0.15366006
135	0xbd9e021d	-0.07715247
136	0x3c6e284e	0.014535977
137	0xbe16377a	-0.146696
138	0xbe47f598	-0.1952728
139	0xbe0c678e	-0.13711378
140	0xbde361fd	-0.11102674
141	0xbe802f30	-0.25036
142	0xbe788b5a	-0.24271908
143	0xbed67d46	-0.4189245
144	0xbef778f8	-0.4833448
145	0xbf01d415	-0.50714236
146	0xbe8cb26e	-0.2747988
147	0xbe04a7cd	-0.12954636
148	0xbe7a1671	-0.24422623
149	0x3cb8cbeb	0.022558173
150	0xbd8c4fca	-0.06851156
151	0x3ca39b32	0.019971464
152	0x3d2e5146	0.042557977
153	0xbbd39d21	-0.00645794
154	0x3d1202a2	0.035647042
155	0x3dabb843	0.083847545
156	0xbd83b6f7	-0.06431382
157	0xbdb5870e	-0.0886365
158	0x3dad51c5	0.08462862
159	0xbba9b17e	-0.0051786294
160	0x3e247dba	0.16063586
161	0x3e2f1f4b	0.17101781
162	0x3d44cdb9	0.048047755
163	0x3d488c3a	0.048961855
164	0x3de915ad	0.113810875
165	0x3d8ce342	0.068792835
166	0x3e63f52b	0.22261493
167	0x3e24e456	0.16102728
168	0x3e38219e	0.17981574
169	0x3e210a62	0.15726617
170	0x3e36134a	0.17780796
171	0xbd91d6e8	-0.07121068
172	0xbd6b5c4e	-0.057461075
173	0x3e834d67	0.2564499
174	0x3e1d3356	0.15351614
175	0x3ce57ac0	0.028012633
176	0x3e4c6ac5	0.19962604
177	0x3e1da9ae	0.15396759
178	0x3d13761d	0.036001313
179	0x3da3af9d	0.0799248
180	0x3e2f52f7	0.17121492
181	0x3d689a5c	0.056787834
182	0x3e915c71	0.2839084
183	0x3d161d2e	0.03664892
184	0x3dec82bb	0.11548372
185	0x3d325d03	0.043545734
186	0xbe29f5c6	-0.16597661
187	0xbdd37019	-0.10324115
188	0xbcd9b1b0	-0.026573986
189	0xbd5952f7	-0.053057637
190	0xbd95dcd0	-0.07317507
191	0xbde9a635	-0.114086546
192	0x3d732438	0.059360713
193	0x3e21b2af	0.15790819
194	0xbe3c97a7	-0.18417226
195	0xbec1fe38	-0.37889266
196	0x3df21f23	0.11822345
197	0x3dee0971	0.116228946
198	0x3e00017e	0.12500569
199	0x3dc119ec	0.09428772
200	0xbd941f81	-0.072325714
201	0xbdbfac86	-0.09359078
202	0xbe675c14	-0.22593719
203	0xbd7c1ef4	-0.061552957
204	0xbea10f70	-0.3145709
205	0xbd1c114a	-0.038102426
206	0xbde537a4	-0.11192253
207	0xbe283464	-0.16426235
208	0xbe8674c1	-0.2626095
209	0x3d1ebbff	0.038753506
210	0xbd70a023	-0.05874647
211	0x3dd30705	0.10304073
212	0xbe40b9f7	-0.1882094
213	0x3e6747cf	0.22585987
214	0x3cdc1adf	0.026868282
215	0xbf02eab1	-0.5113936
216	0xbe924ce3	-0.28574285
217	0xbe104d4a	-0.14091983
218	0xbe157cfe	-0.14598462
219	0xbea1b4e0	-0.3158331
220	0xbd5303ec	-0.051517412
221	0xbe88fe97	-0.26756737
222	0x3dbab52e	0.091165885
223	0xbdb79c52	-0.089653626
224	0x3d44076b	0.047858637
225	0xbd3c4c50	-0.045971215
226	0xbeb06130	-0.34449148
227	0xbe90f8c0	-0.2831478
228	0xbd3d4206	-0.046205543
229	0x3bff3f07	0.007789496
230	0x3cd985db	0.026553085
231	0xbdacc5fa	-0.084361985
232	0x3d5876e3	0.052847754
233	0x3e10617c	0.14099687
234	0x3e2d2e3e	0.16912171
235	0x3cea6ac0	0.028615355
236	0x3af2c367	0.0018521369
237	0xbd56265d	-0.05228268
238	0x3d231a5f	0.03982007
239	0x3c6d76b2	0.014493631
240	0x3e30392d	0.17209311
241	0xbe100b53	-0.1406682
242	0xbd648806	-0.055793785
243	0xbe876702	-0.26445776
244	0xbd5ab4d8	-0.053395122
245	0x3d90f2aa	0.070775345
246	0x3dea3921	0.11436678
247	0x3e76d99f	0.24106453
248	0x3e6634ab	0.22481029
249	0x3d9385a9	0.07203228
250	0x3d802311	0.062566884
251	0xbd46ce19	-0.048536394
252	0xbd84634c	-0.06464252
253	0xbd8fc259	-0.07019491
254	0xbd889c2d	-0.06670413
255	0xbdc147d8	-0.09437531

linear.bias f4 [10]
0	0x3dadf8f6	0.08494751
1	0x3e198614	0.14992553
2	0x3d054041	0.03253198
3	0xbdbd1205	-0.092319526
4	0xbda7e8d8	-0.08198708
5	0xbcb30f80	-0.021857977
6	0x3cdaaf38	0.026694879
7	0x3d26dc71	0.040737573
8	0xbd913d42	-0.07091762
9	0xbc9ae559	-0.01890819
