plot/model/model_epoch8.pth (torch, 43647 bytes, 6 tensors)

conv1.weight f4 [16, 1, 3, 3]
-0.20648783 -0.13074417 -0.40930805 0.2852999 0.35456738 0.35123566 0.43710104 0.011777618
0.018276075 -0.43749446 -0.27763695 0.36079785 -0.5084671 -0.14584243 0.43764114 -0.5957729
0.27005306 0.5234121 -0.13241649 -0.09187947 0.096312396 -0.09070058 -0.10084812 -0.09228707
0.22048311 -0.045208953 -0.2599594 0.7098934 0.5664241 0.590276 0.47662538 0.31085098
-0.15591079 0.16376798 -0.42750362 0.04222953 0.033447716 0.5044657 0.6754716 -0.14678127
-0.0872018 -0.05213767 -0.061069954 -0.782389 -0.19462228 0.18567619 0.2516429 0.12236119
-0.099613495 0.08280501 0.118055604 -0.0057989717 0.07731566 0.19225954 0.2637848 0.2712912
0.26637396 0.3330406 -0.1795951 0.23536828 -0.31553662 0.10371791 0.3629575 0.19858745
0.30506292 0.527732 0.3985521 0.18393989 0.18427388 0.10920661 -0.07086765 -0.1292278
0.22898635 -0.19540119 -0.5833236 -0.05061444 0.14087221 0.06429097 0.37608817 0.30960742
0.28678346 0.38640913 0.46481133 0.07997305 -0.0024085068 0.055635266 0.33131698 -0.6893878
-0.5509389 -0.028657224 -0.64816606 -0.4521365 -0.20909038 -0.35157725 0.1466175 0.07970384
0.63489515 0.39750254 0.2118929 -0.16816635 0.15148085 0.020471245 -0.25817025 0.3423361
0.51441014 0.22081666 -0.16786943 0.23848243 -0.06006214 0.7302547 0.47829652 -0.9522122
-0.14138234 -0.40171742 -0.3898522 -0.5439617 -0.6727879 -0.24246158 0.1792731 0.1757455
0.5390892 0.41650164 0.1182379 0.19103923 -0.3507158 -0.6020438 0.3066409 -0.022954239
0.19710049 0.21791078 -0.004722075 0.67446375 0.49345982 0.18591557 0.32049993 0.11550015
-0.52409536 -0.6430595 0.60922515 -0.13285618 0.039118554 0.41784593 -0.22321577 0.4104435
00000000: 8c71 53be cde1 05be d390 d1be d412 923e
00000010: db89 b53e 29d5 b33e b5cb df3e e9f6 403c
00000020: b5b7 953c 46ff dfbe 6e26 8ebe 7fba b83e
00000030: e62a 02bf b857 15be 8012 e03e 9384 18bf
00000040: 6544 8a3e 56fe 053f 3098 07be 4e2b bcbd
00000050: 6f3f c53d 3ac1 b9bd 7689 cebd 0101 bdbd
00000060: 53c6 613e 062d 39bd 6619 85be 93bb 353f
00000070: 2b01 113f 541c 173f 3e08 f43e dc27 9f3e
00000080: 14a7 1fbe cbb2 273e c1e1 dabe dff8 2c3d
00000090: 7900 093d aa24 013f b5eb 2c3f d44d 16be
000000a0: db96 b2bd 4f8e 55bd 7d24 7abd a54a 48bf
000000b0: 104b 47be e621 3e3e 57d7 803e 8198 fa3d
000000c0: 2902 ccbd ac95 a93d 23c7 f13d 4d05 bebb
000000d0: ac57 9e3d afdf 443e cd0e 873e aee6 8a3e
000000e0: 2b62 883e 4c84 aa3e c7e7 37be 6204 713e
000000f0: 048e a1be 0e6a d43d 91d5 b93e 825a 4b3e
00000100: 3531 9c3e 7219 073f 050f cc3e bd5a 3c3e
00000110: 4bb2 3c3e b7a7 df3d 0f23 91bd 4b54 04be
00000120: 667b 6a3e 4017 48be b254 15bf 1651 4fbd
00000130: ce40 103e fcaa 833d a18e c03e dd84 9e3e
00000140: 48d5 923e 6bd7 c53e c0fb ed3e e9c8 a33d
00000150: 0ad8 1dbb cee1 633d 61a2 a93e b87b 30bf
00000160: 550a 0dbf 8ec2 eabc 36ee 25bf 6f7e e7be
00000170: ca1b 56be ef01 b4be e622 163e c43b a33d
00000180: 7d88 223f 7485 cb3e 74fa 583e cd33 2cbe
00000190: cc1d 1b3e 50b3 a73c e42e 84be ad46 af3e
000001a0: 62b0 033f c31d 623e f7e5 2bbe bd34 743e
000001b0: b803 76bd f9f1 3a3f 48e3 f43e 2ec4 73bf
000001c0: 88c6 10be e8ad cdbe b59a c7be 1341 0bbf
000001d0: d43b 2cbf d947 78be 5e93 373e a1f6 333e
000001e0: c001 0a3f b43f d53e b626 f23d ca9f 433e
000001f0: 0591 b3be 8b1f 1abf 0900 9d3e 870a bcbc
00000200: b6d4 493e 0124 5f3e a3bb 9abb a8a9 2c3f
00000210: c4a6 fc3e a760 3e3e 9118 a43e 588b ec3d
00000220: 1d2b 06bf 8c9f 24bf 2ef6 1b3f 730b 08be
00000230: c73a 203d e7ef d53e ad92 64be a725 d23e

conv1.bias f4 [16]
-0.016369134 -0.052909493 -0.34008157 -0.003870905 -0.010671553 0.036519885 -0.41225818 -0.011732903
-0.17173524 -0.036787953 0.1672397 -0.027692925 0.10806958 -0.076699995 -0.007659804 -0.030272838
00000000: 9018 86bc a0b7 58bd 2c1f aebe 02af 7dbb
00000010: bdd7 2ebc e095 153d 8113 d3be 5d3b 40bc
00000020: 5ddb 2fbe f7ae 16bd e240 2b3e 46dc e2bc
00000030: 9553 dd3d e314 9dbd 18ff fabb befe f7bc

conv2.weight f4 [16, 16, 3, 3]
-0.08186045 0.18162563 0.070761696 0.18926775 0.11885369 -0.051050663 -0.05834706 -0.07550727
-0.18091924 0.36168694 0.20052679 0.23186202 0.13656467 0.16054459 -0.613761 -0.39458776
-0.34946278 -0.32985312 -0.066939846 0.07172113 0.012553841 -0.076291025 -0.075800925 0.04218651
0.06269776 -0.03626156 0.085996404 -0.041651007 0.09389866 0.11647329 -0.133404 0.21488495
0.061927386 0.027779453 0.0052039074 -0.11956668 -0.14450516 -0.17853267 -0.18957841 -0.34491068
-0.07685314 -0.041459538 0.058332037 -0.06893244 -0.085002415 0.09016202 0.17769477 0.030014688
0.11349656 0.07462275 -0.13331334 0.114852086 0.014787536 -0.20887157 -0.027973656 0.19378774
0.1173599 -0.10973317 0.16500026 -0.15518452 0.1582649 0.08316165 -0.30330515 -0.17295808
0.18371889 0.045390204 -0.070136644 0.09315527 -0.020405095 0.12411434 -0.042836364 -0.08349894
-0.177753 0.11362088 -0.038063537 0.071114406 -0.058520436 -0.24942769 -0.1459592 -0.23173216
-0.106792256 -0.0014053438 -0.14683801 -0.23764743 -0.42163816 0.04902627 -0.120002374 0.27302694
0.035062216 0.05863499 0.1198244 -0.01002277 -0.11258371 0.24199903 -0.020205416 -0.29374635
0.12241403 -0.24467345 -0.071771055 0.07090402 0.23192403 0.10188011 0.22252946 0.13533996
-0.29235044 -0.07854129 -0.08732364 -0.29343134 -0.115554385 -0.22111967 0.026433626 -0.37180144
-0.22225417 -0.20689896 -0.10614113 0.14145485 0.111492604 -0.10618499 0.13045423 0.34507522
0.2753192 0.17865202 0.06571529 0.29069883 0.074137405 -0.056555986 -0.195208 0.19805983
-0.02050152 0.041449524 0.1661225 -0.1177301 -0.005618999 -0.13590343 -0.15324241 -0.2933639
-0.092299946 -0.19064358 -0.23565108 -0.07292829 -0.20053811 -0.24748759 -0.22494373 -0.010620869
-0.0034332196 0.035381507 0.18656898 0.16518277 0.120467216 -0.119989544 -0.14032799 0.07063004
-0.22934185 0.0013400792 -0.005078065 0.14312299 0.09624582 0.17209455 -0.02189885 0.74801046
0.18643418 0.014577313 0.012087683 -0.027665915 0.01762079 -0.04406976 -0.031437464 0.077615455
-0.00096858543 0.065095544 0.03015399 -0.04345106 -0.08464314 -0.108093835 -0.046362262 -0.009393178
0.13054949 0.05353398 0.17487083 0.023336628 -0.011043164 -0.46862844 -0.69522727 -0.11646353
-0.0678777 0.276739 0.17525262 -0.04568312 -0.017575108 -0.02008068 0.0046095336 -0.07308688
0.021126896 -0.05978084 -0.05384615 0.0662244 0.10143142 -0.24847138 -0.07179236 -0.09790369
-0.0057625785 0.041110717 -0.022493927 0.04472241 0.13105121 0.06571147 -0.36847404 -0.012395164
-0.12219602 -0.07787668 0.028309556 0.08029902 0.11974285 -0.03728522 0.18852529 -0.21115519
-0.12165052 -0.013904135 0.2741343 0.06435275 0.008346473 -0.21740182 -0.2500434 -0.04636036
-0.31643316 -0.06645084 -0.30159596 -0.5152013 -0.103407815 -0.15237883 0.117342986 0.28170696
0.038905945 -0.0040015834 0.10717989 -0.007449928 0.26022857 0.07275498 -0.0014187007 -0.0874937
-0.13937962 0.16227691 -0.12939842 0.0366844 -0.023145637 0.11198939 -0.019686518 -0.009135118
-0.11265909 -0.021036992 0.117311455 -0.23598397 0.08471559 0.05733875 -0.2510499 -0.1460361
00000000: 74a6 a7bd 12fc 393e 82eb 903d 68cf 413e
00000010: 9069 f33d 801a 51bd 54fd 6ebd 8ea3 9abd
00000020: e542 39be 082f b93e e556 4d3e 3d6d 6d3e
00000030: 9cd7 0b3e cd65 243e 711f 1dbf 6807 cabe
00000040: c9ec b2be 82e2 a8be c217 89bd 87e2 923d
00000050: a0ae 4d3c 783e 9cbd 843d 9bbd c3cb 2c3d
00000060: af67 803d 0087 14bd e21e b03d 3f9a 2abd
00000070: f14d c03d 8c89 ee3d 0f9b 08be cd0a 5c3e
00000080: 92a7 7d3d bc91 e33c 8a85 aa3b 60df f4bd
00000090: 29f9 13be 45d1 36be d820 42be 2298 b0be
000000a0: 2e65 9dbd 7ad1 29bd 93ed 6e3d 732c 8dbd
000000b0: bf15 aebd dda6 b83d 9ef5 353e 5de1 f53c
000000c0: e270 e83d d0d3 983d 4b83 08be 9237 eb3d
000000d0: 6c47 723c 6ee2 55be 0229 e5bc 4b70 463e
000000e0: 635a f03d c9bb e0bd d4f5 283e b1e8 1ebe
000000f0: 3210 223e a850 aa3d d04a 9bbe ec1b 31be
00000100: ce20 3c3e 14eb 393d cda3 8fbd 31c8 be3d
00000110: 9628 a7bc a92f fe3d 2f75 2fbd 7e01 abbd
00000120: e204 36be 10b2 e83d 83e8 1bbd 6ea4 913d
00000130: 20b3 6fbd f969 7fbe 5476 15be 324b 6dbe
00000140: e6b5 dabd 8333 b8ba b45c 16be d959 73be
00000150: f5e0 d7be c5cf 483d cec3 f5bd 30ca 8b3e
00000160: 669d 0f3d 3e2b 703d 7f66 f53d 8b36 24bc
00000170: 4a92 e6bd 98ce 773e d485 a5bc ec65 96be
00000180: 35b4 fa3d ad8b 7abe b4fc 92bd 2036 913d
00000190: 7e7d 6d3e 85a6 d03d c3de 633e 8f96 0a3e
000001a0: f5ae 95be 41da a0bd bdd6 b2bd a23c 96be
000001b0: c7a7 ecbd 326d 62be 558b d83c c25c bebe
000001c0: 9996 63be 52dd 53be 8560 d9bd 8ad9 103e
000001d0: 3c56 e43d 8477 d9bd cb95 053e b3ad b03e
000001e0: a3f6 8c3e 8ef0 363e bd95 863d 7ad6 943e
000001f0: 5ad5 973d 40a7 67bd 9be4 47be 32d0 4a3e
00000200: cef2 a7bc fac6 293d 041c 2a3e 7b1c f1bd
00000210: 941f b8bb 452a 0bbe 94eb 1cbe cb33 96be
00000220: c107 bdbd 1238 43be 844e 71be 6d5b 95bd
00000230: dd59 4dbe 636d 7dbe a657 66be 2703 2ebc
00000240: deff 60bb 33ec 103d f00b 3f3e ac25 293e
00000250: 84b7 f63d 14bd f5bd 24b2 0fbe 7ba6 903d
00000260: 97d8 6abe 99a5 af3a e665 a6bb d58e 123e
00000270: 871c c53d 8e39 303e 3865 b3bc 9d7d 3f3f
00000280: 9ae8 3e3e afd5 6e3c 6b0b 463c a1a3 e2bc
00000290: 7a59 903c 7e82 34bd 92c4 00bd daf4 9e3d
000002a0: abe8 7dba d050 853d 8005 f73c bdf9 31bd
000002b0: 6259 adbd 4d60 ddbd 5be6 3dbd d8e5 19bc
000002c0: c4ae 053e 7246 5b3d 5711 333e 752c bf3c
000002d0: 63ee 34bc 11f0 efbe 6afa 31bf 6e84 eebd
000002e0: 7703 8bbd bcb0 8d3e 6c75 333e 391e 3bbd
000002f0: acf9 8fbc 3d80 a4bc 920b 973b 93ae 95bd
00000300: 5012 ad3c c1dc 74bd c88d 5cbd a9a0 873d
00000310: 47bb cf3d 486f 7ebe df07 93bd bb81 c8bd
00000320: 03d4 bcbb b663 283d 2f45 b8bc d92e 373d
00000330: 4a32 063e bc93 863d a1a8 bcbe 1615 4bbc
00000340: e841 fabd cf7d 9fbd 71e9 e73c d073 a43d
00000350: bd3b f53d 63b8 18bd c60c 413e 1139 58be
00000360: e823 f9bd 2bce 63bc 555b 8c3e 60cb 833d
00000370: a5bf 083c 959e 5ebe b005 80be 5ce4 3dbd
00000380: 8703 a2be 6117 88bd c96a 9abe 3be4 03bf
00000390: 7ac7 d3bd 3209 1cbe 8551 f03d e53b 903e
000003a0: d75b 1f3d b71f 83bb 2181 db3d 871e f4bb
000003b0: ae3c 853e 9000 953d b2f3 b9ba e62f b3bd
000003c0: 88b9 0ebe eb2b 263e 0581 04be 6242 163d
000003d0: eb9b bdbc b15a e53d 9f45 a1bc 76ab 15bc
000003e0: cfb9 e6bd c555 acbc fd40 f03d c8a5 71be
000003f0: 5e7f ad3d 0adc 6a3d 9d89 80be 7d8a 15be

conv2.bias f4 [16]
0.107251935 -0.0343831 0.0036295324 -0.17639405 -0.14586426 -0.030782413 -0.0062276768 -0.17873731
0.006500495 0.052883416 -0.082541995 0.06876282 -0.17569697 -0.0034725892 -0.055974483 0.025081268
00000000: e7a6 db3d 4bd5 0cbd 73dd 6d3b a4a0 34be
00000010: 715d 15be 662b fcbc 8a11 ccbb ea06 37be
00000020: 1b02 d53b 489c 583d c70b a9bd 85d3 8c3d
00000030: e8e9 33be 6194 63bb 8045 65bd 3b77 cd3c

linear.weight f4 [10, 784]
0.017248135 -0.05282098 -0.17820327 -0.15795538 -0.36684075 -0.20760112 -0.008130266 -0.012054396
-0.23952854 -0.18228406 -0.061508678 -0.20787193 -0.3506178 0.030381717 -0.023855722 -0.011735028
0.10538474 0.10952652 -0.36949325 -0.4042094 -0.047169194 -0.13520426 0.030320724 0.15813828
0.14920756 -0.13642848 0.07136816 0.13669094 -0.10211607 -0.070356995 -0.12487083 -0.2110924
0.12732652 0.09201585 0.14265202 -0.07265571 0.095844105 -0.018373309 -0.11394882 -0.110876165
0.14133258 0.15200375 0.090878695 0.10128448 -0.10130686 -0.14244932 -0.5644817 -0.4158292
0.04651732 0.013964769 -0.03306023 -0.3167057 -0.0019377238 -0.17200354 0.048628192 -0.038684275
-0.12608643 -0.17605834 -0.052030597 -0.10615093 0.019094588 -0.0049494565 0.16249323 0.06470893
0.023761263 0.19457702 -0.033620294 0.14200531 0.12001883 0.10420552 -0.07509747 0.054573428
0.20852613 -0.1806248 -0.15871353 0.15493594 0.11418549 -0.17449847 -0.123462945 0.09356621
-0.006864603 0.006489654 0.021004938 -0.00010509914 -0.20231846 -0.0015720542 -0.10815662 -0.00047970228
-0.011285741 -0.15912454 -0.04750975 -0.0363198 -0.35562202 -0.27274185 -0.18682356 -0.1798637
-0.21227491 -0.03603796 -0.18159705 -0.050595943 -0.0023137585 -0.02829348 0.0142203625 -0.043020647
-0.14630115 -0.11553 0.03511505 -0.18095264 0.027244598 0.06396559 -0.074941084 0.15135218
-0.11523575 -0.105973154 0.15458137 -0.08744461 0.10882894 0.19132362 0.13728803 -0.0034393382
0.03858275 0.23021327 -0.43679062 0.044124372 0.2606097 0.13724667 0.05092647 -0.12427821
0.19513237 0.23275474 0.08317312 -0.0376533 0.01622856 -0.14776033 -0.13472714 -0.062693655
0.013886729 -0.12868753 -0.17663416 -0.113152675 -0.09728458 -0.2084237 -0.24465124 -0.4098782
-0.46600643 -0.50033337 -0.22218978 -0.1285005 -0.23976411 0.016068801 -0.06656379 0.01991853
0.017656045 -0.006635047 0.018859137 0.055930473 -0.06170988 -0.07852979 0.08415776 0.0034272429
0.14063743 0.15304653 0.051506657 0.041494083 0.10358647 0.06383441 0.20898971 0.15590625
0.17124872 0.14704105 0.16087574 -0.077285 -0.058145683 0.23537084 0.13354927 0.041260753
0.18861368 0.14146717 0.026918713 0.06956409 0.1646202 0.054655723 0.27272838 0.025093434
0.112260275 0.041618224 -0.14697492 -0.08812708 -0.008692973 -0.04451513 -0.08976179 -0.1333802
0.026647056 0.13933644 -0.17458805 -0.33058813 0.12197182 0.11675468 0.115773916 0.07055518
-0.09070609 -0.10549903 -0.20576327 -0.06599655 -0.3114927 -0.04177823 -0.104048714 -0.17633964
-0.25441173 0.037660297 -0.07296715 0.07784942 -0.16858566 0.22158545 0.031579692 -0.4734772
-0.26817265 -0.12439103 -0.16194268 -0.2989651 -0.066296116 -0.25997776 0.07385033 -0.10167041
0.027608028 -0.044342246 -0.32906875 -0.26520726 -0.044645138 -0.00070275686 0.00890074 -0.061572492
0.058893662 0.14133584 0.15911321 0.026698608 0.005388538 -0.04390948 0.04493569 -0.007833461
0.14291725 -0.14022043 -0.064099416 -0.25632757 -0.03698049 0.057837255 0.11435732 0.22403543
0.19312018 0.04297893 0.034205455 -0.04477219 -0.066045865 -0.08875105 -0.06781607 -0.08803823
00000000: f64b 8d3c d05a 58bd eb7a 36be 0ebf 21be
00000010: 8dd2 bbbe 6395 54be cf34 05bc cd7f 45bc
00000020: f846 75be aca8 3abe 86f0 7bbd 61dc 54be
00000030: 2d84 b3be 14e3 f83c 136d c3bc 4644 40bc
00000040: f4d3 d73d 714f e03d 382e bdbe 89f4 cebe
00000050: 7c34 41bd fc72 0abe 2b63 f83c 00ef 213e
00000060: dec9 183e e8b3 0bbe 7829 923d b6f8 0b3e
00000070: 3b22 d1bd 5417 90bd 47bc ffbd 9b28 58be
00000080: e261 023e ce72 bc3d 5f13 123e 84cc 94bd
00000090: ea49 c43d 9f83 96bc 005e e9bd 0b13 e3bd
000000a0: 7db9 103e dfa6 1b3e 9c1e ba3d 3d6e cf3d
000000b0: f979 cfbd 3cde 11be df81 10bf 91e7 d4be
000000c0: f288 3e3d 7dcc 643c 2a6a 07bd 4027 a2be
000000d0: 39fb fdba b221 30be 5b2e 473d 6773 1ebd
000000e0: cd1c 01be a348 34be 091e 55bd a965 d9bd
000000f0: 416c 9c3c 0d2f a2bb a064 263e 1e86 843d
00000100: fba6 c23c 333f 473e 6fb5 09bd d769 113e
00000110: 6fcc f53d b469 d53d b4cc 99bd 6388 5f3d
00000120: e087 553e b5f5 38be cd85 22be 87a7 1e3e
00000130: 15da e93d baaf 32be 24da fcbd a49f bf3d
00000140: 77f0 e0bb 2aa7 d43b 8c12 ac3c ac68 dcb8
00000150: 922c 4fbe 630d ceba 3881 ddbd 8d80 fbb9
00000160: d4e7 38bc 8bf1 22be 9599 42bd 12c4 14bd
00000170: 1714 b6be d2a4 8bbe ad4e 3fbe 312e 38be
00000180: 985e 59be 8a9c 13bd 94f4 39be b13d 4fbd
00000190: 6da2 17bb bac7 e7bc 86fc 683c 6b36 30bd
000001a0: f8cf 15be fe9a ecbd ccd4 0f3d a64b 39be
000001b0: 1030 df3c 6400 833d b67a 99bd 11fc 1a3e
000001c0: b900 ecbd 7408 d9bd 944a 1e3e 2916 b3bd
000001d0: b5e1 de3d 57ea 433e 3c95 0c3e 8566 61bb
000001e0: f208 1e3d 07bd 6b3e 05a3 dfbe c2bb 343d
000001f0: a26e 853e 648a 0c3e 4698 503d 9385 febd
00000200: c8d0 473e 4257 6e3e ab56 aa3d 593a 1abd
00000210: c2f1 843c 7c4e 17be e9f5 09be 8865 80bd
00000220: 2a85 633c aac6 03be 96df 34be 97bc e7bd
00000230: 233d c7bd 066d 55be db85 7abe 8edb d1be
00000240: 6598 eebe d915 00bf b885 63be a395 03be
00000250: b984 75be b8a2 833c 9952 88bd 2f2c a33c
00000260: 69a3 903c cf6a d9bb 7a7e 9a3c 5a17 653d
00000270: 80c3 7cbd 3ad4 a0bd e75a ac3d 989b 603b
00000280: 4203 103e 3bb8 1c3e a5f8 523d b3f5 293d
00000290: 2525 d43d 9dbb 823d 6601 563e e3a5 1f3e
000002a0: d35b 2f3e ee91 163e 9cbc 243e 9947 9ebd
000002b0: 2b2a 6ebd 0e05 713e 24c1 083e 0901 293d
000002c0: f223 413e c5dc 103e a284 dc3c 9e77 8e3d
000002d0: 3392 283e aede 5f3d 0ea3 8b3e bf90 cd3c
000002e0: b7e8 e53d df77 2a3d 9880 16be f87b b4bd
000002f0: f96c 0ebc 7f55 36bd 08d5 b7bd d294 08be
00000300: ed4a da3c 36ae 0e3e 36c7 32be d942 a9be
00000310: 5dcc f93d 141d ef3d e01a ed3d 3c7f 903d
00000320: 1dc4 b9bd e00f d8bd 9bb3 52be 3329 87bd
00000330: f97b 9fbe a61f 2bbd 7e17 d5bd 6192 34be
00000340: 4142 82be af41 1a3d cd6f 95bd 846f 9f3d
00000350: b8a1 2cbe 4ce7 623e b559 013d 9b6b f2be
00000360: ed4d 89be b9c0 febd 4dd4 25be f411 99be
00000370: 42c6 87bd ce1b 85be d83e 973d 9338 d0bd
00000380: 3b2a e23c 37a0 35bd b37b a8be 3fc9 87be
00000390: d2dd 36bd 3739 38ba 69d4 113c 7033 7cbd
000003a0: 7b3a 713d 58ba 103e 93ee 223e 0ab7 da3c
000003b0: 5592 b03b 6dda 33bd 7c0e 383d eb57 00bc
000003c0: e658 123e f295 0fbe 8e46 83bd 5e3d 83be
000003d0: db78 17bd c2e6 6c3d 2c34 ea3d 8b69 653e
000003e0: 4cc1 453e ad0a 303d 051b 0c3d 0b63 37bd
000003f0: 0e43 87bd 1cc3 b5bd 27e3 8abd 634d b4bd

linear.bias f4 [10]
0.07689508 0.14519367 0.03243038 -0.08857894 -0.07310555 -0.015957177 0.024704358 0.038164582
-0.07189825 -0.021101272
00000000: 2b7b 9d3d a6ad 143e b8d5 043d e068 b5bd
00000010: 5db8 95bd a0b8 82bc cb60 ca3c 7752 1c3d
00000020: 643f 93bd 93dc acbc
