plot/model/model_epoch6.pth (torch, 43647 bytes, 6 tensors)

conv1.weight f4 [16, 1, 3, 3]
00000000: e1b0 2bbe 9d11 89bd d2aa c1be 536b 943e
00000010: 31c0 ba3e 5eac af3e dc23 e63e 32ac 9c3c
00000020: 3c67 453d 779d d9be 6b47 7cbe cb39 bd3e
00000030: b08b fbbe 7e35 1abe 07a4 e33e 337f 16bf
00000040: abdd 833e 1201 043f 3098 07be 4e2b bcbd
00000050: 6f3f c53d 3ac1 b9bd 7689 cebd 0101 bdbd
00000060: 53c6 613e 062d 39bd 6619 85be d63f 283f
00000070: fa69 fb3e 0f85 143f 4538 003f baf5 a63e
00000080: 1890 e3bd f56b 3c3e 1f17 ddbe acbe 893d
00000090: 26cb 593d bd63 063f e339 2c3f 7326 26be
000000a0: 9ec3 b2bd c538 8bbd 00a8 9abd 1f71 3dbf
000000b0: 9af3 4fbe ef25 3f3e 4c01 7f3e 1b71 003e
000000c0: 6086 febd 5dc7 8b3d c208 fd3d b984 4ebc
000000d0: b9de 583d 6147 453e 6f4b 813e 2d98 933e
000000e0: be39 953e 4f9f a53e d4e3 51be f98c 763e
000000f0: ac31 9fbe 66e6 ab3d e109 b43e 584e 3c3e
00000100: 04d9 933e cbae 023f 85c2 d03e 13c6 523e
00000110: 6386 5f3e 0d0e 143e 74f0 abbd 6fd0 d3bd
00000120: 2019 5d3e 3da4 33be f569 09bf 47f6 61bd
00000130: 48f5 123e 95d4 8f3d 1f0e c93e 8146 9a3e
00000140: bd36 8f3e e267 c13e c2c8 f93e fbc8 c93d
00000150: 45b8 13bc 0081 263d 7d14 a13e 0ba3 2abf
00000160: 6b54 0dbf 2fb1 13bd 2b03 28bf 95c1 d2be
00000170: 26be 47be 7976 b3be 3dc3 143e 0bb0 763d
00000180: e754 1b3f 2ead c13e c635 5a3e 8cef 30be
00000190: 2f46 183e 9987 a63b b591 7fbe 6fa3 ad3e
000001a0: 79d4 f53e 2cc0 463e dbd6 3abe c678 653e
000001b0: e01e 3bbd ddab 393f c9c6 e63e fae1 60bf
000001c0: 99d4 30be 07c1 d3be f1d2 bebe 318d fabe
000001d0: 44c5 22bf 9736 7abe c7d4 3b3e aebd 2c3e
000001e0: 1af0 063f 5ddb c43e 4f53 123e 947e 5e3e
000001f0: 5e6e aebe c073 0bbf 2088 a83e 5c59 f6bb
00000200: d866 583e 36c2 633e f6e1 983c ddfa 2a3f
00000210: 1476 e43e 3054 2a3e f6fd 9f3e 96f1 e03d
00000220: 15d1 fbbe 8986 15bf 071c 0d3f 2d75 22be
00000230: 5061 7e3d a0bd cf3e 2309 63be 3044 d83e
-0.16766693 -0.066928126 -0.37825638 0.28988132 0.36474755 0.34311193 0.44949234 0.019125078
0.048194155 -0.4250295 -0.24636619 0.36958155 -0.4913001 -0.15059468 0.4446108 -0.5878784
0.25755057 0.51564133 -0.13241649 -0.09187947 0.096312396 -0.09070058 -0.10084812 -0.09228707
0.22048311 -0.045208953 -0.2599594 0.65722406 0.4910429 0.5801553 0.5008586 0.3260935
-0.11111468 0.18400557 -0.43181702 0.06725821 0.053172253 0.5249594 0.6727583 -0.16225605
-0.08728717 -0.06797937 -0.07551575 -0.74000734 -0.2030777 0.18666814 0.24902838 0.12543146
-0.12427974 0.06825135 0.12355186 -0.012604886 0.05294678 0.1926551 0.25252864 0.28827038
0.29145616 0.32348105 -0.20497066 0.24077214 -0.31092584 0.083935544 0.35163787 0.18389261
0.28876507 0.5104796 0.40773407 0.20583372 0.21828608 0.14458485 -0.08395472 -0.1034249
0.21591616 -0.1754312 -0.536773 -0.05516651 0.1435138 0.07022969 0.39268586 0.30131915
0.2797145 0.3777457 0.4878598 0.09852787 -0.009016101 0.040650368 0.31460944 -0.66655034
-0.55206937 -0.036057647 -0.65629834 -0.41163316 -0.1950613 -0.35051325 0.14527602 0.06022648
0.60676426 0.37827438 0.21309575 -0.1727888 0.14870523 0.0050820825 -0.24957927 0.33913752
0.48013666 0.19409245 -0.18246023 0.22409353 -0.04568374 0.7252787 0.45073536 -0.8784481
-0.172686 -0.41358206 -0.3727031 -0.48935845 -0.63582253 -0.24434887 0.18342887 0.16869232
0.52710116 0.3844861 0.14289592 0.21727973 -0.34068578 -0.54473495 0.32916355 -0.0075179767
0.21132982 0.22242054 0.018662434 0.66789037 0.44621336 0.16633677 0.31248444 0.10983579
-0.49182954 -0.5840841 0.5512089 -0.15865012 0.062104523 0.4057436 -0.22171454 0.42239523

conv1.bias f4 [16]
00000000: a5bf bfba f79b 81bd 2c1f aebe 6076 5fbb
00000010: 5a8b 95bb 337c 793d 51b6 c3be 2e23 5837
00000020: 73ca 18be 0488 a1bc 2fa1 3e3e c9ce cdbc
00000030: 80da 053e 7a24 46bd c92b 8ebb f092 cfbc
-0.0014629258 -0.06328576 -0.34008157 -0.0034097657 -0.004563731 0.06090946 -0.38225034 1.2882794e-05
-0.14920978 -0.019718178 0.18616174 -0.025123017 0.13071632 -0.04837463 -0.0043387157 -0.02533862

conv2.weight f4 [16, 16, 3, 3]
00000000: 91c1 81bd 1273 293e 82b9 843d fbbd 343e
00000010: 84ec d73d c2ea 62bd 2ebb 84bd 9e84 8fbd
00000020: 25f5 41be 02a2 c03e 67d2 343e 0b55 573e
00000030: 4420 073e 86ec de3d dd14 fdbe 08cd b7be
00000040: 9012 afbe 5bef 9ebe c217 89bd 87e2 923d
00000050: a0ae 4d3c 783e 9cbd 843d 9bbd c3cb 2c3d
00000060: af67 803d 0087 14bd e21e b03d b7e1 41bd
00000070: b3a9 d63d 1ffd d63d 70e6 e3bd 07bd 303e
00000080: 0ab5 063d 00fb 473c 1bb5 0abc f911 f5bd
00000090: f9cb f5bd ee88 38be a1d2 40be 283e b1be
000000a0: 1050 c6bd 1f40 2cbd 7b4f 803d 0b5c 94bd
000000b0: 00db 32bd 9b9a b83d 6ceb 1f3e 9d7f d53c
000000c0: ff3a b83d a640 413d d459 09be 5c96 c63d
000000d0: c91d 3b3a 00fd 45be 290c d0bc ac3a 3a3e
000000e0: 23c6 063e 68c2 f8bd 9278 193e f049 f8bd
000000f0: b0b3 0b3e ede1 693d f82b 8ebe 3f4e 29be
00000100: 7052 353e 6ed0 2b3d 3f3d 88bd 1748 853d
00000110: 35e8 12bd c5d2 e33d 64bc 43bd a0a3 aabd
00000120: 2c05 0ebe ab28 fa3d 57ce dabc 3008 773d
00000130: a52a 7ebd af4b 80be bc5d 0ebe c594 53be
00000140: ba15 0ebe 7f9b 78bc 0b83 05be 0ca1 79be
00000150: 3e51 d6be 7f0a 1f3d c915 08be 4383 803e
00000160: 5e5b aa3c 07de 833d b210 fe3d 983e 5db9
00000170: 41c4 d0bd cf5f 4e3e b063 07bd ae52 8bbe
00000180: 4087 c23d c020 4fbe 9b1f 8bbd cdf2 a43d
00000190: 888b 563e d9b9 df3d a079 4f3e 7a84 f63d
000001a0: dbdb 7dbe 0b14 bebd bfe3 cfbd 6f18 77be
000001b0: 020e 86bd e661 28be e856 d33c 2ccc aebe
000001c0: 5a8c 72be 4eae 63be be86 b8bd 1a58 0f3e
000001d0: 536b 113e 00d4 d5bd 5890 de3d fbac a33e
000001e0: 5693 873e 0828 1c3e fdd0 703d 40cc 863e
000001f0: 8d97 543d 422b 3bbd 6e86 3fbe 68ed 373e
00000200: 3e1d a6bc 6166 9e3c 2269 1b3e 5019 e6bd
00000210: 4004 d83b 5215 fbbd d2f3 1ebe 5004 7bbe
00000220: 9f38 66bd aa74 3ebe fa06 4fbe b4ac 1bbd
00000230: dcd9 67be 8a8a 6fbe 91e9 41be 0a5e 43bd
00000240: 854f d3bb dde0 4d3d 8ed4 303e 8099 203e
00000250: e06f ac3d 20d3 febd 456e f8bd a719 5e3d
00000260: d6b8 5ebe 845c 90bb 0ee4 e13c 3792 1e3e
00000270: dae9 793d bb42 3f3e 9d35 debc 7411 2b3f
00000280: ec3c 443e ecb6 cebc 6b0b 463c a1a3 e2bc
00000290: 7a59 903c 7e82 34bd 92c4 00bd daf4 9e3d
000002a0: abe8 7dba d050 853d 8005 f73c 707b 4fbd
000002b0: a5bd 76bd ca65 5cbd 5d1c 4bbd 49e7 3539
000002c0: de91 e33d 7e06 003d 806f 1b3e 8afc 9a3c
000002d0: 81d1 82bd 070f ccbe 8ce4 1dbf a733 f2bd
000002e0: c0b8 6ebd 63fe 8f3e 34b1 083e 747a 00bd
000002f0: a838 1ebd b02f ccbc ede6 dc3b 6efe 92bd
00000300: 23dc f93b 1c69 49bd 95f7 96bd e379 343d
00000310: c022 a03d 33dd 81be 55d0 cdbd 8eaf cabd
00000320: 5316 233c 3bf8 8e3c c639 dcbc f312 0f3d
00000330: bec8 bd3d 6050 163d 9c06 bebe 91b4 92bc
00000340: d517 bdbd f783 2ebd 29a6 9e3c e36f c03d
00000350: ea84 d43d 89e4 3abd dd86 2c3e f8a7 56be
00000360: 375e fbbd 9b8b ea37 ad70 833e 885f 503d
00000370: aab4 33bc a6ef 5cbe 8eb0 71be 7ccb 55bd
00000380: 488d 80be a996 b9bd 8d3a 80be 4b47 eabe
00000390: 68ff e3bd f259 13be f0cb 023e 1eff 783e
000003a0: 8dae 1f3d df14 13bc 6c6f eb3d ddda ac3c
000003b0: 4de4 6e3e bb02 9f3d f0e4 5bbc 254f d7bd
000003c0: 328d 00be 26b7 113e 6d2e eebd 374f f43c
000003d0: 94dc c4bb 6825 e33d 6d79 14bd d48e 58bc
000003e0: b1e4 f4bd 61b2 cebc 3095 d33d 0c04 84be
000003f0: edbe 773d 2f5b 353d d059 80be 304c 04be
-0.06335748 0.16547802 0.06480695 0.17650597 0.10543159 -0.055399664 -0.06481014 -0.070077166
-0.18941171 0.37623602 0.17658387 0.21028535 0.13195902 0.10884957 -0.4942998 -0.35898614
-0.3419385 -0.3104199 -0.066939846 0.07172113 0.012553841 -0.076291025 -0.075800925 0.04218651
0.06269776 -0.03626156 0.085996404 -0.0473344 0.10481586 0.10497498 -0.11127937 0.17259608
0.032887496 0.012205839 -0.0084660305 -0.11966319 -0.12001795 -0.18020985 -0.18830349 -0.34617734
-0.096832395 -0.04205334 0.0626516 -0.07244118 -0.043665886 0.09013864 0.1561715 0.026061827
0.089956276 0.047180794 -0.13413173 0.096966475 0.0007137922 -0.19334793 -0.025396423 0.18186444
0.1316152 -0.12146455 0.149874 -0.121234775 0.13642764 0.057100225 -0.2776792 -0.16533755
0.17707229 0.04194682 -0.06652307 0.06507891 -0.03586598 0.111241855 -0.047787085 -0.0833199
-0.1386916 0.12214788 -0.026709719 0.060310543 -0.062052388 -0.25057742 -0.13902944 -0.2066222
-0.13875476 -0.015173792 -0.1303827 -0.24377841 -0.41858858 0.03882837 -0.1328956 0.25100145
0.02079552 0.06438833 0.12405528 -0.0002109952 -0.101936825 0.20153736 -0.033054054 -0.27211517
0.09498453 -0.20227337 -0.06793138 0.08054123 0.20951664 0.109241195 0.2026124 0.12036987
-0.247909 -0.09281167 -0.10150861 -0.24130414 -0.065456405 -0.16443595 0.025798276 -0.34140146
-0.23686352 -0.2223446 -0.09010075 0.13998452 0.14201097 -0.104408264 0.10867375 0.3196791
0.26479596 0.15249646 0.058793057 0.26327705 0.051902343 -0.04569555 -0.18703625 0.17961657
-0.020277616 0.019335927 0.15176824 -0.11235297 0.0065923035 -0.12259926 -0.15522698 -0.24513364
-0.05620634 -0.18599191 -0.20217505 -0.0380065 -0.226417 -0.23392692 -0.18936755 -0.047697105
-0.0064486885 0.050263274 0.17268583 0.15683556 0.08419776 -0.12442613 -0.12130407 0.054223683
-0.21750197 -0.00440556 0.027574565 0.15485464 0.061014034 0.186778 -0.027125174 0.66823506
0.19163865 -0.025233708 0.012087683 -0.027665915 0.01762079 -0.04406976 -0.031437464 0.077615455
-0.00096858543 0.065095544 0.03015399 -0.05065483 -0.060239453 -0.05380801 -0.049587596 0.00017347666
0.11111806 0.03125619 0.15179253 0.018919248 -0.06387616 -0.39855215 -0.6167686 -0.11826258
-0.05828166 0.2812377 0.13348848 -0.03136678 -0.03862825 -0.024925083 0.0067413957 -0.07177435
0.0076251193 -0.049172506 -0.07371441 0.044061553 0.07819128 -0.25364074 -0.10049502 -0.09896766
0.009954053 0.01745235 -0.026883017 0.03493018 0.09266804 0.036697745 -0.37114418 -0.017908366
-0.09233061 -0.04260632 0.01936634 0.09396341 0.10376914 -0.045628104 0.16848321 -0.20962512
-0.122738294 2.7959983e-05 0.25671902 0.050872356 -0.010968367 -0.21575794 -0.23602507 -0.05219601
-0.2510779 -0.09061939 -0.2504467 -0.45757517 -0.11132699 -0.1438978 0.12773108 0.2431607
0.038984824 -0.008977144 0.114958614 0.021100456 0.23329277 0.07764193 -0.013421282 -0.105131425
-0.12553862 0.14230022 -0.11629949 0.029822929 -0.0060077403 0.11091119 -0.036248613 -0.013217647
-0.11957682 -0.025231542 0.1033119 -0.25784338 0.060484815 0.044276413 -0.25068521 -0.12919688

conv2.bias f4 [16]
00000000: 4688 c43d 100e f7bc d738 653c b115 1dbe
00000010: 20f1 fabd 88b2 aebc 235c 35bb b4e1 19be
00000020: c003 95bb 7efd 4b3d d231 9dbd 1e5f 823d
00000030: 778b 17be c525 fb3c 3306 63bd f38a 3e3d
0.095963046 -0.030158073 0.013990602 -0.15340306 -0.12253022 -0.021325365 -0.0027673326 -0.15027505
-0.004547566 0.049802296 -0.07675518 0.063657984 -0.14799295 0.030657658 -0.055425834 0.04651923

linear.weight f4 [10, 784]
00000000: 2754 8d3c e839 d3bc c201 1bbe 7ee6 1abe
00000010: f8e4 9fbe 40f5 30be 5dde acbc c073 e33a
00000020: d5e0 56be bc00 1abe 5cc0 62bd 9641 46be
00000030: 4a68 9cbe 031e b93c c8ac 89bc bc29 aabc
00000040: af37 c73d 6507 dd3d c458 9fbe addf aabe
00000050: 5d48 71bd 3a1c 16be c18c ceb9 51db 213e
00000060: 4a58 e33d 93c6 ddbd a320 b13d 1f31 133e
00000070: 4e1e b0bd 92b2 6dbd 5f63 b3bd b416 45be
00000080: d9ba c33d ee6d c23d 6520 113e ce05 7dbd
00000090: 82f4 843d 4e8e 1e3d f3ef bcbd 098c a6bd
000000a0: ffd3 f13d eea6 e13d a351 533d 3320 833d
000000b0: 4a0e 1ebd 13f4 d8bd 64d6 e2be d3a7 a8be
000000c0: 3ab9 cc3c c577 653c 3893 86bd 453e 90be
000000d0: f4c8 9539 3130 f6bd 609d 8d3c 53b1 f0bc
000000e0: 265a b3bd 8de5 07be 8a53 0ebd d3bb afbd
000000f0: 527c 1f3d 4ed4 4d3c 87ef f73d 6d47 c73c
00000100: bb60 bd3c 8c45 2a3e 110a 83bc 281d b13d
00000110: efde f63d 8cb0 c73d 8f8e bcbd 7dd4 253d
00000120: 2150 4c3e e995 2cbe 1a55 25be d284 193e
00000130: a19e f73d 046e 36be 4ec7 dabd 432a fa3d
00000140: 7e4c 8dbc 2bed 29bb 7fdb dd3c a80d c33c
00000150: 724b 38be 1ecd 3bbb c3ff 75bd da42 693c
00000160: 8c9d de39 a74e d4bd 0daf f8bc 95c5 39bd
00000170: 8d5c 9bbe 8ef9 67be 788b 11be 215f 25be
00000180: 717b 27be bb28 e7bc f9ab 04be c1c1 5bbd
00000190: bde1 4cbc 3783 b7bc c2e7 da3c f6e1 22bd
000001a0: dc76 d8bd 4f09 a5bd 7e51 903c b173 10be
000001b0: a75b f63c 175a 973d 146a 64bd 667f 083e
000001c0: a506 f8bd 791a a1bd 5316 fb3d e733 c2bd
000001d0: f91b b63d 34d3 313e 44fb 063e 437e 6cbc
000001e0: 109c 103d 0483 413e ae55 d3be de1f d7bb
000001f0: 7f80 5e3e 7594 083e 6a0c f33b 6dad d3bd
00000200: da7c 453e 592e 473e 75cf 883d 354d d4bb
00000210: 8e22 1b3d e4a7 debd 96dd dabd ab4c 95bc
00000220: 21b9 7e3c e992 ddbd 768c 0fbe ffd6 93bd
00000230: 94b6 6dbd 0437 47be 8cf3 84be f1a8 b6be
00000240: d061 c9be 91de c8be 17be 12be 4eea 01be
00000250: 9577 44be 8040 a3bb 8905 e1bc e063 f53c
00000260: 3747 123b 7c1f 65bc 6301 89bc 7d66 c63c
00000270: aaba 55bd ed77 44bd 8dec a63d fa68 033c
00000280: 0151 ec3d df86 f13d d3da 333d b2ff 083d
00000290: 4fa6 ab3d 9fcb 553d 099f 343e 4a9f 103e
000002a0: d73d 0c3e cb98 063e ce8b f53d bd53 c3bd
000002b0: 2108 89bd 0c61 433e 7feb e83d 0ca3 243d
000002c0: 8155 343e f5ad f53d 2f7f 243c ca17 483d
000002d0: 2aa9 153e d22d 833d 4ec7 523e c61b e73c
000002e0: a6a1 e13d f08c 143d 5bde ffbd b8e1 87bd
000002f0: 95e6 d23b 793b 0bbd ef58 85bd 76da f3bd
00000300: fa31 453c 2896 7f3d bb15 29be 45f9 8abe
00000310: b2eb 943d b0b5 e23d e4f4 413d ad18 493d
00000320: 0d27 07be 28c7 f6bd db2c 34be 608f 19bd
00000330: ee5a 91be 1ca5 32bd d4aa a2bd 76f4 36be
00000340: 313b 78be 0a5f c93c 37cb b9bd 609b a3bc
00000350: a286 19be 0069 503e 0820 cb3c e1d7 d3be
00000360: c206 77be d175 ccbd f26a 4dbe 3391 8dbe
00000370: fb52 e7bd 606f 76be d1c1 4b3d 6b1b d4bd
00000380: 2f31 44bc 3a77 26bd 9b54 a3be 820b 85be
00000390: a7b7 cabc 0e6b 913a 12a6 c83c aaf8 59bd
000003a0: e492 aa3d 9066 0f3e ffb7 0d3e 2046 d23c
000003b0: 80cd b03c b77a fabc b920 273d 31e2 3abc
000003c0: f522 d43d db1d f6bd 1bfe 94bd 856b 4dbe
000003d0: 429c d6bc 96c5 373d e6f3 9b3d 8c7c 343e
000003e0: 1b58 113e 9bd8 03bc 3e34 23ba a787 0cbd
000003f0: 2f14 38bd 8c22 a8bd 5920 48bd 59c9 9abd
0.017252041 -0.025784448 -0.1513739 -0.15126988 -0.31229377 -0.17281055 -0.021102125 0.0017353222
-0.20984204 -0.15039343 -0.05535923 -0.19360957 -0.30548316 0.022597319 -0.016806021 -0.020771854
0.09727418 0.10792426 -0.3112241 -0.33373776 -0.0589069 -0.14659205 -0.00039396252 0.15806319
0.11100824 -0.10828891 0.08648803 0.14374207 -0.0859953 -0.058031626 -0.08759188 -0.19246942
0.09557123 0.09493624 0.14172514 -0.061773114 0.06491949 0.03870993 -0.09225454 -0.08132178
0.11808013 0.110181674 0.051591527 0.06402626 -0.038587846 -0.105934285 -0.44304192 -0.3294054
0.024990667 0.014005606 -0.065710485 -0.28172508 0.00028569216 -0.120209105 0.017286956 -0.02938143
-0.08757429 -0.1327116 -0.034747638 -0.085807465 0.03893692 0.012562824 0.12106233 0.02432605
0.023117414 0.16628093 -0.015996011 0.08648139 0.1205424 0.097504705 -0.092068784 0.040485848
0.19952442 -0.16854061 -0.16145745 0.14992073 0.12090803 -0.17815405 -0.106825456 0.12215092
-0.017248388 -0.0025928717 0.027082203 0.023810223 -0.1799753 -0.0028656195 -0.060058367 0.01423713
0.0004246052 -0.10366564 -0.030356908 -0.045354445 -0.30344048 -0.22653791 -0.1421336 -0.1614957
-0.16355683 -0.028217664 -0.12956227 -0.053651575 -0.012504992 -0.022401435 0.026721839 -0.039766274
-0.105695456 -0.08058416 0.017616984 -0.14106633 0.030073 0.0739023 -0.055765226 0.13329849
-0.12110642 -0.078663774 0.122601174 -0.09482556 0.08892054 0.17365724 0.13181788 -0.0144344
0.035305083 0.18897635 -0.41276306 -0.006565078 0.21728705 0.13337882 0.0074172514 -0.10335813
0.19285908 0.19451274 0.06680194 -0.0064789304 0.03787475 -0.10871866 -0.106867954 -0.018225035
0.015547068 -0.108190365 -0.14018425 -0.072187416 -0.05803545 -0.1945458 -0.25967062 -0.35675767
-0.39332438 -0.39232305 -0.14330326 -0.12687036 -0.19186242 -0.0049820542 -0.02746846 0.02995485
0.002232028 -0.013984557 -0.016724294 0.024218792 -0.05217997 -0.047965933 0.08150587 0.008020634
0.11538888 0.11793303 0.04390986 0.033446975 0.0838133 0.05219614 0.17638792 0.14123264
0.13695465 0.13144223 0.11989556 -0.09537456 -0.066910036 0.19079989 0.11373042 0.040194556
0.17610742 0.1199607 0.010040089 0.048850812 0.14615312 0.06405224 0.20583841 0.028211486
0.1101716 0.03626722 -0.12493583 -0.06634849 0.006436179 -0.033992264 -0.06511103 -0.119069025
0.012035841 0.06239906 -0.16512196 -0.27143303 0.07271518 0.110698104 0.047352687 0.0490958
-0.1319849 -0.12049705 -0.17595236 -0.03749025 -0.28389686 -0.04361449 -0.07942739 -0.17866692
-0.2424133 0.024581451 -0.09071963 -0.01997155 -0.14992765 0.20352554 0.024795547 -0.4137564
-0.24123672 -0.09983409 -0.20060328 -0.2764984 -0.11295124 -0.24065924 0.049745385 -0.10356792
-0.011974617 -0.040641047 -0.31900486 -0.25985342 -0.024745775 0.0011094527 0.024493251 -0.05321566
0.083287984 0.14003968 0.1383972 0.025668204 0.021582365 -0.030576093 0.04080269 -0.011406467
0.1035823 -0.12017413 -0.07275029 -0.20060547 -0.026197556 0.044866167 0.07614879 0.17625636
0.14193766 -0.008047248 -0.0006225741 -0.034309056 -0.044941124 -0.08209714 -0.048858974 -0.07557935

linear.bias f4 [10]
00000000: f3ed 793d b3c0 f43d bb97 f03c 4b67 9dbd
00000010: 8758 6ebd c272 89bc aaa2 bb3c 1e6a 163d
00000020: 62e9 81bd 1cae a3bc
0.06101794 0.11950817 0.029369226 -0.07685717 -0.058189895 -0.016778354 0.022904713 0.036722295
-0.06343342 -0.019980483
