plot/model/model_epoch7.pth (torch, 43647 bytes, 6 tensors)

conv1.weight f4 [16, 1, 3, 3]
00000000: e3a9 39be e4e8 d1bd c72b d1be e84f 973e
00000010: 5b7a b93e c091 b03e 5cbc e63e bc09 d53c
00000020: 5100 2b3d 309d ddbe a184 86be 1de4 ba3e
00000030: 8987 ffbe 65c4 1abe 5f9b e13e 1185 16bf
00000040: bf01 883e 5270 053f 3098 07be 4e2b bcbd
00000050: 6f3f c53d 3ac1 b9bd 7689 cebd 0101 bdbd
00000060: 53c6 613e 062d 39bd 6619 85be f633 303f
00000070: 09be 083f 1fea 163f cc7e 003f cf82 a73e
00000080: dfbc 0dbe 9359 3f3e f742 d7be 0a3c 5b3d
00000090: 5c1b 323d 8b22 033f 3508 2c3f 4815 22be
000000a0: e868 b1bd 7a56 6bbd c79d 8fbd fa0b 42bf
000000b0: 7d3b 47be ee44 3b3e 1654 7d3e 451e ef3d
000000c0: 0898 e0bd 6f0e 993d e354 eb3d 3819 49ba
000000d0: aa31 8a3d 2a90 423e ba55 7d3e 0432 8a3e
000000e0: bb88 8c3e d288 a33e 4e3b 4abe 97ca 753e
000000f0: c8c7 a0be e17c c13d 8200 b83e 7396 423e
00000100: 22ef 9a3e 6cb2 043f 70b4 d63e bfa1 543e
00000110: fcb9 4f3e 8d33 0b3e 601c 89bd 1985 e7bd
00000120: a0b2 653e 01d8 3ebe a9be 10bf d3ec 5abd
00000130: 814b 123e 1551 873d feaa c23e 7c9b 9c3e
00000140: 0a4c 903e 1e5c c03e 01a3 ef3e 484c ad3d
00000150: 47cb 03bc 1d84 453d 3026 a63e 17b0 2ebf
00000160: c379 0ebf d437 05bd a275 24bf bb92 debe
00000170: 4af0 52be b173 b2be 71c4 133e 7153 953d
00000180: 70a2 1e3f ab3b c63e 1859 623e 803b 32be
00000190: 883e 1d3e c477 0f3c 2566 82be 0db9 af3e
000001a0: 199f 013f 516a 4d3e 738b 2fbe 1645 7d3e
000001b0: c0fc 73bd 55c7 393f d437 ed3e d0df 6abf
000001c0: a0ea 0dbe b90a d0be 3f6b c4be 7f69 02bf
000001d0: ab05 27bf aa8f 81be 8c5a 2d3e 36f9 233e
000001e0: 3654 083f ef86 ca3e df23 003e 0f46 513e
000001f0: c20c b1be c43d 13bf b6a6 a13e d476 59bc
00000200: c7a1 563e da7e 6f3e a2e3 d53c ef18 2e3f
00000210: 9e14 f83e e800 433e a71b a63e bce3 f73d
00000220: dcca 00bf ed8c 1ebf d40e 163f b047 16be
00000230: e865 2e3d 10f4 d23e 0f9e 68be a719 d23e
-0.18131213 -0.102494985 -0.40853712 0.2955315 0.36226162 0.34486198 0.45065582 0.026005618
0.04174835 -0.43283987 -0.26273063 0.36502162 -0.49908093 -0.15113981 0.4406385 -0.58796793
0.26563832 0.5212451 -0.13241649 -0.09187947 0.096312396 -0.09070058 -0.10084812 -0.09228707
0.22048311 -0.045208953 -0.2599594 0.68829286 0.5341497 0.5895099 0.50193477 0.32716987
-0.1384158 0.18686514 -0.42043278 0.053524055 0.043483123 0.51224583 0.6720002 -0.1582843
-0.086625874 -0.057455517 -0.070125155 -0.75799525 -0.19456287 0.18288013 0.24739107 0.11675695
-0.10966498 0.07473456 0.114908 -0.00076712994 0.06747754 0.19000307 0.24739733 0.26991284
0.27448067 0.31940323 -0.19749185 0.24003063 -0.3140242 0.09447647 0.35937887 0.19002704
0.3026057 0.5183475 0.41934538 0.20764826 0.20285791 0.13593884 -0.06694865 -0.11304683
0.22431421 -0.18637086 -0.56540924 -0.05344851 0.14286615 0.06607262 0.38021082 0.30587375
0.28183013 0.3757028 0.4680405 0.08461815 -0.008044071 0.048221696 0.3245101 -0.6823744
-0.55654544 -0.032523945 -0.64241993 -0.4347132 -0.20599476 -0.3485389 0.14430405 0.07291306
0.6196661 0.38717398 0.22104299 -0.1740551 0.15355885 0.008756582 -0.25468555 0.3432087
0.5063339 0.20060088 -0.1714304 0.24733385 -0.059567213 0.7256978 0.46331656 -0.9174776
-0.13859034 -0.4063318 -0.38363072 -0.50942224 -0.65243024 -0.2530492 0.16929072 0.16013035
0.53253496 0.3955607 0.12513684 0.20436881 -0.34580046 -0.5751612 0.31572503 -0.01327296
0.2096015 0.23388234 0.02610952 0.68006796 0.4845323 0.19043314 0.32442972 0.12103984
-0.5030954 -0.61933786 0.58616376 -0.14675784 0.042577654 0.4120183 -0.22716545 0.41035196

conv1.bias f4 [16]
00000000: fa12 9fbb a36b 5cbd 2c1f aebe b1e6 07bc
00000010: ea69 f3bb b561 323d edb1 cfbe ddec 2abb
00000020: bce4 29be 8665 07bd 17b7 383e 04ae a5bc
00000030: e517 f33d d0f4 8ebd 7e80 0dbc e1d8 ffbc
-0.004854557 -0.053813588 -0.34008157 -0.008294747 -0.0074283974 0.043550212 -0.40565434 -0.0026081123
-0.16591161 -0.033055805 0.18038593 -0.020224579 0.11869792 -0.06980288 -0.008636592 -0.031231346

conv2.weight f4 [16, 16, 3, 3]
00000000: bb75 93bd 6e8d 333e b98c 903d 5da7 3f3e
00000010: 81be e33d 3652 7cbd c4c5 52bd 8b39 97bd
00000020: 3b95 3fbe be55 bc3e 0759 423e 98fa 603e
00000030: ee93 063e 4aa8 0a3e 5e81 07bf 5080 c8be
00000040: 90b1 afbe b22c a8be c217 89bd 87e2 923d
00000050: a0ae 4d3c 783e 9cbd 843d 9bbd c3cb 2c3d
00000060: af67 803d 0087 14bd e21e b03d 7546 43bd
00000070: 6393 d23d 9943 d93d 34cc fabd e6c8 473e
00000080: d8cd 4d3d c342 9e3c bce1 56bb af9a 00be
00000090: 6874 07be c6c9 34be 08fa 40be 7101 afbe
000000a0: 31ad bbbd 053b 11bd 84d2 593d 3fb1 aabd
000000b0: 33ed 9cbd d757 b33d 795c 293e 4a94 ec3c
000000c0: ee2a cf3d e3f4 733d e450 08be 52bf d43d
000000d0: 55cd bb3b abaf 53be 73de febc 02d9 3d3e
000000e0: 928d 053e e6e7 f3bd 0552 213e 3995 0cbe
000000f0: 9231 143e ad96 8e3d 8039 98be 149b 31be
00000100: dc7f 3c3e fc99 2a3d e77f 88bd 1016 a63d
00000110: e6ce c7bc 8ae5 f23d 844c 50bd c6db b1bd
00000120: 6f98 23be 8086 fb3d 39c9 e6bc 9f75 8b3d
00000130: 3e02 8abd 8783 86be 56ce 0bbe 8daf 68be
00000140: 1253 02be 6ab6 2dbc 9f11 08be f4e8 71be
00000150: 48b2 d6be c48d 103d 1c7d 02be e1ec 813e
00000160: a60d 8c3c c4e7 453d 74d1 fe3d e1b6 23bb
00000170: 9a62 d4bd 7441 683e c49b dcbc ac85 97be
00000180: 6d2d f03d 97a8 65be 89a7 9bbd 0134 9f3d
00000190: 8a43 623e 5a94 e53d 50bc 5b3e f4ae 013e
000001a0: 3db1 8abe 6788 aebd b99b bdbd e461 8bbe
000001b0: 27c7 c3bd d785 40be 6166 c03c 154e b3be
000001c0: 15c8 6dbe babb 5bbe 3587 dcbd 15d0 003e
000001d0: d142 e93d aea7 cbbd 6cb7 f13d 7127 a83e
000001e0: 533e 8d3e 99b1 2b3e fef9 813d 13c4 933e
000001f0: b58a 853d fcf9 46bd a7cb 47be 2248 453e
00000200: 20a2 a4bc e405 073d 273d 243e 548e e8bd
00000210: 03c5 5a3a 6ee4 07be eea7 21be d2f0 8abe
00000220: f6a4 91bd 0cb8 40be 6b6d 5ebe 896a 84bd
00000230: 5ccb 69be 8cf8 70be 6717 5ebe fb3f 0dbd
00000240: 4773 703b 81a5 3f3d a108 3e3e 1e79 313e
00000250: 1a80 d73d 87cd fabd 8963 f6bd 21dd 823d
00000260: 073e 6ebe 1a61 8dbb 8308 043c ca3a 1a3e
00000270: d702 8c3d 3b3b 343e c9eb c6bc 65db 333f
00000280: cad6 333e 867b 26bc 6b0b 463c a1a3 e2bc
00000290: 7a59 903c 7e82 34bd 92c4 00bd daf4 9e3d
000002a0: abe8 7dba d050 853d 8005 f73c 475c 1bbd
000002b0: 643e 95bd 0f3c afbd e61e 25bd 9185 80ba
000002c0: fb6c f93d 0a2c 483d 8fdd 243e 7bc8 a03c
000002d0: b638 f4bc d1ae d7be 762e 2cbf 1466 d2bd
000002e0: 0b2c 65bd e750 8f3e 4960 2d3e 5bb2 0bbd
000002f0: 33cc c5bc 3b48 88bc 83a2 8c3b 4ce4 9bbd
00000300: 771c 893c b35b 58bd 4ade 84bd 721b 773d
00000310: 3118 b23d f15d 84be 9ffd a1bd e72b d1bd
00000320: 52c6 18bb 2138 053d 7d3a c5bc cbc1 243d
00000330: f341 e93d 452a 503d 22d4 bfbe 758f 00bc
00000340: 341e dabd cbce 86bd 593a fe3c 24cb bb3d
00000350: 8bfd e43d 0d51 0fbd 1082 343e 798e 5bbe
00000360: 5801 f6bd fe97 ec3b f28b 8a3e ea3b 8d3d
00000370: 6f85 113c 6f11 5dbe 6f64 71be 24f1 58bd
00000380: ec17 9abe 2356 8bbd e916 88be 6406 fdbe
00000390: 757c bcbd 4d40 12be 2ce1 fe3d a2d1 8e3e
000003a0: 6e96 3a3d 666e 35bb a3e3 e13d 7e98 8a3b
000003b0: 8045 803e 37d8 a53d 2fe0 e9bb dedc bdbd
000003c0: b4e2 01be de07 1f3e 5d96 03be 1e62 193d
000003d0: 3521 97bc edba dd3d 9dcc c1bc dc34 01bc
000003e0: cfcf ecbd 4125 99bc 9246 d73d ded9 87be
000003f0: 247e 893d d8b5 423d 3880 80be 2f04 febd
-0.0720019 0.1753442 0.07058091 0.18716188 0.1112032 -0.06160184 -0.051458135 -0.07384022
-0.1870927 0.36784166 0.18979274 0.21970594 0.13142368 0.1354076 -0.52931774 -0.39160395
-0.34315157 -0.328466 -0.066939846 0.07172113 0.012553841 -0.076291025 -0.075800925 0.04218651
0.06269776 -0.03626156 0.085996404 -0.047674615 0.10282018 0.10608596 -0.1224598 0.1951023
0.050245136 0.019318944 -0.0032788357 -0.12559007 -0.13227999 -0.17655095 -0.1884538 -0.34180787
-0.09163893 -0.035456676 0.05317928 -0.08334588 -0.0766243 0.087569885 0.16539182 0.028879303
0.1011561 0.059559714 -0.13312107 0.10388054 0.0057312646 -0.20672481 -0.031111931 0.18539813
0.13042286 -0.119094655 0.15753944 -0.13728799 0.14472035 0.06962333 -0.2973137 -0.17344314
0.1840815 0.041650757 -0.066650204 0.08109677 -0.024390649 0.11860187 -0.05085422 -0.086844966
-0.15976118 0.12281513 -0.028172122 0.06809544 -0.06738709 -0.26272222 -0.1365293 -0.22723217
-0.12727001 -0.010602573 -0.13287972 -0.23624021 -0.41932893 0.03529145 -0.12743038 0.25376037
0.017096352 0.048316732 0.12442294 -0.002498083 -0.10370369 0.22681218 -0.026929744 -0.2959417
0.11727414 -0.22427593 -0.07600314 0.07773591 0.22096077 0.112099364 0.21458554 0.12664396
-0.27088347 -0.085221104 -0.09258217 -0.27223122 -0.0955947 -0.18801056 0.023486318 -0.3502051
-0.23220856 -0.21458331 -0.10767976 0.12579377 0.11389697 -0.09944092 0.11802563 0.3284259
0.27586612 0.16766967 0.0634651 0.2886053 0.06520597 -0.048578247 -0.19511281 0.19265798
-0.020096838 0.032964602 0.16038953 -0.11355272 0.0008345397 -0.13270733 -0.15786716 -0.27136856
-0.07111542 -0.18820208 -0.21721427 -0.064656325 -0.22831482 -0.23532313 -0.21688615 -0.034484845
0.0036689804 0.046788696 0.18557979 0.17331359 0.1052248 -0.122462325 -0.120307036 0.06389833
-0.23265849 -0.004314554 0.00805867 0.15061489 0.06836479 0.1760072 -0.024282353 0.70256644
0.17562404 -0.010161286 0.012087683 -0.027665915 0.01762079 -0.04406976 -0.031437464 0.077615455
-0.00096858543 0.065095544 0.03015399 -0.0379298 -0.07287291 -0.08556377 -0.04031267 -0.0009805431
0.121789895 0.048870124 0.16100143 0.019626847 -0.029812198 -0.42125562 -0.67258394 -0.10273376
-0.055950206 0.2799141 0.16931261 -0.03410564 -0.024145221 -0.016636005 0.004291834 -0.076119035
0.016737206 -0.052821826 -0.06487711 0.06032891 0.086960204 -0.25852922 -0.079097025 -0.10213452
-0.0023311567 0.03252423 -0.024075741 0.040223878 0.11389532 0.05082156 -0.37466532 -0.007846703
-0.10650292 -0.065824114 0.031033682 0.091696054 0.11181172 -0.034989405 0.1762774 -0.21441068
-0.12011975 0.0072202673 0.27059895 0.06896193 0.008881911 -0.21588682 -0.23573469 -0.052964345
-0.30096376 -0.06803539 -0.2657998 -0.49418938 -0.09203426 -0.14282341 0.12445292 0.27894312
0.045553617 -0.002768421 0.110297464 0.0042296043 0.25053024 0.0809788 -0.0071373205 -0.09270643
-0.12684137 0.15530345 -0.12850328 0.037447087 -0.018448452 0.10826669 -0.023657138 -0.007886138
-0.11563074 -0.018694522 0.10511507 -0.26533407 0.067135125 0.0475367 -0.25097823 -0.12403142

conv2.bias f4 [16]
00000000: dbbb c33d 392e 06bd 4fac 213c b856 2bbe
00000010: 8d34 16be d552 09bd 6da1 abbb 8964 24be
00000020: de4b ca3b bf81 533d ba88 96bd 6433 8f3d
00000030: f5d3 25be dcde 2e3c 8c27 5dbd e9c7 c03c
0.09557315 -0.032758925 0.009867742 -0.167323 -0.14668484 -0.03352626 -0.0052377493 -0.16053976
0.006173595 0.051637407 -0.07350297 0.06992224 -0.16194136 0.010673251 -0.053992793 0.023532825

linear.weight f4 [10, 784]
00000000: d64f 8d3c 6e2d 38bd 2d58 40be 3b72 28be
00000010: a381 aabe e02a 4cbe b76c 55bc 50b0 9dbb
00000020: 2a62 6ebe bc5e 2dbe b602 88bd b6ff 59be
00000030: 12ef acbe 32d7 fc3c 04e3 71bc 4d86 89ba
00000040: cfdf d53d 5c79 dc3d 67de b3be d90c c3be
00000050: 952b 3bbd 016d 20be 7123 a13c b031 243e
00000060: 0f01 043e 3e94 fcbd 4d78 b03d 70cd 143e
00000070: f4db aebd 01fc 4dbd c37b d2bd a973 53be
00000080: b927 ea3d bf1a c13d 3c90 123e 37a6 60bd
00000090: 14cb 953d 389c 0a3b c29d d5bd e0b4 c6bd
000000a0: 7517 f93d 8667 013e 79a5 443d 92c4 833d
000000b0: 9913 a0bd 6452 e9bd 91c6 fabe f99c b9be
000000c0: 4f48 123d ff75 593c d17e 66bd adab 9fbe
000000d0: 4f48 5ebb e6f5 20be 6d38 c73c 48e2 24bd
000000e0: 60bd d2bd 8416 1ebe b26a 42bd e70e cdbd
000000f0: 3794 b23c 1086 e93a 0843 123e e9b4 4f3d
00000100: aaeb ef3c f366 363e 8404 f1bc f019 d93d
00000110: cbbc f53d fe93 e03d 4268 e5bd 7adf 623d
00000120: b7b7 4d3e 4387 38be d34f 2abe 207d 1b3e
00000130: f1ad 023e a27f 30be 9747 debd 8fe5 d93d
00000140: 5e57 78bc b92f bc3b e2f0 b23c 517d 4e3c
00000150: d670 47be 65c5 80bc 16f6 babd 6f89 bf3a
00000160: c65e 1abc 0806 0dbe 3169 38bd fc8b 66bd
00000170: 0cf4 adbe c0c1 81be 55c2 21be 5796 24be
00000180: ea74 48be 2ac5 00bd ac59 20be fbbb 8dbd
00000190: 33d7 b2bc 89b5 01bd 9e01 ac3c ac7a 2abd
000001a0: 774f 07be 022a dabd 4e47 cb3c 297b 2cbe
000001b0: 7b33 e13c 75b9 873d 9580 86bd 7658 163e
000001c0: 70b1 f4bd ac52 b2bd 988f 083e fda6 c9bd
000001d0: 72af c53d f2e8 3c3e 8a5c 133e 1fe9 153b
000001e0: 1bee 223d 8f95 4c3e dcb5 dcbe adff 993c
000001f0: 5d62 743e a945 143e 0409 0e3d 53b7 e4bd
00000200: bb8f 443e f0c7 543e 8407 9e3d e7df ddbc
00000210: fa56 a63c 0fdc 12be 282e f6bd 323b 3cbd
00000220: 3859 f23b f2a6 00be 5653 2fbe a520 c0bd
00000230: 09b6 93bd bb44 46be 9211 7abe 4c47 c3be
00000240: 280f d6be 73ff e0be faa0 31be 0d16 02be
00000250: aa2c 70be 1761 c1ba 28bc 71bd 9562 b23c
00000260: dc50 c43b 1d17 bbbb 3c17 acbc 3d14 0c3d
00000270: 45c7 82bd d357 8bbd 02ca a33d 1f3e ce3a
00000280: fc50 023e 1cfd 0d3e b675 2e3d ec96 063d
00000290: 1f85 b93d cffe 633d 34d0 423e ad8b 183e
000002a0: 1ac7 2d3e b536 093e 9079 0e3e 85f1 c4bd
000002b0: ee91 84bd eeb1 5a3e 1896 033e 4fac 6d3d
000002c0: a569 373e 43af 023e e343 553c 42dd 6c3d
000002d0: 63fd 1e3e 57ba 733d dbb2 783e 6c54 873c
000002e0: 706a df3d 4d87 053d 5e08 12be 761f afbd
000002f0: 1248 edba 0981 29bd ac09 91bd af19 05be
00000300: 13c9 8c3c f6ac d93d b731 23be f5a3 9fbe
00000310: df57 d23d 2da8 eb3d 2cb3 9e3d 4394 483d
00000320: d1c3 eebd 6d52 f0bd a947 46be 94b5 41bd
00000330: 1e66 a0be 4fda 32bd f08e bcbd 386a 38be
00000340: 0e2c 7fbe 761d 913c 8b85 a8bd 49fa 093d
00000350: 7a65 19be ad17 5a3e 3771 f33c 569b e4be
00000360: d8c2 81be 4515 f5bd 4d0a 3fbe 232f 92be
00000370: 4ab4 b6bd 6a60 7cbe 647e 9f3d a9ae aabd
00000380: e2fd d03c 95bc 2cbd 78ae a5be c359 86be
00000390: 49a1 ddbc 5772 023a e9d0 a13c b067 4dbd
000003a0: 4097 853d 8fca 0a3e 87f4 133e 08d8 c83c
000003b0: 971d a6b9 4b93 32bd c536 e93c b78a a7bc
000003c0: 6dc5 ee3d db50 07be 7ab3 88bd 7dd5 5cbe
000003d0: 55ba 1dbd 5c93 653d 4bc9 af3d b832 4a3e
000003e0: 9e43 283e 39fa 5b3c 5b93 d83c 14d2 1ebd
000003f0: 1ca2 81bd 0cd6 b5bd e7ae 54bd 410a a0bd
0.017249983 -0.0449652 -0.18783636 -0.16449825 -0.3330203 -0.1993823 -0.013026408 -0.004812278
-0.23279634 -0.1693067 -0.06641142 -0.21288952 -0.33776146 0.030864332 -0.014763597 -0.0010492295
0.10443079 0.10765335 -0.35130617 -0.3809574 -0.04569586 -0.15666582 0.01967022 0.1603458
0.12891029 -0.123329625 0.086166956 0.14531493 -0.085380465 -0.050289158 -0.10277512 -0.2064959
0.11433358 0.094289295 0.14312834 -0.054846015 0.07314125 0.0021150243 -0.104304805 -0.09702468
0.12162677 0.12637147 0.04800937 0.06433977 -0.07816238 -0.11392668 -0.4897962 -0.36252573
0.03571349 0.013272761 -0.056273285 -0.31185666 -0.003391761 -0.15718803 0.024318898 -0.04025486
-0.10290027 -0.15438277 -0.047465034 -0.10012608 0.02179919 0.0017816443 0.14283383 0.05070964
0.029287178 0.1781271 -0.029421099 0.1060065 0.119989 0.10965727 -0.11201526 0.055388905
0.20089613 -0.18020348 -0.16632013 0.1518445 0.12761666 -0.17236188 -0.108534984 0.10639488
-0.015157549 0.0057429937 0.021843378 0.01260312 -0.19476637 -0.015719125 -0.091289684 0.0014613102
-0.00942201 -0.13771832 -0.045022193 -0.056285843 -0.33975255 -0.25343132 -0.15796788 -0.16072975
-0.19575849 -0.03143803 -0.15659207 -0.0692062 -0.02183113 -0.031667266 0.020996865 -0.041620895
-0.13213907 -0.106525436 0.024814274 -0.16843857 0.027490368 0.0662717 -0.06567494 0.14682183
-0.11947906 -0.08707175 0.13336027 -0.098463036 0.09652604 0.18448237 0.1439077 0.0022874547
0.039777856 0.19978927 -0.43107498 0.018798674 0.23865648 0.14479698 0.034676567 -0.11167779
0.19195454 0.20779395 0.07716277 -0.027084304 0.020305146 -0.14341758 -0.12020522 -0.04595489
0.0073958896 -0.12563685 -0.17121634 -0.093812265 -0.07212455 -0.19362156 -0.24420765 -0.38140333
-0.41808438 -0.43944892 -0.17346564 -0.12703724 -0.23454538 -0.0014753666 -0.05901733 0.021775523
0.0059910845 -0.0057095424 -0.021007173 0.03419899 -0.06385664 -0.068038605 0.07997514 0.0015735066
0.12726206 0.13866085 0.042592727 0.032858774 0.09058594 0.055662926 0.19024736 0.14897032
0.16970482 0.13399775 0.1391356 -0.09616379 -0.064731464 0.21356937 0.12850225 0.058025654
0.17911394 0.1276217 0.013016674 0.057828195 0.15526347 0.05950388 0.24286978 0.016519748
0.10908973 0.032599736 -0.14261004 -0.085509226 -0.0018103144 -0.041382823 -0.07081923 -0.12998079
0.017185723 0.10628693 -0.15936933 -0.31179777 0.10270666 0.11506686 0.07749018 0.04896952
-0.11658443 -0.117344715 -0.19363274 -0.047292307 -0.3132791 -0.043665227 -0.09206951 -0.18009269
-0.2491915 0.017714243 -0.08228596 0.033685956 -0.14980116 0.21298094 0.029717071 -0.44649762
-0.25343966 -0.119669475 -0.18656273 -0.28551587 -0.08921106 -0.24646154 0.07787779 -0.08334095
0.025511686 -0.042172033 -0.32359672 -0.26240358 -0.027054446 0.00049761444 0.019752936 -0.050147712
0.06522989 0.13553832 0.14448749 0.024517074 -0.00031684033 -0.0435975 0.028468499 -0.020451887
0.1165875 -0.13214438 -0.066748574 -0.21565814 -0.03850778 0.056048736 0.085833155 0.1974591
0.16432044 0.013426357 0.026437452 -0.038774565 -0.06329748 -0.08878717 -0.051924612 -0.07814456

linear.bias f4 [10]
00000000: 0f22 8b3d 7334 083e c69a ef3c 05e8 aabd
00000010: 892d 80bd c6a2 adbc 8ce4 e33c 1bc2 293d
00000020: 3f50 90bd 2b9b a5bc
0.067936055 0.13301258 0.029248606 -0.083450355 -0.06258685 -0.02119578 0.02781894 0.04144488
-0.07046556 -0.020215591
