plot/model/model_epoch3.pth (torch, 43647 bytes, 6 tensors)

conv1.weight f4 [16, 1, 3, 3]
000000 2c 00 c9 bd 43 18 3c bb 2a 0d b5 be 2c 30 87 3e
       -0.09814486 -0.0028700985 -0.35361606 0.2640394
000010 2b 73 9a 3e 16 0d 94 3e 21 da ec 3e cb fa ee 3a
       0.3016599 0.28916234 0.4626017 0.0018232701
000020 d0 e6 c5 3d 80 0c c0 be d3 3b 73 be 05 10 c0 3e
       0.096631646 -0.37509537 -0.2375329 0.37512222
000030 3d 3c ea be 1f 86 34 be dd d8 e2 3e cd 29 10 bf
       -0.45749083 -0.17629288 0.4430608 -0.5631378
000040 18 99 6f 3e 12 28 f9 3e 30 98 07 be 4e 2b bc bd
       0.23398244 0.48663384 -0.13241649 -0.09187947
000050 6f 3f c5 3d 3a c1 b9 bd 76 89 ce bd 01 01 bd bd
       0.096312396 -0.09070058 -0.10084812 -0.09228707
000060 53 c6 61 3e 06 2d 39 bd 66 19 85 be aa ab 16 3f
       0.22048311 -0.045208953 -0.2599594 0.5885569
000070 0d 05 a9 3e b1 2c e8 3e b4 4f 0c 3f 5b ac bb 3e
       0.33011666 0.45346597 0.5480912 0.36654934
000080 b9 59 94 bd f4 79 58 3e e5 47 cb be 99 ae 10 3e
       -0.07243676 0.21140271 -0.3970329 0.14129104
000090 ad 9f 8a 3d d7 6f 0c 3f ab 2c 2b 3f 39 2d 3d be
       0.06768737 0.54858154 0.6686503 -0.18474282
0000a0 24 a4 a9 bd 13 75 d4 bd d2 1a bd bd 46 f2 28 bf
       -0.082832605 -0.10373893 -0.09233631 -0.6599468
0000b0 ae b5 70 be 95 b2 52 3e 5c fc 7f 3e 37 b1 fa 3d
       -0.23506805 0.20575936 0.24998611 0.12240832
0000c0 1e 39 0c be c7 0e 32 3d 99 6c 12 3e 2b 89 20 bc
       -0.13693663 0.043471124 0.14299239 -0.009798328
0000d0 46 68 d9 3c d0 52 58 3e ab e5 71 3e e2 1b a2 3e
       0.02653898 0.2112534 0.23622768 0.31661898
0000e0 9d d2 a1 3e 66 da a4 3e 3d e2 72 be 21 cb 5f 3e
       0.31605998 0.32197875 -0.23719116 0.21854831
0000f0 27 a4 9e be 19 1f c6 3d 4c dc a0 3e 47 63 0e 3e
       -0.30984613 0.096739 0.31418073 0.13905059
000100 72 25 81 3e 57 d4 ea 3e d5 23 d5 3e 9c b4 81 3e
       0.2522388 0.45865127 0.416289 0.25333107
000110 a9 8c 7e 3e 22 7f 34 3e c0 51 92 bd c2 2a 6c bd
       0.24858345 0.17626622 -0.07144499 -0.057657965
000120 b2 e7 63 3e 10 07 02 be 44 71 ec be a5 30 9c bd
       0.22256353 -0.12698007 -0.46180165 -0.07626466
000130 b7 fc d4 3d aa 4a 13 3d ff 79 d6 3e 1f d8 8d 3e
       0.10399764 0.035959877 0.4188995 0.2770395
000140 78 10 84 3e 44 03 b2 3e b0 9b 03 3f e3 13 d6 3d
       0.25793815 0.34768116 0.51409435 0.10453012
000150 11 a2 0c bd be fd ca 3b 04 47 87 3e 54 32 1d bf
       -0.034334246 0.006194799 0.26421368 -0.6140492
000160 c4 73 06 bf 55 df 85 bd b3 9f 22 bf e3 73 a2 be
       -0.52520394 -0.06536738 -0.6352493 -0.3172904
000170 4c ed 28 be 8b c2 be be 82 89 ff 3d ea e0 d7 3c
       -0.16496772 -0.372578 0.124773994 0.026352365
000180 54 b2 03 3f 58 5e 9b 3e 40 94 5c 3e d9 33 34 be
       0.5144398 0.30345416 0.21540928 -0.17597903
000190 89 f6 19 3e 1a 78 d3 3b 22 31 71 be 4e 1b b4 3e
       0.15035452 0.006453526 -0.23553899 0.35177082
0001a0 6a f1 f5 3e 8a b7 43 3e 63 e1 25 be a9 60 58 3e
       0.48035747 0.19112983 -0.1619926 0.21130623
0001b0 79 88 73 bd 6f 37 2f 3f 11 ad c2 3e 97 cc 35 bf
       -0.059456322 0.6844396 0.38022664 -0.71015304
0001c0 ac 4f 6d be 65 3c cd be e2 54 a2 be ef e4 c9 be
       -0.23174924 -0.4008514 -0.31705385 -0.39432475
0001d0 df bd 0d bf 2e e3 6f be 64 9a 44 3e 9d 18 25 3e
       -0.55367845 -0.23426506 0.1919952 0.1612267
0001e0 c4 06 fc 3e 41 6b aa 3e d8 2b 65 3e a3 3f 62 3e
       0.49223912 0.33284953 0.22380006 0.22094588
0001f0 1a 8c a5 be fd 22 d9 be 26 17 b1 3e 67 e7 ec 3c
       -0.32333452 -0.42409506 0.34587973 0.028918935
000200 d2 d5 4f 3e 1f 3b 31 3e ea ad 81 3d 71 36 12 3f
       0.2029641 0.17307709 0.063319996 0.5711432
000210 2f ef c8 3e c5 d0 2f 3e 99 3d 7d 3e 02 a1 20 3e
       0.39244983 0.17169483 0.24730529 0.1568642
000220 70 8b c3 be 7b e9 e6 be 5f 90 f4 3e 28 23 4c be
       -0.3819232 -0.45100006 0.47766396 -0.19935286
000230 dc ac 9a 3d 3f f9 ce 3e 0b 7b 50 be 4b 2c e1 3e
       0.075525016 0.40424535 -0.20359437 0.43979105

conv1.bias f4 [16]
000000 2d d0 34 bb 94 fd bd bd 2c 1f ae be a9 b4 26 3d
       -0.0027589903 -0.09276882 -0.34008157 0.040699635
000010 ea 2f 12 bc 3a da be 3d 61 08 a2 be f7 de 0f bb
       -0.008922556 0.09318967 -0.31647018 -0.0021952966
000020 72 5c bc bd 41 d3 47 bc a8 9f 89 3e 73 5e 6c 3c
       -0.0919732 -0.012196363 0.2687962 0.014426815
000030 26 9f 25 3e ed 78 dd bc 51 99 f8 bb 49 67 8e bb
       0.16173992 -0.027035201 -0.007586636 -0.0043458086

conv2.weight f4 [16, 16, 3, 3]
000000 60 2a 7b bd 71 8e 0a 3e e5 4a 90 3d 50 4c 12 3e
       -0.06131971 0.135309 0.07045535 0.14286923
000010 d0 2d bd 3d c3 18 24 bd 49 76 a6 bd 50 ab 0b bd
       0.09237254 -0.040062677 -0.0812803 -0.034098923
000020 c4 da 1c be 7e 9e e0 3e 07 f4 1d 3e 37 ca 23 3e
       -0.15317827 0.4387092 0.1542512 0.15995108
000030 b3 54 22 3e 79 24 0b 3d 05 45 a5 be 38 a6 85 be
       0.15852623 0.03397033 -0.3227922 -0.26103377
000040 40 67 87 be 00 96 91 be c2 17 89 bd 87 e2 92 3d
       -0.2644596 -0.28434753 -0.066939846 0.07172113
000050 a0 ae 4d 3c 78 3e 9c bd 84 3d 9b bd c3 cb 2c 3d
       0.012553841 -0.076291025 -0.075800925 0.04218651
000060 af 67 80 3d 00 87 14 bd e2 1e b0 3d b0 c0 66 bd
       0.06269776 -0.03626156 0.085996404 -0.056336105
000070 a7 10 f6 3d fd 41 cc 3d 08 8d 56 bd 8a 22 df 3d
       0.12014895 0.09973524 -0.05238059 0.1089526
000080 d6 ca d5 3c a3 a8 68 bb c8 b3 0d bc cc 64 eb bd
       0.026097696 -0.0035500906 -0.00864882 -0.11493835
000090 ff 24 cc bd 33 79 42 be e9 c4 fb bd 57 9e a4 be
       -0.09967994 -0.18991546 -0.12293417 -0.32152054
0000a0 71 35 c3 bd 41 8e db 3c bb 66 a4 3d f4 bc 9b bd
       -0.095316775 0.02680123 0.08027407 -0.07604399
0000b0 47 ae 26 bc e8 87 bc 3d 33 e0 e7 3d 58 d0 b7 3c
       -0.010173387 0.092056096 0.113220595 0.022438213
0000c0 00 2b 60 3d 94 02 2c 3c 00 03 00 be 9a 59 ab 3d
       0.054728508 0.010498662 -0.12501144 0.083666995
0000d0 d2 81 c6 ba fc 1e 2e be e5 54 26 bd b9 26 27 3e
       -0.0015144891 -0.17004007 -0.040608305 0.16323365
0000e0 9a 6b 13 3e 50 8e 11 be fc 72 03 3e 2d 9e a2 bd
       0.14396515 -0.14214444 0.12836832 -0.07940326
0000f0 57 3b af 3d 14 1e 2e 3d b1 f5 83 be 09 f6 0f be
       0.0855624 0.042509153 -0.25773385 -0.14058699
000100 e2 ab 24 3e 39 c5 68 3d cf 8b 13 bd cf f5 dd 3c
       0.16081193 0.05682871 -0.036022004 0.02709475
000110 9c 3e ab bb 47 42 db 3d 30 a8 32 bd 06 42 98 bd
       -0.0052259695 0.10706001 -0.043617427 -0.07434468
000120 55 6a cc bd 30 38 10 3e f3 6b 40 3d 0a 6f 51 3d
       -0.09981219 0.14083934 0.04697795 0.051131286
000130 7e f7 1d bd fa 04 52 be 75 2e f7 bd 77 aa 37 be
       -0.038566105 -0.20509711 -0.12069408 -0.17936121
000140 98 93 11 be ac a7 e5 bc 66 89 dd bd bc d1 3c be
       -0.14216459 -0.028034054 -0.10817222 -0.18439382
000150 b6 b7 c3 be 66 72 df 3c 60 e5 e5 bd f0 01 3e 3e
       -0.38226098 0.02727623 -0.112253904 0.18555427
000160 3c e4 a1 3c ae c7 6d 3d be ca f5 3d 60 49 c6 3c
       0.019762151 0.058051758 0.12001561 0.02420491
000170 b0 85 8b bd 32 cd 07 3e a2 eb 39 bd a4 24 4e be
       -0.06812608 0.1326187 -0.045390733 -0.20131165
000180 c8 28 9e 3d 00 63 22 be fb ac 65 bd b0 38 b6 3d
       0.07722622 -0.15858078 -0.05607317 0.08897531
000190 d3 88 33 3e 35 01 04 3e 36 eb 25 3e df 6d cf 3d
       0.17532663 0.12891085 0.16203007 0.10128378
0001a0 cf b6 46 be 9d 19 ba bd cf 9e b7 bd 7d 6b 39 be
       -0.19405673 -0.090869166 -0.08965837 -0.1810741
0001b0 b2 97 6b bb c1 ae db bd 80 cd aa 3c 5a 05 89 be
       -0.0035948572 -0.10726691 0.020849943 -0.26761895
0001c0 ec 65 64 be 96 0b 0f be ab 3c a7 bc b2 34 0f 3e
       -0.22304505 -0.13969263 -0.02041467 0.13984945
0001d0 46 1c 0a 3e 84 d6 fa bd c2 99 a1 3d 14 a1 90 3e
       0.13487348 -0.12247947 0.07890655 0.28247893
0001e0 92 dd 67 3e 19 80 e4 3d 16 01 7b 3d b4 c0 4b 3e
       0.22643116 0.11157245 0.061280333 0.19897729
0001f0 4a 1c e3 3b ce 38 5d bd 90 da 0a be c1 94 0e 3e
       0.0069308626 -0.05400925 -0.13559937 0.13923933
000200 24 7d 2f 3c fa 09 59 bb 8f 82 00 3e d6 1d 86 bd
       0.010710988 -0.0033117519 0.12549804 -0.065486595
000210 3c 0a 3a 3d 4d 9d b3 bd 76 6e 24 be 3c 64 0c be
       0.045419917 -0.08770237 -0.16057763 -0.13710111
000220 5f aa a4 bc b8 a5 96 bd 34 cc 1a be 2c b2 de 3c
       -0.02010077 -0.07355827 -0.1511696 0.027184568
000230 dc 1c 3a be c7 32 4f be a5 82 04 be 31 b0 4b bd
       -0.18175071 -0.20234214 -0.12940462 -0.049728576
000240 9f bb 1e 3d 6f 23 6e 3d ed ec b7 3d db 70 10 3e
       0.03875315 0.05813926 0.08980737 0.14105551
000250 e1 5d b1 3d 91 78 97 bd b0 be 36 bd f4 cd 64 3d
       0.08660484 -0.07396043 -0.044615448 0.055860475
000260 9f ee 2c be ce 94 4e 3c 8d b7 17 3d 33 40 f2 3d
       -0.16887902 0.01260872 0.037040282 0.11828651
000270 8a 77 1a 3d 60 d6 31 3e a0 55 93 bd eb f1 05 3f
       0.037711658 0.17366934 -0.07194066 0.5232226
000280 51 b4 25 3e c0 a2 1b be 6b 0b 46 3c a1 a3 e2 bc
       0.16182067 -0.15198803 0.012087683 -0.027665915
000290 7a 59 90 3c 7e 82 34 bd 92 c4 00 bd da f4 9e 3d
       0.01762079 -0.04406976 -0.031437464 0.077615455
0002a0 ab e8 7d ba d0 50 85 3d 80 05 f7 3c ec 60 13 bd
       -0.00096858543 0.065095544 0.03015399 -0.035981104
0002b0 8c 6c 0f bd 10 92 c4 bc 60 07 00 bd 64 52 d0 3c
       -0.035015628 -0.02399543 -0.031257033 0.025429912
0002c0 87 64 ad 3d 5c ea 2f 3d 5a c3 16 3e a3 8f 32 3d
       0.0846644 0.042948112 0.14722958 0.043594014
0002d0 17 6a 03 be ab d3 ce be 65 8a f3 be 7c 24 aa bd
       -0.12833439 -0.40395865 -0.47566524 -0.0830774
0002e0 ed a7 83 bc ed 32 83 3e 55 42 bc 3d 21 1c 81 bb
       -0.016071284 0.2562479 0.09192339 -0.003940121
0002f0 b3 50 9a bc e5 74 fb bc 8e 5a df bc 78 d3 db bd
       -0.018837309 -0.030695388 -0.02726486 -0.10733694
000300 2c e5 df 3c 60 82 be bc 19 9a a4 bd ca 4c f3 3c
       0.027330957 -0.023255527 -0.08037204 0.029699702
000310 e3 c7 8b 3d 50 d3 54 be 01 55 12 be 8c fe 17 be
       0.06825235 -0.20783734 -0.14290239 -0.14843196
000320 d8 ad 3a bc a3 d3 94 3c b9 74 b8 bc ea 46 80 3c
       -0.011393987 0.018167323 -0.022516595 0.015658814
000330 b1 c2 b2 3d c7 7e 32 3d 28 6e 9a be ff f0 07 bb
       0.08728541 0.043577936 -0.30162168 -0.002074301
000340 17 1d 7b bd 94 a3 0c bd 71 cd ff 3c 0c 34 e8 3d
       -0.06130704 -0.034335688 0.031225892 0.11338052
000350 0d 47 bb 3d 50 93 cf bb ce f4 27 3e 67 32 2d be
       0.09144411 -0.0063346997 0.1640198 -0.16913758
000360 39 33 a5 bd c6 4a 0c 3d f2 01 4d 3e 94 81 a0 3d
       -0.080664106 0.034250997 0.20020273 0.07837215
000370 fa f6 3c 3d 10 b9 ae bd 92 5a 35 be 08 17 3a bd
       0.046133973 -0.085313916 -0.17710331 -0.04543212
000380 9d 32 2d be 1f eb fc bd d1 32 75 be 63 1b be be
       -0.16913839 -0.12349533 -0.23945166 -0.3713027
000390 19 22 bb bd 0e 6e e8 bd 27 37 02 3e 24 d9 40 3e
       -0.09137363 -0.11349116 0.12716351 0.18832833
0003a0 5b f8 46 3d 78 b0 96 3c e2 f1 04 3e af b4 8f 3d
       0.048576694 0.018394694 0.12982896 0.070168845
0003b0 4d 6d 4e 3e 3b 2b 8e 3d 46 8a 05 3d ad 77 67 bd
       0.20158882 0.06941839 0.03260257 -0.056510616
0003c0 94 39 be bd b7 c7 d8 3d d1 d5 f5 bd d0 61 1a 3d
       -0.09288326 0.105849676 -0.12003673 0.037690938
0003d0 13 fa 01 bd 89 dd 59 3d 05 9e 40 bd 7e 79 f7 bb
       -0.03173263 0.053189788 -0.0470257 -0.007552325
0003e0 c2 96 d1 bd 31 9f fb 3a 8b e3 d6 3d f7 c1 7d be
       -0.10233833 0.0019197223 0.10492619 -0.24781023
0003f0 82 57 c3 3c 0d 23 6b 3c af fa 5f be df 9b 7d bd
       0.023845438 0.0143516185 -0.21872972 -0.06191623

conv2.bias f4 [16]
000000 08 5c aa 3d 95 ab 08 bd ce 3f d7 3c c3 d3 ec bd
       0.08318335 -0.03336676 0.026275542 -0.11563828
000010 08 59 b3 bd ff 16 e1 bb 14 1f e7 3b 5f 60 e3 bd
       -0.08757216 -0.0068691964 0.0070532653 -0.11102366
000020 99 9c b8 bb 68 fe e2 3c 4b 0e 84 bd 3b e0 64 3d
       -0.0056339023 0.027709201 -0.06448039 0.055877905
000030 97 e2 e0 bd 66 49 ba 3c 87 de 4c bd 84 a1 25 3d
       -0.109807186 0.022740077 -0.050016906 0.040437236

linear.weight f4 [10, 784]
000000 9d 57 8d 3c 1c dc ea 39 68 03 9b bd 2e fc 18 be
       0.017253691 0.00044795952 -0.07569009 -0.14939949
000010 44 09 82 be df 39 cd bd 45 3d 6f bc 3b b9 b9 3b
       -0.25397694 -0.10020804 -0.01460201 0.005667833
000020 38 42 cc bd cc 54 de bd 93 75 98 bd 3d 85 11 be
       -0.09973568 -0.108560175 -0.074443005 -0.14210983
000030 cc dd 55 be 66 93 e4 bb 73 fe 82 3b c3 89 b7 bc
       -0.2088539 -0.006975579 0.003997618 -0.022404557
000040 88 a6 22 3d a3 2f fa 3d 6a 36 30 be e5 9f 41 be
       0.039709598 0.12216117 -0.17208257 -0.18908651
000050 f3 37 5e bd 26 7f d8 bd 04 3c eb bc 23 89 00 3e
       -0.054252576 -0.10571127 -0.028715141 0.12552314
000060 5a e5 1f 3d 9d 88 c9 bd 52 17 e2 3d 0c 7b dd 3d
       0.039037086 -0.0984051 0.11039604 0.10814485
000070 a5 a8 71 bd af 75 28 bd 18 17 94 bd 8e a0 27 be
       -0.058998723 -0.041127857 -0.07230967 -0.1636984
000080 a3 e0 80 3d da 44 c6 3d e7 9d fc 3d e1 ed 45 bd
       0.06292846 0.09681101 0.12334805 -0.048322562
000090 fa 5a 33 3d fa 0d 4a 3d cd f1 3e bd db bb 21 bd
       0.043787934 0.049329735 -0.046617318 -0.039485794
0000a0 89 41 69 3d f1 2d 79 3d a3 02 a9 bc 9f 2b 07 bc
       0.056947265 0.06083483 -0.02063114 -0.008250146
0000b0 30 13 df 3c fa 68 24 bd 14 09 6e be 56 c2 3b be
       0.027230829 -0.040139176 -0.2324565 -0.18335852
0000c0 fe 01 45 bb f8 f3 00 3c 9a af 6c bd c9 34 49 be
       -0.0030061002 0.007870667 -0.057784654 -0.19649042
0000d0 ba 79 29 bd 9c 54 a6 bd 51 b1 14 bd 6f d3 02 bd
       -0.041375853 -0.08121607 -0.036301915 -0.03193992
0000e0 61 09 e1 bc 7e 5b 31 bd 38 e8 8b bd 1e 71 7f bd
       -0.027470293 -0.043300144 -0.068314016 -0.062363736
0000f0 4f c1 46 3d ee 98 25 3d 05 e2 10 3d 31 5b 04 3d
       0.048524197 0.04042905 0.0353718 0.03231353
000100 59 8c 24 3c 4e e6 c5 3d 15 d8 00 3d 11 1e de 3c
       0.010043227 0.09663068 0.031456072 0.027113946
000110 1d aa e3 3d 80 d8 83 3d 4c 83 7d bd c9 9d 14 3d
       0.11116431 0.064377785 -0.061892793 0.03628329
000120 ec 8e 23 3e 43 78 16 be 2e e2 3c be c0 a7 f7 3d
       0.15972489 -0.14694314 -0.18445656 0.12092543
000130 1a 74 c2 3d 72 87 08 be 01 1c bd bd 66 2b e6 3d
       0.09494801 -0.13332918 -0.09233857 0.11238746
000140 b2 ac c6 bc 59 d1 17 bc 94 e1 6c 3d 21 57 41 3d
       -0.02425227 -0.009266221 0.057832316 0.047202233
000150 54 2c f9 bd 33 2d 29 bd 89 b8 31 3c 18 a7 86 3c
       -0.12166658 -0.04130287 0.010847219 0.016437098
000160 5b ad 15 3a f6 e2 fc bc 22 03 d6 bc 97 9d 4f bd
       0.0005709731 -0.030869942 -0.02612454 -0.0506874
000170 40 fd 4a be 3b 8e 01 be 5d 2f a5 bd 5f f3 01 be
       -0.1982317 -0.12651913 -0.080656745 -0.12690495
000180 d8 c4 e9 bd 11 25 d6 bc e0 af 7b bd b8 58 19 bd
       -0.11414498 -0.026140722 -0.061447024 -0.037438124
000190 63 9a fc bc 05 6d ba bc 35 1f 1a 39 68 07 f2 bc
       -0.030835336 -0.022757063 0.0001469821 -0.029544547
0001a0 5e 83 f7 bc 08 0f 67 bc 9b b3 fe bc cd cc aa bd
       -0.030214008 -0.014102705 -0.031091502 -0.08339844
0001b0 f5 b7 f3 3c be c7 9f 3d 86 dd a8 bc 34 05 9c 3d
       0.029750803 0.0780177 -0.020613443 0.0761818
0001c0 5d 8a af bd c6 dd 2b bd 70 be 94 3d 5a 9d 80 bd
       -0.085713126 -0.041959547 0.072628856 -0.062800124
0001d0 13 f5 47 3d bc 70 13 3e 1c 7d de 3d bf 5d f9 bc
       0.048817705 0.14398474 0.108637065 -0.03044021
0001e0 03 eb 19 3d 9e bd ed 3d bb 7e ad be 54 45 9c bd
       0.03757764 0.11608432 -0.3388575 -0.07630411
0001f0 31 3c 1b 3e 6f 76 fc 3d 49 64 42 bd f4 53 25 bd
       0.1515968 0.12327277 -0.04745892 -0.040363267
000200 94 4f 24 3e 51 0e fc 3d ed e0 22 3d 1c f0 38 3d
       0.16045982 0.12307418 0.039765287 0.04515086
000210 3e b8 46 3d 57 dd 8e bd 6f 4a 99 bd 19 50 c0 3c
       0.04851555 -0.06975811 -0.074849 0.023475694
000220 64 36 c1 3c 38 16 ba bd 5d e6 9e bd 3f db 01 bd
       0.023585506 -0.09086269 -0.07758782 -0.03170323
000230 1c 84 32 bd 5f 68 24 be 7b 7a 60 be 49 1a 7d be
       -0.04358302 -0.1605544 -0.21921723 -0.24717058
000240 1d bd 77 be c3 81 6b be 2d ce aa bd b6 10 a4 bd
       -0.24193235 -0.22998719 -0.08340106 -0.08011
000250 f9 1c fe bd d6 8c 31 bc 67 d4 d9 bc 8c d4 80 3c
       -0.1240787 -0.010836801 -0.02659054 0.01572635
000260 77 56 e7 bc 83 1b ca bc 80 a8 89 bc a6 38 01 bc
       -0.028239472 -0.024671322 -0.01680398 -0.007887041
000270 4c 51 7e bd e9 c0 bd 3a 85 38 8d 3d d8 db c4 3c
       -0.06208925 0.0014477047 0.06895546 0.02403061
000280 f8 90 73 3d f2 16 9a 3d 8a 0d d9 3c 6f a7 e2 3c
       0.059464425 0.07523908 0.026495714 0.02766773
000290 18 42 4d 3d 8c f1 0a 3d c3 8d ed 3d 01 65 fb 3d
       0.05011186 0.033921763 0.115993045 0.12275124
0002a0 50 4a ce 3d 5d 8c ca 3d 63 83 61 3d 5d 91 ca bd
       0.10072768 0.098900534 0.05505694 -0.09891007
0002b0 e4 41 96 bd 9c a4 dd 3d 7c a3 a5 3d ba fb e5 3c
       -0.073367864 0.10822412 0.08087823 0.028074134
0002c0 6d cf 0e 3e 62 0d a8 3d 2a 35 ad bc 1d e8 9e 3c
       0.13946314 0.082056776 -0.021143515 0.01939779
0002d0 ad 2c e6 3d 7d 1e 52 3d cd cd 96 3d 42 14 9b 3b
       0.1123899 0.051298607 0.07363472 0.0047326395
0002e0 7a 63 af 3d f2 d5 d8 3c 8b 6b 8b bd 00 db 4f bd
       0.085638955 0.026469205 -0.068076216 -0.050745964
0002f0 85 4c b4 3c 82 fd 22 bd 59 a3 7a bd 91 d8 83 bd
       0.022009144 -0.039792545 -0.061190937 -0.06437791
000300 8d a2 f7 bb ff d3 19 bd 0f 4c 10 be 77 6b 45 be
       -0.0075572194 -0.03755569 -0.14091514 -0.19279276
000310 f0 23 cf 3c 5d c4 70 3d 06 0a f7 3b bd f2 7f bc
       0.025285691 0.058781017 0.0075390367 -0.015621838
000320 14 10 2f be a3 e8 f9 bd 28 ef 7a bd 46 6c d8 3b
       -0.17095977 -0.12202575 -0.061263233 0.006604704
000330 75 57 39 be a1 54 8f bd fe 59 67 bd a9 f1 30 be
       -0.18099768 -0.069985636 -0.056482308 -0.17279686
000340 d1 80 57 be 1b de 38 bc 43 95 9a bd 26 bb db bd
       -0.21045233 -0.011283423 -0.07548001 -0.10729055
000350 ea 3f e5 bd 9b 7f 3a 3e 1f 86 47 3d 46 4e 97 be
       -0.11193831 0.1821274 0.048711892 -0.29551905
000360 0f 54 43 be b7 b7 8d bd 50 6d 65 be fe 56 2e be
       -0.19075035 -0.069198065 -0.2240498 -0.17025372
000370 09 7b 24 be c0 b8 5c be 9e 57 00 3d 6d ad cb bd
       -0.16062559 -0.21554852 0.03133356 -0.09945188
000380 b8 3f 04 bd 61 55 cb bb 84 ee 7f be d2 07 35 be
       -0.03228733 -0.0062052463 -0.2499333 -0.17678764
000390 a8 36 c4 3c bc ca 0e 3d 42 41 a7 3c d0 15 04 bd
       0.023951843 0.03486131 0.02041686 -0.032247365
0003a0 01 f7 ed 3d ce 82 fe 3d 0f f0 d4 3d c5 a9 c7 3c
       0.11619378 0.12427293 0.1039735 0.024372945
0003b0 b9 da b0 3c 00 b3 97 bc 9c b1 e5 3b 5e 16 e0 bc
       0.02158867 -0.018517971 0.007009698 -0.027354416
0003c0 43 5f 4f 3d ae 88 ab bd 04 b3 a6 bd 9c 3d 0b be
       0.050627958 -0.08375679 -0.08139613 -0.13597721
0003d0 39 47 87 bb 72 55 58 3c fd 87 28 3d db e6 87 3d
       -0.0041283634 0.0132039655 0.041145314 0.06635829
0003e0 3a b3 43 3d 08 43 ab bd 95 a8 89 bd b7 5d 8c bc
       0.047778346 -0.083623946 -0.067216076 -0.01713453
0003f0 1b c4 9d 3b 33 12 81 bd 6c 44 fc bc e4 c0 5e bd
       0.0048146374 -0.06302299 -0.030794345 -0.054383174

linear.bias f4 [10]
000000 87 30 07 3d 3a 8d b2 3d cf a8 66 3c ab 43 66 bd
       0.033005264 0.08718343 0.014078333 -0.056216877
000010 11 e6 e6 bc 65 f6 ba bc 42 b8 dd 3c 4a a8 0d 3d
       -0.028185876 -0.022822568 0.0270654 0.03458432
000020 fb d8 5e bd 19 08 86 bc
       -0.054406147 -0.016361283
