plot/model/model_epoch4.pth (torch, 43647 bytes, 6 tensors)

conv1.weight f4 [16, 1, 3, 3]
-0.12216038 -0.021532064 -0.3723924 0.27864206 0.33344686 0.30293167 0.47137675 0.021456635
0.083227426 -0.41131592 -0.25417483 0.36785945 -0.4684091 -0.1652973 0.44596356 -0.56569415
0.24847019 0.5016378 -0.13241649 -0.09187947 0.096312396 -0.09070058 -0.10084812 -0.09228707
0.22048311 -0.045208953 -0.2599594 0.6121128 0.38518104 0.50554806 0.51847166 0.3344982
-0.08963194 0.20148003 -0.42677122 0.104031555 0.05603803 0.5359217 0.6695653 -0.18619037
-0.09177187 -0.089510806 -0.09542539 -0.6921175 -0.22181956 0.19765402 0.24911259 0.12690338
-0.13699597 0.048870195 0.13549234 -0.009545896 0.036763255 0.20639583 0.24210523 0.30189618
0.31985757 0.31011242 -0.23459744 0.23910196 -0.31482714 0.082239546 0.3367611 0.15497397
0.26562712 0.48030078 0.40221837 0.22161005 0.24953504 0.16171646 -0.08983144 -0.079601906
0.21878919 -0.14191891 -0.48992833 -0.05925366 0.12919599 0.053845923 0.41195384 0.29325002
0.27406046 0.35264143 0.5019534 0.10560019 -0.03612035 0.01511534 0.28920484 -0.6490327
-0.5450319 -0.053176753 -0.6447071 -0.3589243 -0.1799007 -0.34903485 0.13854836 0.040020496
0.56110835 0.34174505 0.21774545 -0.17885253 0.15013361 0.013472565 -0.24304332 0.34316027
0.477235 0.19542898 -0.15567757 0.23259632 -0.05582027 0.7095585 0.41678727 -0.77542317
-0.20219958 -0.39966738 -0.33976495 -0.4234229 -0.5845066 -0.24505165 0.18154493 0.15700877
0.49936756 0.34571534 0.19380905 0.21927206 -0.33501452 -0.4667318 0.35222536 0.02419144
0.21779789 0.2039917 0.03974569 0.61270124 0.41141456 0.15611678 0.27205533 0.14122127
-0.42393255 -0.5033661 0.50995517 -0.17654684 0.07200945 0.41434416 -0.20433903 0.43453658
00000000: 392f fabd 0364 b0bc 37aa bebe 2caa 8e3e
00000010: 8cb9 aa3e dc19 9b3e 4b58 f13e d3c5 af3c
00000020: 2473 aa3d 0098 d2be 3423 82be 1358 bc3e
00000030: 51d3 efbe b243 29be 5655 e43e 55d1 10bf
00000040: f86e 7e3e 566b 003f 3098 07be 4e2b bcbd
00000050: 6f3f c53d 3ac1 b9bd 7689 cebd 0101 bdbd
00000060: 53c6 613e 062d 39bd 6619 85be 6db3 1c3f
00000070: 7336 c53e 996b 013f 8fba 043f 5943 ab3e
00000080: f390 b7bd c850 4e3e c281 dabe 7f0e d53d
00000090: 2288 653d 2a32 093f a268 2b3f b0a8 3ebe
000000a0: e4f2 bbbd 7151 b7bd 636e c3bd 9d2e 31bf
000000b0: ab24 63be d165 4a3e 5f17 7f3e f6f2 013e
000000c0: ac48 0cbe 1d2c 483d 81be 0a3e 6466 1cbc
000000d0: 1195 163d 6e59 533e 6fea 773e 2392 9a3e
000000e0: 5fc4 a33e 0ec7 9e3e 503a 70be 25d7 743e
000000f0: 0631 a1be 356d a83d f36b ac3e 7fb1 1e3e
00000100: 4700 883e fce9 f53e 91ef cd3e bfed 623e
00000110: 1d86 7f3e 0099 253e 8cf9 b7bd 5306 a3bd
00000120: 460a 603e 3153 11be e3d7 fabe f7b3 72bd
00000130: f44b 043e 8b8d 5c3d 9deb d23e de24 963e
00000140: a751 8c3e 6b8d b43e 0580 003f ea44 d83d
00000150: eff2 13bd 55a6 773c a812 943e 0227 26bf
00000160: 3687 0bbf decf 59bd 860b 25bf edc4 b7be
00000170: e437 38be b2b4 b2be 9fdf 0d3e 88ec 233d
00000180: cca4 0f3f 35f9 ae3e aaf8 5e3e 1e25 37be
00000190: a0bc 193e 09bc 5c3c 59e0 78be b4b2 af3e
000001a0: 2558 f43e 891e 483e f169 1fbe bb2d 6e3e
000001b0: cca3 64bd a0a5 353f 2465 d53e 2282 46bf
000001c0: 680d 4fbe 34a1 ccbe acf5 adbe e3ca d8be
000001d0: 39a2 15bf d2ee 7abe eae6 393e e8c6 203e
000001e0: 1bad ff3e 9a01 b13e e175 463e db88 603e
000001f0: 0687 abbe 78f7 eebe e256 b43e 202d c63c
00000200: 6906 5f3e 33e3 503e 60cc 223d fdd9 1c3f
00000210: eea4 d23e 14dd 1f3e d64a 8b3e 4f9c 103e
00000220: b00d d9be 9adc 00bf 6c8c 023f b2c8 34be
00000230: b179 933d eb24 d43e 403e 51be 947b de3e

conv1.bias f4 [16]
-0.010207943 -0.079255894 -0.34008157 0.022555461 -0.012177768 0.09225855 -0.34164697 -0.008551698
-0.12082079 -0.016270813 0.23805656 -0.008752385 0.14280492 -0.036646016 0.0057420055 -0.006815139
00000000: 373f 27bc ea50 a2bd 2c1f aebe 3bc6 b83c
00000010: 4385 47bc 0df2 bc3d 5aec aebe 6c1c 0cbc
00000020: e470 f7bd 5e4a 85bc 19c5 733e 2a66 0fbc
00000030: 743b 123e 221a 16bd 6f27 bc3b 8851 dfbb

conv2.weight f4 [16, 16, 3, 3]
-0.056554504 0.15337114 0.062276594 0.1670561 0.10212352 -0.05070743 -0.070112355 -0.050738808
-0.1723366 0.41848674 0.14736855 0.17072627 0.15209931 0.05258055 -0.3966317 -0.30090395
-0.30042136 -0.30945972 -0.066939846 0.07172113 0.012553841 -0.076291025 -0.075800925 0.04218651
0.06269776 -0.03626156 0.085996404 -0.05072548 0.10562435 0.09375092 -0.06407371 0.1339154
0.02488969 0.00838789 -0.0095740035 -0.12265005 -0.10880776 -0.2068093 -0.1525234 -0.3254367
-0.096507 -0.010875755 0.08131454 -0.08141764 -0.018085325 0.094806165 0.12261631 0.0121373
0.06955929 0.02160574 -0.13702683 0.09197301 -0.0027838591 -0.1852269 -0.031119874 0.16288888
0.12893462 -0.13134156 0.13512589 -0.09894157 0.10536866 0.048240885 -0.27427414 -0.1517346
0.15820938 0.04068441 -0.038008995 0.04151543 -0.021454906 0.11412307 -0.046412043 -0.08580815
-0.1112852 0.1369375 0.014981133 0.06141932 -0.04635143 -0.22554637 -0.1259241 -0.18925166
-0.15127842 -0.026297895 -0.13380812 -0.21781199 -0.38588518 0.039708138 -0.12911572 0.21795173
0.021180948 0.063721724 0.12698382 0.014806659 -0.07167558 0.16299386 -0.039660167 -0.22185075
0.090541765 -0.16753693 -0.06254261 0.089538604 0.17942388 0.10997182 0.18446778 0.10816043
-0.2247702 -0.08748796 -0.10058734 -0.2136752 -0.03072387 -0.13660581 0.014475414 -0.28904063
-0.22639604 -0.17572929 -0.035800617 0.14680767 0.14079954 -0.11330435 0.08670724 0.29629877
0.2544887 0.13362555 0.060869046 0.22717592 0.025973856 -0.042739064 -0.15413576 0.14698553
-0.010338895 0.014538955 0.13853003 -0.087248474 0.039823614 -0.09939905 -0.16174516 -0.17494935
-0.025498118 -0.11674725 -0.15501378 0.009733669 -0.20280038 -0.20106919 -0.14732048 -0.052143145
0.026250592 0.06215872 0.12404543 0.1494592 0.084502526 -0.09636647 -0.07342624 0.04876259
-0.20671964 0.017232686 0.023150979 0.13120404 0.055455502 0.17627406 -0.051198643 0.5875087
0.16528228 -0.116566345 0.012087683 -0.027665915 0.01762079 -0.04406976 -0.031437464 0.077615455
-0.00096858543 0.065095544 0.03015399 -0.03226468 -0.047467012 -0.032837696 -0.033991724 0.013969093
0.094910845 0.03964733 0.14470826 0.030170625 -0.109512456 -0.40816206 -0.5163677 -0.09038989
-0.02357922 0.2818985 0.115157746 0.015277311 -0.017790606 -0.022546526 -0.016551862 -0.09158167
0.021699646 -0.03577399 -0.08420741 0.031466804 0.061444584 -0.2373406 -0.11885338 -0.13042459
0.005071184 0.01699012 -0.030106554 0.01907711 0.07530836 0.027196912 -0.34600094 -0.002097
-0.0757385 -0.035721473 0.03311472 0.10666361 0.09676317 -0.021846134 0.1613782 -0.19178976
-0.099004686 0.02143453 0.22355011 0.060591754 0.025702406 -0.1470673 -0.20298813 -0.055823486
-0.2191699 -0.113667436 -0.25221607 -0.39315823 -0.09908856 -0.12693845 0.14325011 0.20583585
0.06631908 0.022281164 0.124865636 0.050110515 0.20908606 0.07064973 0.007940227 -0.074898645
-0.10076386 0.109686 -0.12733257 0.04117737 -0.021485696 0.08012527 -0.03622485 -0.012645516
-0.110651575 -0.013425601 0.094462976 -0.2711469 0.028348334 0.019340556 -0.23636904 -0.08411905
00000000: b2a5 67bd 530d 1d3e be15 7f3d c110 2b3e
00000010: 2326 d13d 98b2 4fbd 1197 8fbd 7fd3 4fbd
00000020: 0179 30be e543 d63e c8e7 163e ded2 2e3e
00000030: ecbf 1b3e b45e 573d 4f13 cbbe 1510 9abe
00000040: d4d0 99be 8171 9ebe c217 89bd 87e2 923d
00000050: a0ae 4d3c 783e 9cbd 843d 9bbd c3cb 2c3d
00000060: af67 803d 0087 14bd e21e b03d 85c5 4fbd
00000070: 9451 d83d 7b00 c03d 1439 83bd 1e21 093e
00000080: 77e5 cb3c 5c6d 093c 48dc 1cbc f32f fbbd
00000090: 9ad6 debd d1c5 53be 182f 1cbe a49f a6be
000000a0: 76a5 c5bd 3930 32bc 3d88 a63d 4bbe a6bd
000000b0: ad27 94bc bc29 c23d 431e fb3d 87db 463c
000000c0: 1a75 8e3d 85fe b03c c350 0cbe 585c bc3d
000000d0: 6871 36bb 1fac 3dbe 1bef febc 58cc 263e
000000e0: 7007 043e 677e 06be 715e 0a3e e1a1 cabd
000000f0: 86cb d73d 3c98 453d a96d 8cbe 5160 1bbe
00000100: a401 223e b2a4 263d 52af 1bbd 150c 2a3d
00000110: 33c2 afbc 5bb9 e93d 8e1a 3ebd 2fbc afbd
00000120: 7fe9 e3bd 5839 0c3e 6d73 753c d392 7b3d
00000130: ffda 3dbd a1f5 66be 3ff2 00be 30cb 41be
00000140: bbe8 1abe af6e d7bc ff04 09be 1b0a 5fbe
00000150: be92 c5be 00a5 223d e936 04be bd2e 5f3e
00000160: ab83 ad3c 8980 823d 0c08 023e a197 723c
00000170: a6ca 92bd dde7 263e b372 22bd d82c 63be
00000180: f66d b93d cd8e 2bbe 5716 80bd 0460 b73d
00000190: e5ba 373e e838 e13d 1fe5 3c3e 3783 dd3d
000001a0: 292a 66be e32c b3bd bc00 cebd accd 5abe
000001b0: a0b0 fbbc 65e2 0bbe 492a 6d3c 22fd 93be
000001c0: 5dd4 67be 61f2 33be aba3 12bd c054 163e
000001d0: c12d 103e 1c0c e8bd 9193 b13d 79b4 973e
000001e0: 584c 823e 23d5 083e d251 793d cea0 683e
000001f0: 20c7 d43c 280f 2fbd c4d5 1dbe 6083 163e
00000200: 7864 29bc cc34 6e3c d1da 0d3e 54af b2bd
00000210: 161e 233d bb91 cbbd 86a0 25be ec25 33be
00000220: 6ee1 d0bc 2f19 efbd efbb 1ebe f879 1f3c
00000230: e7aa 4fbe 15e5 4dbe 2edb 16be 0d94 55bd
00000240: 7b0b d73c 249a 7e3d 880b fe3d d50b 193e
00000250: a90f ad3d c95b c5bd 7f60 96bd 48bb 473d
00000260: 50ae 53be 902b 8d3c 1fa7 bd3c 5a5a 063e
00000270: 4f25 633d 3081 343e abb5 51bd f866 163f
00000280: c23f 293e 56ba eebd 6b0b 463c a1a3 e2bc
00000290: 7a59 903c 7e82 34bd 92c4 00bd daf4 9e3d
000002a0: abe8 7dba d050 853d 8005 f73c f827 04bd
000002b0: c56c 42bd d280 06bd e83a 0bbd 9fde 643c
000002c0: 9e60 c23d 3d65 223d 672e 143e 6328 f73c
000002d0: 1148 e0bd 9efa d0be ac30 04bf 561e b9bd
000002e0: 3529 c1bc 0055 903e d3d7 eb3d b04d 7a3c
000002f0: 9bbd 91bc 7eb3 b8bc c597 87bc 2c8f bbbd
00000300: 75c3 b13c bf87 12bd ef74 acbd 56e3 003d
00000310: 51ad 7b3d 6a09 73be 6769 f3bd 068e 05be
00000320: 2d2c a63b dd2e 8b3c 05a2 f6bc 9947 9c3c
00000330: 453b 9a3d 0fcc de3c 0927 b1be d26d 09bb
00000340: c91c 9bbd ae50 12bd 4da3 073d 7372 da3d
00000350: c52b c63d aaf6 b2bc 5440 253e 8964 44be
00000360: f8c2 cabd 7897 af3c 52ea 643e 0f2f 783d
00000370: da8d d23c cf98 16be 1fdc 4fbe 2ba7 64bd
00000380: 136e 60be 79ca e8bd 7722 81be 094c c9be
00000390: f1ee cabd 27fc 01be 28b0 123e a2c6 523e
000003a0: 4cd2 873d fd86 b63c 8eb9 ff3d af40 4d3d
000003b0: a81a 563e ceb0 903d ba17 023c 7664 99bd
000003c0: 485d cebd 0ea3 e03d 7863 02be 9aa9 283d
000003d0: c502 b0bc b818 a43d 8260 14bd 232f 4fbc
000003e0: 4b9d e2bd 0df7 5bbc ce75 c13d c4d3 8abe
000003f0: c43a e83c 1670 9e3c ba0a 72be 9c46 acbd

conv2.bias f4 [16]
0.08890666 -0.03522956 0.0042624776 -0.13039035 -0.11168709 -0.022580788 -0.0007071211 -0.12813719
-0.003169561 0.046054203 -0.07786851 0.06142907 -0.1218913 0.019330146 -0.051923253 0.042074338
00000000: b214 b63d df4c 10bd 41ac 8b3b 0c85 05be
00000010: 33bc e4bd 58fb b8bc 185e 39ba 6536 03be
00000020: 69b8 4fbb 55a3 3c3d 8679 9fbd 0c9d 7b3d
00000030: 25a2 f9bd 415a 9e3c 7aad 54bd 2456 2c3d

linear.weight f4 [10, 784]
0.017253079 -0.006024866 -0.096653186 -0.14539562 -0.28730458 -0.13701111 -0.018242037 0.0060111596
-0.12971666 -0.120071955 -0.07026328 -0.16777639 -0.25393966 -0.0007660489 -0.0013822878 -0.010111876
0.06299329 0.120119736 -0.22228631 -0.23965834 -0.04628287 -0.12298965 -0.0043598525 0.13890988
0.070649974 -0.09829774 0.110428505 0.12612757 -0.058732405 -0.037050188 -0.08099884 -0.16331136
0.084790595 0.096166305 0.13403803 -0.0484823 0.047650464 0.04804551 -0.061137345 -0.05731814
0.07210033 0.073422775 0.00872986 0.008429838 0.010274972 -0.061049394 -0.2967651 -0.238293
0.0044494444 0.012880474 -0.057702556 -0.21782663 -0.02510032 -0.0864022 -0.020297334 -0.034459174
-0.0535676 -0.07226633 -0.057626307 -0.07075048 0.047503036 0.03494394 0.066631764 0.023620643
0.029508565 0.12663276 0.029095827 0.049320154 0.11745766 0.08894878 -0.059138507 0.04783029
0.18036798 -0.15598 -0.1733422 0.13696344 0.10677004 -0.13889916 -0.09920525 0.121581934
-0.0073525417 0.0028355669 0.04259331 0.040500768 -0.12953725 -0.018100118 -0.00052564754 0.021170717
-0.008264619 -0.049476966 -0.037507664 -0.06200114 -0.2477652 -0.17148812 -0.10148318 -0.14076696
-0.13096115 -0.022891788 -0.079671465 -0.03216502 -0.029994184 -0.024442514 0.010152775 -0.031934813
-0.053157892 -0.03855997 -0.014036605 -0.104368 0.031335913 0.081360154 -0.032230787 0.097625114
-0.10255137 -0.04726255 0.096714094 -0.07067432 0.063105606 0.15751018 0.12738104 -0.010714777
0.040982656 0.14033173 -0.3658851 -0.05486764 0.18163665 0.13707857 -0.025748385 -0.06028276
0.17714886 0.14972718 0.056904554 0.02701118 0.045857683 -0.08154607 -0.08011847 0.012412018
0.015457083 -0.101274125 -0.108171806 -0.050018962 -0.04659754 -0.17009751 -0.24286397 -0.2853417
-0.29322916 -0.2763297 -0.10192586 -0.09116919 -0.14397965 -0.001245661 -0.026114507 0.011545397
-0.019590402 -0.021780027 -0.017725872 0.0009135715 -0.06307786 -0.013456185 0.076535605 0.02041022
0.07776773 0.08791363 0.030653719 0.033719722 0.06276501 0.042153507 0.13785003 0.13863109
0.11677752 0.113525175 0.07699315 -0.10152575 -0.06939062 0.13967387 0.09789748 0.0425507
0.15402047 0.09589225 -0.008961907 0.032227326 0.12574592 0.057307657 0.12060892 0.011353183
0.09460745 0.031088142 -0.09141063 -0.060341362 0.009331775 -0.041878223 -0.067253865 -0.07666364
-0.0031820266 -0.01050013 -0.15673146 -0.22571063 0.06077406 0.093105875 0.021082409 0.01230877
-0.16856991 -0.12702312 -0.10406515 -0.013295207 -0.22874404 -0.068343885 -0.070775755 -0.1708829
-0.22808227 -0.010430232 -0.081312366 -0.071141936 -0.124060676 0.18974064 0.04394767 -0.33798477
-0.2106776 -0.07640565 -0.21073359 -0.21354535 -0.15228772 -0.2214858 0.056998126 -0.0916449
-0.019965015 -0.016672172 -0.27865705 -0.20183274 0.018938364 0.03188574 0.02667981 -0.025414431
0.112913385 0.13366917 0.11706567 0.023147827 0.017980676 -0.028887397 0.03045283 -0.01287216
0.065403804 -0.10822371 -0.08329392 -0.1579901 0.0019733275 0.026554806 0.06537112 0.11456588
0.08487509 -0.05431261 -0.044583973 -0.027379753 -0.017113145 -0.077009805 -0.040815637 -0.05839971
00000000: 5456 8d3c 3d6c c5bb 1bf2 c5bd 97e2 14be
00000010: 9619 93be a44c 0cbe 5370 95bc 43f9 c43b
00000020: 72d4 04be 49e8 f5bd 32e6 8fbd 93cd 2bbe
00000030: 6104 82be acd0 48ba e22d b5ba 48ac 25bc
00000040: a002 813d 5601 f63d 069f 63be ff68 75be
00000050: 1b93 3dbd ffe1 fbbd 18dd 8ebb 643e 0e3e
00000060: efb0 903d 5350 c9bd 5728 e23d 9627 013e
00000070: 6491 70bd f0c1 17bd b8e2 a5bd 183b 27be
00000080: b1a6 ad3d d7f2 c43d 4441 093e 6095 46bd
00000090: 222d 433d 5ecb 443d 276b 7abd 6dc6 6abd
000000a0: 56a9 933d ae5e 963d b007 0f3c 4e1d 0a3c
000000b0: 5b58 283c ee0e 7abd 98f1 97be 1503 74be
000000c0: a5cc 913b a008 533c 8459 6cbd f20d 5fbe
000000d0: 309f cdbc a3f3 b0bd 9846 a6bc 1025 0dbd
000000e0: b369 5bbd 5f00 94bd 9009 6cbd a1e5 90bd
000000f0: 8b92 423d 6021 0f3d 3c76 883d 1480 c13c
00000100: f2bb f13c 05ac 013e 5f5a ee3c ee03 4a3d
00000110: a48d f03d c72a b63d 383b 72bd b2e9 433d
00000120: 62b2 383e 39b9 1fbe 9e80 31be 2540 0c3e
00000130: 40aa da3d 953b 0ebe 1f2c cbbd f3ff f83d
00000140: 97ed f0bb ebd4 393b 5376 2e3d 22e4 253d
00000150: 6aa5 04be b346 94bc 9ccb 09ba 366e ad3c
00000160: 5368 07bc 5ca8 4abd a3a1 19bd e8f4 7dbd
00000170: 29b6 7dbe 959a 2fbe 6ad6 cfbd 3725 10be
00000180: ae1a 06be 8f87 bbbc cb2a a3bd 78bf 03bd
00000190: 5db6 f5bc ab3b c8bc d357 263c 14ce 02bd
000001a0: 17bc 59bd 0ff1 1dbd caf9 65bc e4be d5bd
000001b0: 165a 003d 27a0 a63d 6e04 04bd adef c73d
000001c0: 7406 d2bd 6096 41bd 0a12 c63d b3bd 90bd
000001d0: 833d 813d 594a 213e 2d70 023e 088d 2fbc
000001e0: 6edd 273d 1fb3 0f3e 4b55 bbbe e4bc 60bd
000001f0: f5fe 393e 535e 0c3e 47ee d2bc 0eeb 76bd
00000200: 8366 353e 1552 193e c014 693d 8d46 dd3c
00000210: 44d5 3b3d a001 a7bd 2715 a4bd c75b 4b3c
00000220: b43f 7d3c cf68 cfbd 2e89 ddbd afe0 4cbd
00000230: 10dd 3ebd 0b2e 2ebe 55b1 78be 4f18 92be
00000240: 2222 96be 167b 8dbe 81be d0bd eab6 babd
00000250: 676f 13be 7345 a3ba 17ee d5bc e828 3d3c
00000260: 0d7c a0bc 076c b2bc d935 91bc bf7c 6f3a
00000270: f72e 81bd 5577 5cbc b3be 9c3d 5533 a73c
00000280: b044 9f3d 100c b43d 821d fb3c b11d 0a3d
00000290: f18a 803d 28a9 2c3d 8f28 0d3e 4ff5 0d3e
000002a0: 0d29 ef3d e37f e83d 96ae 9d3d bbec cfbd
000002b0: ab1c 8ebd ab06 0f3e 797e c83d a549 2e3d
000002c0: 8bb7 1d3e 2863 c43d f6d4 12bc cd00 043d
000002d0: 8ac3 003e 6fbb 6a3d cf01 f73d b302 3a3c
000002e0: 8dc1 c13d 8fac fe3c 7f35 bbbd 8128 77bd
000002f0: 4de4 183c 8088 2bbd 65bc 89bd d401 9dbd
00000300: 8c89 50bb bd08 2cbc 367e 20be b020 67be
00000310: 39ee 783d 4bae be3d 04b5 ac3c b9aa 493c
00000320: 979d 2cbe 5912 02be 1c20 d5bd 24d4 59bc
00000330: e13b 6abe e1f7 8bbd e1f2 90bd edfb 2ebe
00000340: 668e 69be 90e3 2abc 1987 a6bd ddb2 91bd
00000350: 8613 febd 5f4b 423e 7902 343d 570c adbe
00000360: debb 57be 917a 9cbd 8cca 57be a2ab 5abe
00000370: 50f1 1bbe 2ccd 62be de76 693d 52b0 bbbd
00000380: ac8d a3bc 1494 88bc 23ac 8ebe 3ead 4ebe
00000390: a124 9b3c 9f9a 023d 9e8f da3c ed31 d0bc
000003a0: 223f e73d 92e0 083e 20c0 ef3d 83a0 bd3c
000003b0: 364c 933c 43a5 ecbc 3778 f93c c1e5 52bc
000003c0: 6ef2 853d 64a4 ddbd 0196 aabd 28c8 21be
000003d0: f152 013b 7789 d93c 4be1 853d 84a1 ea3d
000003e0: fed2 ad3d e676 5ebd af9d 36bd 814b e0bc
000003f0: de30 8cbc 51b7 9dbd 4c2e 27bd 8934 6fbd

linear.bias f4 [10]
0.04403394 0.09919489 0.015901454 -0.065956764 -0.033702094 -0.020803353 0.02508216 0.038146358
-0.06000116 -0.017404867
00000000: ef5c 343d b126 cb3d c443 823c 5714 87bd
00000010: 350b 0abd cb6b aabc 1a79 cd3c 5b3f 1c3d
00000020: c7c3 75bd a794 8ebc
