plot/model/model_epoch10.pth (torch, 43655 bytes, 6 tensors)

conv1.weight f4 [16, 1, 3, 3]
000000 6e a3 62 be 4d b4 25 be 49 e2 d8 be dd 31 98 3e
       -0.22132656 -0.1618206 -0.42360142 0.29725543
000010 ad 2d b8 3e d2 0d b6 3e f3 79 df 3e d5 50 31 bc
       0.35972348 0.3555742 0.43647727 -0.0108224945
000020 77 e4 d9 bc f8 73 eb be 28 44 97 be 55 16 b6 3e
       -0.026598198 -0.45986915 -0.29544187 0.35563913
000030 7d 03 01 bf da 34 09 be a1 8f dd 3e 30 c4 19 bf
       -0.5039595 -0.13399068 0.43273643 -0.60064983
000040 a7 3b 92 3e d1 cd 07 3f 30 98 07 be 4e 2b bc bd
       0.28561136 0.53048426 -0.13241649 -0.09187947
000050 6f 3f c5 3d 3a c1 b9 bd 76 89 ce bd 01 01 bd bd
       0.096312396 -0.09070058 -0.10084812 -0.09228707
000060 53 c6 61 3e 06 2d 39 bd 66 19 85 be ab d3 3e 3f
       0.22048311 -0.045208953 -0.2599594 0.7454173
000070 f9 5e 1a 3f d9 a3 16 3f 63 48 f0 3e be c7 94 3e
       0.60301167 0.5884376 0.46930227 0.2905864
000080 b1 ed 43 be 51 b4 29 3e 78 6e d5 be c1 63 e9 3c
       -0.19133641 0.16572692 -0.41685843 0.02848995
000090 74 6e 10 3d cb e3 fe 3e 0d c8 2f 3f f3 c5 02 be
       0.035261586 0.49783167 0.6866463 -0.12770824
0000a0 33 92 b0 bd 77 aa 1d bd 22 b3 47 bd 83 dd 50 bf
       -0.08621635 -0.038492646 -0.04875482 -0.81588
0000b0 e5 cf 3a be e3 68 3c 3e e9 bb 74 3e 86 e3 e6 3d
       -0.18243368 0.18399386 0.23899807 0.112738654
0000c0 f8 93 da bd 37 27 b7 3d ef 39 d7 3d f0 e6 57 bc
       -0.10672754 0.089430265 0.10509097 -0.013177618
0000d0 e9 dd b8 3d 81 91 33 3e bb 65 94 3e 2a 08 87 3e
       0.09026701 0.17535974 0.28983864 0.26373416
0000e0 6f 7c 73 3e e5 b4 b2 3e 46 95 10 be 02 41 75 3e
       0.23777936 0.34903637 -0.14119443 0.2395058
0000f0 1f 74 a9 be 03 0e f3 3d d6 62 bb 3e 83 54 75 3e
       -0.33096406 0.11867907 0.36598843 0.2395802
000100 10 6d a6 3e f4 1a 0b 3f 84 16 e0 3e 2f 61 51 3e
       0.32505083 0.54338 0.43767178 0.20447229
000110 87 3b 31 3e d0 6c 00 3e 3e 9c d2 bc 4a 35 0b be
       0.17307864 0.12541509 -0.025709268 -0.13594547
000120 ce b9 74 3e db 25 46 be ab c1 19 bf 49 b4 3c bd
       0.23899004 -0.19350378 -0.6006114 -0.04607037
000130 c6 86 1d 3e 5d cc 85 3d bf 0b bb 3e d2 75 a8 3e
       0.15383443 0.0653312 0.365324 0.3290239
000140 1a fa 98 3e ee 6f cb 3e 4a 1f e3 3e 8f 73 84 3d
       0.29878312 0.39733833 0.4435981 0.064673536
000150 71 2e 28 3b a7 aa 6b 3d 8b fd ad 3e ca 09 39 bf
       0.0025662447 0.057535794 0.339825 -0.7228056
000160 9b 8a 10 bf 10 28 be bc cf 13 28 bf 1b 9d eb be
       -0.56461495 -0.023212463 -0.65655226 -0.460183
000170 1b b4 5e be c8 ee b8 be 39 8a 21 3e 83 24 b4 3d
       -0.21748392 -0.36119676 0.15775384 0.087960266
000180 2a c3 27 3f d8 17 d4 3e 1b f2 4f 3e 8e bf 43 be
       0.6553217 0.4142444 0.203072 -0.19116041
000190 12 a1 05 3e d1 b9 25 3c a4 4e a2 be 9e 3e a9 3e
       0.13049725 0.010115103 -0.31700623 0.33055586
0001a0 1a 1f 08 3f e9 55 6e 3e 96 54 3f be 99 44 4f 3e
       0.5317246 0.2327496 -0.1868461 0.20241012
0001b0 15 6a 2a bd fb 48 3c 3f f9 2f 00 3f 23 4a 80 bf
       -0.041605074 0.7354886 0.500732 -1.0022625
0001c0 cf 64 0b be 4d 4d cc be 23 ba cd be b0 91 16 bf
       -0.13612674 -0.39902726 -0.40181074 -0.5881605
0001d0 0e 71 3a bf df eb 7e be b4 93 2c 3e 4e 68 43 3e
       -0.7282876 -0.24894665 0.1685322 0.19082758
0001e0 16 d3 0f 3f ae 4e ea 3e 2a 07 d5 3d ee f4 26 3e
       0.56181467 0.45763153 0.10401757 0.16304371
0001f0 cb 63 b9 be f9 e6 24 bf 22 f1 96 3e 7d f3 e7 bc
       -0.36208948 -0.64414936 0.29480845 -0.028314346
000200 ef b9 50 3e 82 df 4f 3e 39 16 d4 bc 62 64 3a 3f
       0.20383428 0.20300105 -0.025889503 0.7280942
000210 7f c6 04 3f 1e 87 47 3e d4 88 a2 3e 77 9e ff 3d
       0.5186538 0.19485137 0.31745017 0.12481397
000220 7d 4f 07 bf 41 cd 2b bf 1c d9 25 3f 65 32 ec bd
       -0.52855664 -0.6711007 0.6478441 -0.115330495
000230 2b 93 c8 3c 71 0f d4 3e 65 ae 6c be de 90 cd 3e
       0.024484238 0.4141803 -0.23113401 0.40149587

conv1.bias f4 [16]
000000 89 2c 45 bc b2 98 39 bd 2c 1f ae be 47 8a 2f bc
       -0.012034544 -0.045311637 -0.34008157 -0.01071412
000010 1f 7e 0a bc a2 58 53 3c cc ce dd be e9 d6 11 bc
       -0.008452921 0.01289955 -0.43321836 -0.008901336
000020 fe ca 44 be 0b 09 36 bd 23 4c 04 3e 0b 74 12 bd
       -0.1921806 -0.044442218 0.12919669 -0.0357552
000030 a1 0d df 3d d2 01 d9 bd 07 ef 02 bc 55 a7 49 bd
       0.108912714 -0.1059605 -0.007991559 -0.049231846

conv2.weight f4 [16, 16, 3, 3]
000000 f0 ad c7 bd a4 61 40 3e b7 b6 3b 3d b3 43 40 3e
       -0.09749973 0.18787247 0.045828547 0.18775825
000010 77 db eb 3d 2b 37 8d bd 3e 37 2b bd 00 cd bc bd
       0.11516469 -0.06895288 -0.04180073 -0.09218788
000020 32 13 48 be 84 bf b4 3e 45 e9 5d 3e 25 59 8b 3e
       -0.19538572 0.35302365 0.21671017 0.2721645
000030 64 b9 05 3e d5 db 24 3e 20 31 32 bf 4d 2e d8 be
       0.13059002 0.16099484 -0.6960621 -0.42222825
000040 4c 2b cf be 2d 37 ad be c2 17 89 bd 87 e2 92 3d
       -0.4046272 -0.33831158 -0.066939846 0.07172113
000050 a0 ae 4d 3c 78 3e 9c bd 84 3d 9b bd c3 cb 2c 3d
       0.012553841 -0.076291025 -0.075800925 0.04218651
000060 af 67 80 3d 00 87 14 bd e2 1e b0 3d 9e 90 46 bd
       0.06269776 -0.03626156 0.085996404 -0.04847776
000070 5a dc b7 3d 96 9c f4 3d 9c 9f 1b be 66 62 7b 3e
       0.089775756 0.11943929 -0.15197605 0.24549255
000080 03 c4 72 3d 9c fa 09 3d b6 77 2f 3c ba ae 03 be
       0.059268963 0.033686265 0.010709694 -0.12859622
000090 93 03 18 be b8 d6 1b be 22 9c 48 be 2a 9c b8 be
       -0.14845113 -0.15218627 -0.1959081 -0.36056644
0000a0 df 14 a8 bd fc 65 61 bd 9d 3d 55 3d f1 c9 a2 bd
       -0.08207106 -0.0550289 0.052060712 -0.079486735
0000b0 f3 44 eb bd 5d a5 b7 3d bf 64 3a 3e 81 eb b3 3c
       -0.114877604 0.089670874 0.18202494 0.021962883
0000c0 f2 dc 0b 3e 3e 6a a0 3d df 69 14 be 67 70 ff 3d
       0.13658503 0.07832764 -0.14493512 0.12472611
0000d0 cb 5b 11 3b 5e b9 6b be b6 80 06 bd 30 06 33 3e
       0.0022179957 -0.2301993 -0.032837592 0.17482829
0000e0 e8 9a d9 3d df c4 b9 bd a5 0a 16 3e 38 9a 3e be
       0.10625249 -0.09070753 0.14652498 -0.18613517
0000f0 a7 c3 35 3e 8e 58 a5 3d 09 7f a5 be 60 b8 37 be
       0.17750417 0.08073531 -0.32323483 -0.17941427
000100 40 40 47 3e fe 54 11 3d d8 a9 a2 bd a7 45 d4 3d
       0.19458103 0.035481445 -0.079425514 0.10364848
000110 ee bd 09 bd 57 da 04 3e 47 73 43 bd 77 1b c7 bd
       -0.033628397 0.12973915 -0.04771736 -0.097220354
000120 bf 3d 49 be 7d ae d1 3d 79 6c 98 bd 34 86 a0 3d
       -0.1965246 0.10238359 -0.074425645 0.07838097
000130 b0 62 85 bd 9d c1 81 be 1f 3b 15 be df 8c 8b be
       -0.06512964 -0.25343028 -0.14573334 -0.27255914
000140 8e 69 fe bd 86 da c2 3b 5b bb 13 be 3c 1a 73 be
       -0.12422477 0.00594646 -0.14426939 -0.23740476
000150 7e ee e3 be 3e 08 3a 3d 92 80 05 be 15 22 97 3e
       -0.44517893 0.045418017 -0.13037327 0.2951819
000160 4c e3 d6 3c c4 55 3e 3d 4a 58 0d 3e b5 e2 99 bc
       0.02623143 0.04646851 0.13803211 -0.01878486
000170 fa b4 0a be 21 3e 89 3e 3f 79 0e bd a0 ee a6 be
       -0.135456 0.26805213 -0.034783598 -0.3260393
000180 e0 02 17 3e 6f e6 a1 be 82 08 d9 bd 82 3a a2 3d
       0.1474719 -0.3162112 -0.10597326 0.07921316
000190 d7 6c 74 3e 4a b5 ae 3d e8 70 69 3e 20 b4 f7 3d
       0.23869644 0.08530672 0.22796977 0.12094903
0001a0 1f fd a8 be 0d e0 7b bd e0 8b ce bd d4 d3 a6 be
       -0.33005616 -0.06149297 -0.10085273 -0.32583487
0001b0 1d fd 10 be b5 da 63 be 65 7f 17 3d a8 82 d8 be
       -0.14159055 -0.22251399 0.036986727 -0.42287183
0001c0 fd 57 63 be 42 84 53 be bd 48 12 be eb 23 09 3e
       -0.22201534 -0.20655921 -0.1428556 0.13392608
0001d0 47 f7 d5 3d 96 dd fa bd b2 45 2f 3e ed 31 b7 3e
       0.10447555 -0.122492954 0.1711643 0.35780278
0001e0 a8 2e 8c 3e 6f c8 2d 3e 13 5f f7 3c 24 ad a1 3e
       0.27379346 0.1697099 0.030196702 0.31577408
0001f0 33 c9 b2 3d ff d2 b0 bd f8 2f 41 be c8 90 67 3e
       0.08729782 -0.08633994 -0.18865955 0.22613823
000200 7c f1 10 bd d8 d2 1e 3d cd 05 2a 3e fa 3a 19 be
       -0.035386547 0.038775295 0.16603775 -0.14963904
000210 51 66 ac bc 5f b3 1f be d7 81 2b be 83 9a a0 be
       -0.021044882 -0.15595768 -0.16748749 -0.31367883
000220 58 2f c3 bd db 67 5d be 6a 64 89 be 50 1e b3 bd
       -0.095305145 -0.21621649 -0.26834422 -0.08746016
000230 2c bb 47 be 0f d3 84 be 7c a5 75 be 5d 29 61 bc
       -0.19504994 -0.25942275 -0.23988909 -0.013742772
000240 28 4c a5 ba 34 84 4c 3c 9f 3e 51 3e bc c7 17 3e
       -0.0012611197 0.012482692 0.20434044 0.14822286
000250 8a a7 03 3e 25 60 02 be 02 40 21 be 36 af ae 3d
       0.1285688 -0.12731989 -0.15747073 0.085295126
000260 2a cc 75 be 66 38 f9 bc 95 43 d9 bc 3e 6d 0e 3e
       -0.24003664 -0.0304224 -0.026521483 0.1390886
000270 c6 78 ba 3d 9c c4 33 3e d3 48 97 bc 6b d6 4a 3f
       0.09105067 0.1755547 -0.018467342 0.79233426
000280 8f a0 38 3e 10 6d 73 3d 6b 0b 46 3c a1 a3 e2 bc
       0.18029998 0.059430182 0.012087683 -0.027665915
000290 7a 59 90 3c 7e 82 34 bd 92 c4 00 bd da f4 9e 3d
       0.01762079 -0.04406976 -0.031437464 0.077615455
0002a0 ab e8 7d ba d0 50 85 3d 80 05 f7 3c b0 ff 3e bd
       -0.00096858543 0.065095544 0.03015399 -0.04663056
0002b0 85 02 d9 bd a0 d9 0f be 43 10 89 bd 56 14 8f bc
       -0.10596184 -0.14047861 -0.06692555 -0.017465752
0002c0 54 68 0f 3e 3a 15 4a 3d 6e df 44 3e fd 89 a7 3c
       0.14004642 0.04933665 0.19225857 0.02045154
0002d0 08 45 07 3d b0 96 f8 be 19 0d 42 bf 59 62 ea bd
       0.033024818 -0.48552465 -0.75801235 -0.114445396
0002e0 d9 85 33 bd cb 07 90 3e a4 63 56 3e 95 4d 86 bd
       -0.04382882 0.28130946 0.20936447 -0.06557766
0002f0 4a 69 96 bc fb aa cd bc 18 94 bc 3b d7 d0 85 bd
       -0.018360753 -0.025105944 0.005754959 -0.06533974
000300 64 d5 8e 3c 49 8a 98 bd 95 c2 1c bd 35 7d 88 3d
       0.017435737 -0.07448251 -0.038271505 0.06664506
000310 58 66 dc 3d f5 c5 7e be f6 a1 32 bd e1 0a b5 bd
       0.10761708 -0.24880202 -0.04361149 -0.088399656
000320 a7 4c 30 bc 36 7f 4d 3d ed b5 2f bd e4 5f 4e 3d
       -0.010760463 0.050170146 -0.042898107 0.050384417
000330 cd 73 0f 3e 5e 56 62 3d 84 d4 be be c3 5f 38 bc
       0.14009018 0.055258147 -0.37271512 -0.0112533
000340 da c5 16 be fe 2b b5 bd ea 61 53 ba 7d 57 96 3d
       -0.14723912 -0.088462815 -0.00080636016 0.07340906
000350 80 11 02 3e ee 07 21 bd 22 e5 4d 3e 28 a1 66 be
       0.12701988 -0.039314203 0.20106938 -0.22522414
000360 b6 c6 04 be 8c 19 13 bd f1 b0 8b 3e ff be 73 3d
       -0.12966427 -0.035913035 0.27283433 0.05950832
000370 5e f1 67 bc 44 9f 7d be 8a 2c 83 be 88 c5 36 bd
       -0.0141566675 -0.24767786 -0.25619918 -0.044621974
000380 4d 8d c0 be 63 8e aa bd a6 53 93 be fa 99 0f bf
       -0.37607804 -0.08327939 -0.28774756 -0.56094325
000390 45 50 d2 bd 56 3d 0e be 23 d9 e4 3d f2 10 9e 3e
       -0.102692164 -0.13890585 0.11174228 0.30872303
0003a0 d3 cf 11 3d 86 46 0b bb 60 9f e9 3d 86 71 1f bd
       0.035598587 -0.0021251752 0.114073515 -0.038926624
0003b0 2a e5 8f 3e 69 36 5e 3d 02 b1 3a 3c 3b 57 cb bd
       0.28104526 0.05425111 0.011394741 -0.09928747
0003c0 21 6c 1c be 3b e3 46 3e 87 7a 0f be 78 e2 e1 3c
       -0.15275623 0.19422619 -0.14011584 0.027573809
0003d0 09 4a c8 bc dc 0c 01 3e 80 ec 0a bd d3 dd 0d bc
       -0.024449365 0.12602562 -0.03391695 -0.008658844
0003e0 d4 fd e0 bd df c0 db bc b7 90 01 3e 6a 66 59 be
       -0.10985914 -0.026825367 0.1265286 -0.21230474
0003f0 68 16 f4 3d 82 91 cc 3d ae c1 88 be e9 0a 11 be
       0.11918336 0.09988691 -0.26710266 -0.14164318

conv2.bias f4 [16]
000000 3d f5 ea 3d 46 b0 f5 bc 89 c4 81 3c 08 31 5c be
       0.11472557 -0.02999128 0.015840786 -0.21503079
000010 eb ea 26 be 1c 4b 13 bd 4f 4c e8 b9 83 f5 49 be
       -0.16300552 -0.0359603 -0.00044307343 -0.19722562
000020 f5 bb c7 3a 86 4d 56 3d 87 3a 85 bd 63 c3 95 3d
       0.0015238511 0.052320026 -0.06505304 0.07312658
000030 bf c4 47 be 8d 91 8b b9 d0 8d 4d bd b0 a8 3d 3d
       -0.19508646 -0.0002662059 -0.05018407 0.04630345

linear.weight f4 [10, 784]
000000 4d df 2e 3d c3 00 91 bd af b7 3a be bb 8f 1a be
       0.042693425 -0.070802234 -0.18234132 -0.15093891
000010 e3 83 c9 be c2 8b 7c be 1b e0 0e 3c c4 64 2d bc
       -0.39358434 -0.24662688 0.008720423 -0.010583106
000020 cd 6a a0 be ac 7a 3a be a2 14 60 bd e2 a8 4d be
       -0.31331483 -0.18210858 -0.054707177 -0.20083955
000030 95 0c cc be cf 25 17 3d c1 b5 4c bd 61 5a ff 39
       -0.3985335 0.03690129 -0.04997802 0.00048704728
000040 5d 51 03 3e 80 84 e5 3d 20 bb d4 be b1 b0 f8 be
       0.12824006 0.11206913 -0.41549015 -0.48572305
000050 c8 36 8c bd 0d d5 2a be 44 86 cb 3c 66 1d 1c 3e
       -0.06846386 -0.16682835 0.024844296 0.1524559
000060 32 2a 3c 3e 29 90 14 be cd 8a 63 3d 89 ab 14 3e
       0.18375471 -0.14508118 0.055552293 0.1451856
000070 c2 1b 12 be 15 47 cd bd ca d4 fe bd 43 86 77 be
       -0.14268401 -0.100233234 -0.1244293 -0.2417231
000080 7d 1b 0c 3e 63 fe ae 3d c5 11 28 3e b5 38 0c be
       0.13682361 0.08544614 0.16413029 -0.13693507
000090 bc c8 02 3e c1 ec 02 bd bf da 0c be eb 89 1e be
       0.12771887 -0.031964067 -0.1375532 -0.15482299
0000a0 68 86 28 3e 76 36 53 3e a0 d1 0c 3e 49 b8 1d 3e
       0.16457522 0.20626244 0.1375184 0.1540233
0000b0 b4 60 0e be 97 83 46 be 49 62 2c bf 8b 98 f6 be
       -0.13904077 -0.19386135 -0.6733747 -0.48163256
0000c0 f8 ee 73 3d 7d 34 fb 3c 9a ca ce bc fb ee ae be
       0.05955407 0.030664677 -0.025243092 -0.34166703
0000d0 42 0e 06 3d 25 4e 64 be 2a 35 b7 3d df 7c 14 bd
       0.03272844 -0.22295435 0.08945687 -0.0362519
0000e0 ee 4e 11 be 08 69 46 be 06 5f 79 bd b1 d4 01 be
       -0.14190266 -0.19376004 -0.060881637 -0.12678792
0000f0 e5 cf 84 3c c8 87 b6 bc 5d 06 5b 3e aa 91 8a 3d
       0.016212413 -0.022281542 0.21389146 0.067660645
000100 34 0a 14 3d 1f e1 64 3e 08 16 61 bd fd bd 3e 3e
       0.036142543 0.22351502 -0.05495265 0.18627162
000110 0b cb d8 3d d1 22 ea 3d 76 bc 96 bd 55 8b 77 3d
       0.105856024 0.11432422 -0.07360165 0.06043561
000120 fb ea 60 3e f0 46 40 be cb 3d 1c be db 03 17 3e
       0.21964638 -0.1877706 -0.15257947 0.14747564
000130 bd 85 fd 3d 0c f2 4b be 2d 13 09 be 4e 0d ae 3d
       0.12379024 -0.19916552 -0.13386221 0.084986314
000140 1e 3b 3c bc 8b 5b 60 ba 08 eb 20 3c 22 26 39 bc
       -0.011488704 -0.0008558563 0.009821661 -0.0113005955
000150 fb 2c 61 be bc 67 9b 3b 42 62 08 be cf cb 99 bc
       -0.21989815 0.0047425907 -0.13318732 -0.018773941
000160 04 18 9f bc 7c 44 46 be 75 7a 2b bd 6e 49 5a bc
       -0.019420631 -0.19362062 -0.04186483 -0.013323171
000170 b0 fd d2 be f8 20 a0 be 40 93 59 be 2a ce 4d be
       -0.41209173 -0.31275153 -0.21247578 -0.20098177
000180 36 ec 87 be 29 b1 30 bd 46 af 80 be 6c ae 8d bd
       -0.26547402 -0.043137703 -0.25133723 -0.06918034
000190 d3 72 a0 3c 58 f6 3d bc 31 53 81 3b 6a 78 6d bd
       0.019586002 -0.011594377 0.0039466848 -0.057976164
0001a0 a9 25 4b be 38 87 12 be f0 18 95 3d 67 74 58 be
       -0.19838585 -0.14309394 0.07280147 -0.21138154
0001b0 80 63 a4 3c 81 8f 3b 3d 03 87 d1 bd 07 1d 2c 3e
       0.020066977 0.045791153 -0.102308296 0.16807948
0001c0 35 be 00 be fa 27 ff bd 54 a2 36 3e 1b 18 c4 bd
       -0.12572558 -0.12458797 0.17835361 -0.0957491
0001d0 6d dd ee 3d 84 aa 52 3e 89 78 1b 3e 37 b3 f6 bc
       0.11663327 0.20572859 0.151827 -0.030114753
0001e0 39 81 0b 3d 7d 26 82 3e a0 20 ee be 35 74 80 3d
       0.034058783 0.2541999 -0.46509266 0.06272165
0001f0 c2 74 98 3e a5 0a 0c 3e 94 cf 69 3d a6 1a 03 be
       0.2977658 0.13675936 0.057082728 -0.12803134
000200 79 be 42 3e 15 50 83 3e 05 92 b6 3d 88 e7 6a bd
       0.19017972 0.25647035 0.0891457 -0.05734971
000210 52 ee 9b 3c a0 8e 45 be f3 52 2a be db 17 c3 bd
       0.019034538 -0.19292688 -0.16633205 -0.095260344
000220 20 0a 74 3c d5 c0 16 be 6d 9d 54 be ed ef 0e be
       0.014894992 -0.14721997 -0.20763178 -0.13958712
000230 70 7c 1d be 7a 89 90 be 0c 00 83 be bc bb d6 be
       -0.153795 -0.28229886 -0.25585973 -0.41940105
000240 85 53 f8 be f1 b4 0a bf 06 b2 97 be 95 3d 16 be
       -0.4850122 -0.54182345 -0.2962801 -0.14671929
000250 68 e2 85 be e1 10 56 3c 0b 3d af bd 20 d7 26 3c
       -0.26149297 0.013065548 -0.08556565 0.010183126
000260 21 5c 02 3d 1b 79 f9 3b fa 23 2b 3d 7e 51 c4 3d
       0.031826142 0.007613314 0.041782357 0.09585856
000270 b9 f9 5f bd 8b d2 d5 bd 30 da a6 3d ea 40 9b bc
       -0.054681513 -0.104405485 0.08147085 -0.018951852
000280 c6 02 3e 3e 38 57 48 3e 85 28 65 3d 4d cb 56 3d
       0.18555745 0.19564521 0.055946846 0.052439976
000290 84 59 f1 3d c0 e2 8a 3d 85 92 6c 3e d1 53 26 3e
       0.11784652 0.067815304 0.23102768 0.16242911
0002a0 68 0d 4a 3e 8b a5 23 3e b0 cb 40 3e 27 fb 8b bd
       0.19731677 0.15981118 0.188277 -0.06835013
0002b0 c9 9a 82 bd 83 6c 89 3e ba 58 28 3e b8 a7 ea 3c
       -0.06377179 0.268406 0.16440096 0.028644428
0002c0 91 c4 4e 3e 36 51 23 3e 36 db 0d 3d 82 b1 a0 3d
       0.20192172 0.15948948 0.034632884 0.07846357
0002d0 9c 18 34 3e 1f 64 83 3d 41 60 a4 3e 83 72 49 3d
       0.17587513 0.06415581 0.32104686 0.049181473
0002e0 54 0c f8 3d 6c e9 3e 3d 15 2b 38 be 7d 0b d1 bd
       0.121117264 0.046609327 -0.17985184 -0.10207269
0002f0 8e 7b 92 bc 00 3f 2a bd ff 95 9d bd e2 41 e7 bd
       -0.017881181 -0.041563988 -0.07694625 -0.11291863
000300 15 f8 96 3d bf 88 40 3e 4e 34 3d be b7 b9 c7 be
       0.07371537 0.18802164 -0.18476984 -0.39008877
000310 70 c4 06 3e a6 36 fc 3d 45 60 10 3e 0a 9b ce 3d
       0.13160872 0.12315111 0.14099224 0.10088165
000320 3e dd 52 bd 36 03 da bd 60 eb 7c be 50 2c 9b bd
       -0.051480524 -0.10645144 -0.24699163 -0.07576811
000330 fb b9 b9 be f7 31 2e bd 2a 04 00 be 9f 99 1f be
       -0.36274704 -0.04252812 -0.12501588 -0.15585946
000340 f5 81 8c be e9 08 4f 3d 16 be a4 bd fd 4c 0c 3e
       -0.274429 0.050545607 -0.080440685 0.13701244
000350 08 92 4a be 6f e7 69 3e 39 51 e3 3c 64 6b 07 bf
       -0.19782269 0.22842191 0.02774869 -0.5289824
000360 0b d1 9f be 48 ae 22 be cf 40 07 be a1 9a a1 be
       -0.31214175 -0.15886796 -0.13208316 -0.31563285
000370 24 41 f8 bc 2a 53 8d be 32 f4 aa 3d 98 95 b2 bd
       -0.030304499 -0.27602512 0.08347358 -0.08719939
000380 26 24 5c 3d bd 45 5b bd 95 94 b5 be 89 1e 9b be
       0.05374541 -0.053533304 -0.35464922 -0.30296734
000390 fb 80 84 bd 7e 7b 21 bb c1 67 24 3d b2 72 ba bd
       -0.064699136 -0.0024640257 0.04013801 -0.09103908
0003a0 fc 86 33 3d 3d 92 0b 3e 43 d3 30 3e 86 bb c4 3c
       0.043829903 0.13630004 0.1726809 0.0240152
0003b0 f3 6b 82 3b 3c 45 9d bc 78 88 14 3d 6a 0c 95 3c
       0.0039801537 -0.019198053 0.03626296 0.018194396
0003c0 cd cd 41 3e bf 3b 11 be 92 86 34 bd 7c 5f 8c be
       0.18926163 -0.14182948 -0.04407365 -0.274166
0003d0 cc 7a 5f bd 3c df a1 3d 50 09 e0 3d fc 4c 7c 3e
       -0.054560468 0.07903907 0.10939276 0.24638742
0003e0 db de 74 3e 39 0b b9 3d 57 f3 a7 3d 67 bd 5f bd
       0.23913138 0.09035344 0.0820071 -0.054623988
0003f0 8a fc ad bd a4 66 83 bd 7c fb 93 bd 8e 64 cf bd
       -0.08495434 -0.064160615 -0.07225701 -0.10126601

linear.bias f4 [10]
000000 9d e6 b0 3d 40 29 24 3e e4 46 31 3d 5c e7 cf bd
       0.08637736 0.1603136 0.043280497 -0.1015155
000010 4c 2a ad bd eb 66 74 bc ac ff 99 3c c3 f0 1c 3d
       -0.08455333 -0.014917116 0.018798672 0.038315546
000020 8b 74 96 bd 03 b5 ae bc
       -0.073464476 -0.021326547
