plot/model/model_epoch1.pth (torch, 43647 bytes, 6 tensors)

conv1.weight f4 [16, 1, 3, 3]
-0.0878201 0.055314366 -0.27068457 0.20623429 0.2579075 0.26778406 0.44073227 -0.017798465
0.13150166 -0.2458181 -0.2225495 0.3717743 -0.37443557 -0.18322596 0.41016713 -0.49481672
0.22499551 0.4431512 -0.13241649 -0.09187947 0.096312396 -0.09070058 -0.10084812 -0.09228707
0.22048311 -0.045208953 -0.2599594 0.42865247 0.23399135 0.29256967 0.46690458 0.3819824
-0.11076537 0.249597 -0.27530116 0.2585818 0.047105055 0.5438506 0.64280427 -0.21595423
-0.113230005 -0.15750685 -0.097132586 -0.6348958 -0.23960136 0.22818018 0.25344375 0.13109119
-0.16423315 0.040651135 0.16828105 -0.028200138 0.021371897 0.23305109 0.22176817 0.34073538
0.3270251 0.33600292 -0.24849038 0.18634862 -0.29967088 0.1244908 0.24152425 0.07899869
0.26058477 0.3940513 0.34570482 0.27439284 0.18928044 0.22121432 -0.0041277125 -0.0068518026
0.24989438 -0.01638064 -0.34222874 -0.0913887 0.09402638 0.042991653 0.44544604 0.27655354
0.2577297 0.3281132 0.53039885 0.065857954 -0.02231092 -0.032677367 0.1831525 -0.5065559
-0.47313362 -0.072195105 -0.50175095 -0.2045847 -0.1026518 -0.34493855 0.080109596 -0.01411361
0.40556046 0.1804944 0.16575548 -0.17207676 0.1267275 -0.025277358 -0.17501417 0.3542585
0.4545842 0.23973022 -0.15012176 0.17872494 -0.060094867 0.63728946 0.30856967 -0.5147504
-0.29140458 -0.32227495 -0.19463079 -0.3054959 -0.35352087 -0.19337283 0.27358505 0.18155488
0.4106803 0.31321743 0.30239907 0.17807198 -0.32097557 -0.26602754 0.35834685 0.12697469
0.21251945 0.061278466 0.090744436 0.44300827 0.35119587 0.20571676 0.21154174 0.19353376
-0.2679576 -0.274281 0.41539353 -0.2254439 0.13907266 0.39445734 -0.13367596 0.4876603
00000000: 06db b3bd 5191 623d 2b97 8abe 152f 533e
00000010: 740c 843e fe1a 893e a9a7 e13e 16ce 91bc
00000020: 5fa8 063e bdb7 7bbe 04e4 63be 3359 be3e
00000030: 05b6 bfbe 969f 3bbe 6d01 d23e 9e58 fdbe
00000040: 3965 663e b7e4 e23e 3098 07be 4e2b bcbd
00000050: 6f3f c53d 3ac1 b9bd 7689 cebd 0101 bdbd
00000060: 53c6 613e 062d 39bd 6619 85be 5678 db3e
00000070: 6e9b 6f3e b1cb 953e 1e0e ef3e 3293 c33e
00000080: f4d8 e2bd 5b96 7f3e 46f4 8cbe d564 843e
00000090: 3bf1 403d cb39 0b3f d28e 243f 1b23 5dbe
000000a0: 22e5 e7bd 7a49 21be 73ed c6bd 8888 22bf
000000b0: 0f5a 75be 11a8 693e 61c3 813e c53c 063e
000000c0: bc2c 28be ce81 263d de51 2c3e fa03 e7bc
000000d0: 1e14 af3c f2a4 6e3e 3217 633e de74 ae3e
000000e0: d56f a73e 9308 ac3e 4374 7ebe 2cd2 3e3e
000000f0: 766e 99be 08f5 fe3d 2252 773e 11ca a13d
00000100: 5e6b 853e 18c1 c93e 3900 b13e 387d 8c3e
00000110: bbd2 413e 0286 623e c341 87bb 1685 e0bb
00000120: 50e4 7f3e b130 86bc 9b38 afbe 002a bbbd
00000130: e790 c03d 0418 303d 8111 e43e 6d98 8d3e
00000140: 26f5 833e 74fe a73e 38c8 073f 89e0 863d
00000150: 64c5 b6bc b4d8 05bd 548c 3b3e a6ad 01bf
00000160: 923e f2be 07db 93bd c072 00bf a77e 51be
00000170: 1b3b d2bd c99b b0be 8010 a43d c53c 67bc
00000180: 9fa5 cf3e 86d3 383e cebb 293e e434 30be
00000190: dbc4 013e 7612 cfbc ea36 33be 5f61 b53e
000001a0: 43bf e83e d77b 753e 85b9 19be ac03 373e
000001b0: 0926 76bd 6725 233f d8fc 9d3e afc6 03bf
000001c0: fb32 95be 3901 a5be 4b4d 47be f569 9cbe
000001d0: b000 b5be 8703 46be 5713 8c3e 86e9 393e
000001e0: b044 d23e 095e a03e 0dd4 9a3e 8058 363e
000001f0: e956 a4be c334 88be 3d79 b73e a705 023e
00000200: b39e 593e 21ff 7a3d 38d8 b93d fbd1 e23e
00000210: f2cf b33e 6aa7 523e 669e 583e b72d 463e
00000220: bd31 89be 8f6e 8cbe 76ae d43e c4da 66be
00000230: 1069 0e3e 50f6 c93e 5ae2 08be 9cae f93e

conv1.bias f4 [16]
-0.00028257922 -0.115547806 -0.34008157 0.06411485 -0.004963866 0.12933473 -0.24037306 -0.0020420786
-0.027135042 0.030657046 0.32775113 0.0990816 0.2304505 -0.0017610895 -0.0007242465 0.036711108
00000000: 2427 94b9 54a4 ecbd 2c1f aebe a54e 833d
00000010: eda7 a2bb 5370 043e 5b24 76be 65d4 05bb
00000020: 4f4a debc 7c24 fb3c ffce a73e 4beb ca3d
00000030: 37fb 6b3e 5cd4 e6ba 5cdb 3dba 635e 163d

conv2.weight f4 [16, 16, 3, 3]
-0.03026066 0.088077046 0.052109167 0.109693296 0.073271945 -0.02480829 -0.069976725 -0.024037652
-0.15500718 0.3326826 0.114548005 0.13301991 0.12354354 -0.056033857 -0.18815593 -0.18458095
-0.15785046 -0.21057788 -0.066939846 0.07172113 0.012553841 -0.076291025 -0.075800925 0.04218651
0.06269776 -0.03626156 0.085996404 -0.077684514 0.09485408 0.06694089 -0.00078936474 0.05364499
0.047293164 -0.008857882 0.0015383248 -0.11838928 -0.16631798 -0.17247364 -0.047777735 -0.25795883
-0.04325821 0.16158022 0.103542715 -0.060132317 0.017852403 0.08994961 0.048993267 0.0020463706
0.05378782 -0.023776544 -0.085352406 0.06918427 -0.020920338 -0.14920746 -0.03708236 0.09314198
0.10160907 -0.10821523 0.10102378 -0.021493379 0.031528264 0.006496121 -0.22644994 -0.13756265
0.11551938 0.028084727 -0.014395759 -0.0068539423 0.056030273 0.1129659 -0.036006253 -0.059937265
-0.04345705 0.1390211 0.10987948 0.05277322 -0.007207328 -0.15763736 -0.05694105 -0.15004472
-0.14391345 -0.09474902 -0.1070086 -0.10511519 -0.29843515 0.040951442 7.807369e-05 0.11452747
0.038294107 0.029924022 0.07948727 0.039525162 -0.029234068 0.03625201 -0.04969083 -0.08558297
0.036660586 -0.12607503 -0.010312873 0.074080154 0.11754575 0.12251426 0.11493681 0.064445175
-0.11831466 -0.088892795 -0.08995033 -0.12358433 0.0054741744 -0.07926136 1.5516149e-05 -0.16303413
-0.16289005 -0.028715784 0.005867797 0.12627576 0.09152686 -0.15282422 0.020040277 0.1800364
0.18657534 0.059080858 0.076297134 0.15721853 -0.05021288 -0.093543224 -0.09949804 0.0950013
0.014728365 -0.015532232 0.1026375 0.009603103 0.094154544 -0.056896426 -0.18306302 -0.045471426
-0.02222663 -0.0013948604 -0.09890608 0.06856678 -0.11298227 -0.13695541 -0.081744604 -0.06986734
0.06748759 0.067368574 0.0033016023 0.10776563 0.05915401 -0.07663009 0.010048238 0.028116597
-0.11150249 0.052489594 0.08046625 0.06473385 0.044753827 0.07295798 -0.171824 0.28437048
0.009342409 -0.1709068 0.012087683 -0.027665915 0.01762079 -0.04406976 -0.031437464 0.077615455
-0.00096858543 0.065095544 0.03015399 -0.040603317 0.027911043 0.018728618 -0.051282674 0.04455647
0.04576372 0.032740954 0.10766786 0.024664558 -0.16102903 -0.2815411 -0.28114867 0.00036132292
0.047822386 0.24004468 0.037012547 -0.012718785 -0.024357425 -0.025066976 -0.0323938 -0.11262236
0.051632047 -0.013959009 -0.06919718 -0.0067463624 0.044106048 -0.15130375 -0.17460631 -0.14773574
0.004739575 0.0470604 -0.0037746788 -0.0044646394 0.07639589 0.034920946 -0.22277969 0.01292434
0.006202327 -0.016210968 0.027261518 0.114702545 0.061963115 0.016130948 0.11030501 -0.16345073
-0.050038412 0.05418863 0.14094651 0.095887 0.06854078 -0.0077655446 -0.12505165 -0.056994785
-0.096502505 -0.1614433 -0.15065154 -0.21262434 -0.055295058 -0.04542876 0.120722696 0.113096274
0.04433508 0.038998738 0.11584763 0.09372454 0.13898917 0.04093028 0.051735524 -0.03432505
-0.082297474 0.07305043 -0.09625692 0.054293636 -0.03396515 0.0013791111 -0.059681255 -0.044647086
-0.096118264 0.002964967 0.08016461 -0.18416499 0.006551473 0.017593317 -0.16261357 0.0036507582
00000000: 34e5 f7bc bd61 b43d 6c70 553d e1a6 e03d
00000010: 9a0f 963d c13a cbbc f54f 8fbd 9cea c4bc
00000020: 34ba 1ebe 6055 aa3e 2598 ea3d 5f36 083e
00000030: 6504 fd3d c283 65bd f3ab 40be ca02 3dbe
00000040: 8da3 21be baa1 57be c217 89bd 87e2 923d
00000050: a0ae 4d3c 783e 9cbd 843d 9bbd c3cb 2c3d
00000060: af67 803d 0087 14bd e21e b03d 0f19 9fbd
00000070: db42 c23d 4e18 893d 5fed 4eba d9ba 5b3d
00000080: 7ab6 413d a620 11bc 9da1 c93a 1476 f2bd
00000090: 434f 2abe ee9c 30be 96b2 43bd 2e13 84be
000000a0: 852f 31bd 4975 253e 340e d43d 4e4d 76bd
000000b0: 343f 923c 8037 b83d 2aad 483d 671c 063b
000000c0: 9e50 5c3d 07c7 c2bc 3ecd aebd 7cb0 8d3d
000000d0: 2161 abbc d7c9 18be ace3 17bd 39c1 be3d
000000e0: 6b18 d03d f29f ddbd 8ee5 ce3d e212 b0bc
000000f0: c823 013d 6add d43b 7ee2 67be 39dd 0cbe
00000100: 6d95 ec3d f111 e63c 31dc 6bbc 0997 e0bb
00000110: 0080 653d aa5a e73d 4b7b 13bd c780 75bd
00000120: 0500 32bd 8c5b 0e3e 7e08 e13d bb28 583d
00000130: 732b ecbb b06b 21be 053b 69bd 53a5 19be
00000140: 0c5e 13be c60b c2bd 5327 dbbd a246 d7bd
00000150: 7ecc 98be b3bc 273d 7ebb a338 618d ea3d
00000160: 48da 1c3d 3923 f53c 39ca a23d 23e5 213d
00000170: 497c efbc fd7c 143d 9d88 4bbd 2046 afbd
00000180: 6929 163d d019 01be 53f7 28bc 56b7 973d
00000190: d4bb f03d c2e8 fa3d fe63 eb3d d5fb 833d
000001a0: f54e f2bd 6d0d b6bd e137 b8bd c819 fdbd
000001b0: b460 b33b c853 a2bd ad28 8237 6bf2 26be
000001c0: a6cc 26be 5d3d ebbc a646 c03b 6f4e 013e
000001d0: 6f72 bb3d f47d 1cbe 822b a43c 765b 383e
000001e0: 9b0d 3f3e c5fe 713d ac41 9c3d e5fd 203e
000001f0: 05ac 4dbd 9793 bfbd a1c5 cbbd 0b90 c23d
00000200: 3d4f 713c e77a 7ebc 9c33 d23d 5556 1d3c
00000210: 19d4 c03d 3a0c 69bd df74 3bbe 3f40 3abd
00000220: 9f14 b6bc c0d3 b6ba 458f cabd bd6c 8c3d
00000230: 4063 e7bd 0a3e 0cbe b769 a7bd 9c16 8fbd
00000240: ef36 8a3d 89f8 893d b25f 583b 3ab4 dc3d
00000250: 7a4b 723d 3df0 9cbd 5da1 243c c754 e63c
00000260: 6b5b e4bd 54ff 563d 7dcb a43d 2e93 843d
00000270: ca4f 373d fe6a 953d a1f2 2fbe 0299 913e
00000280: e710 193c 3102 2fbe 6b0b 463c a1a3 e2bc
00000290: 7a59 903c 7e82 34bd 92c4 00bd daf4 9e3d
000002a0: abe8 7dba d050 853d 8005 f73c aa4f 26bd
000002b0: b3a5 e43c c26c 993c c80d 52bd d880 363d
000002c0: bd72 3b3d 611b 063d f880 dc3d 540d ca3c
000002d0: cbe4 24be 2826 90be b8f2 8fbe f16f bd39
000002e0: 68e1 433d 46ce 753e 789a 173d 7362 50bc
000002f0: 3989 c7bc 4259 cdbc 5caf 04bd 8da6 e6bd
00000300: 207c 533d 54b4 64bc 40b7 8dbd 9710 ddbb
00000310: 8ba8 343d 5fef 1abe ffcb 32be 0a48 17be
00000320: 704e 9b3b 68c2 403d 9a60 77bb 1c4c 92bb
00000330: 7375 9c3d 4409 0f3d 5c20 64be 9cc0 533c
00000340: e43c cb3b ddcc 84bc 8c53 df3c 2be9 ea3d
00000350: 09cd 7d3d 0d25 843c 98e7 e13d a15f 27be
00000360: 14f5 4cbd e6f4 5d3d 4854 103e 6760 c43d
00000370: 1c5f 8c3d 1c76 febb 8a0d 00be 5d73 69bd
00000380: 1ba3 c5bd 6451 25be 6644 1abe 32ba 59be
00000390: 127d 62bd 8213 3abd 763d f73d 059f e73d
000003a0: b398 353d 24bd 1f3d 8641 ed3d a7f2 bf3d
000003b0: 2d53 0e3e 82a6 273d a1e8 533d 6c98 0cbd
000003c0: 948b a8bd 779b 953d 5922 c5bd 0163 5e3d
000003d0: 0b1f 0bbd 4ac3 b43a 5574 74bd dddf 36bd
000003e0: a7d9 c4bd e44f 423b 582d a43d bf95 3cbe
000003f0: bdad d63b dc1f 903c 2c84 26be 8f41 6f3b

conv2.bias f4 [16]
0.08224254 -0.034586664 0.040471774 -0.0923867 -0.046284474 0.010525659 0.016395893 -0.08048728
-0.012020515 -0.005929053 -0.02689949 0.06646611 -0.06852346 0.031060472 -0.038799398 0.029951913
00000000: c76e a83d bfaa 0dbd bbc5 253d 3d35 bdbd
00000010: ca94 3dbd d073 2c3c ae50 863c 84d6 a4bd
00000020: b2f1 44bc 8048 c2bb 525c dcbc 621f 883d
00000030: 0756 8cbd 8872 fe3c 1eec 1ebd b75d f53c

linear.weight f4 [10, 784]
0.01732306 0.0060454956 -0.029838335 -0.08888136 -0.1416078 -0.040209785 -0.014823029 0.008943602
-0.06354299 -0.063013785 -0.041578274 -0.078651726 -0.12016175 -0.028946862 0.0043684775 -0.062180914
0.03680005 0.09455868 -0.056664664 -0.090637974 -0.030719101 -0.07283909 -0.04550283 0.09340922
-0.017274398 -0.090122916 0.11614744 0.091621175 -0.054701317 -0.0006161692 -0.02979692 -0.15921062
0.007861548 0.09238073 0.065126695 -0.03889574 0.07069923 0.041849546 -0.01125623 -0.0057103313
0.031701755 0.027391562 -0.04661195 0.0054503204 0.043885734 0.007465015 -0.052721288 -0.055802394
-0.019739823 0.0024559372 -0.028133716 -0.10437487 -0.026656318 -0.04405143 -0.053588938 -0.05694854
-0.022961173 -0.014220767 -0.07006381 -0.027356815 0.034058638 0.04651905 -0.031420406 0.008488136
-0.0126197655 0.053243298 0.020109655 0.0010078497 0.07597784 0.025526403 -0.05665827 0.05720877
0.10579175 -0.106483705 -0.17078064 0.08191053 0.06607271 -0.12665288 -0.027550716 0.08165165
-0.09438141 -0.029347476 0.09063172 0.027592918 -0.09657914 -0.048787426 0.06818053 -0.0014381421
0.023984151 -0.0009878264 -0.015314757 -0.006390731 -0.06773252 -0.02102344 0.0006438353 -0.061365344
-0.06567413 -0.031848565 -0.02843918 -0.018251188 -0.01185479 -0.0065675494 -0.0014742751 -0.0465912
-0.024427414 0.009812531 -0.05759501 -0.025524255 0.014724636 0.05520848 0.0046321717 0.016648965
-0.06811964 -0.013163677 0.027963782 -0.03693846 0.011257538 0.10824261 0.08320129 -0.052534614
0.034843694 0.05307855 -0.24167243 -0.10132857 0.09829373 0.101073235 -0.088089995 0.020248728
0.10636969 0.042326078 -0.011072762 0.07678746 0.040038805 -0.06598072 -0.006850007 0.03451966
0.044671945 -0.059258938 -0.021008803 -0.005459666 -0.048313625 -0.09183977 -0.12853718 -0.117948934
-0.11905189 -0.1206269 -0.06204763 -0.069369376 -0.08682134 -0.013249562 -0.005701549 0.039784294
-0.043380346 -0.05576818 -0.0118245715 -0.026704745 -0.045161963 0.025861252 0.036798306 0.020747695
0.02666929 0.038308095 0.030102598 0.013239955 0.026006242 0.014669504 0.06715366 0.108805224
0.08174765 0.072608456 0.009915711 -0.09469318 -0.060276464 0.04510127 0.07731427 0.01620493
0.106404185 0.049674045 -0.06089388 -0.007368855 0.0735112 0.043569192 0.023429532 0.022174532
0.056944784 0.012364501 -0.012988095 -0.010089708 0.03624163 -0.027104799 -0.019396389 0.0051963953
0.0119620925 -0.035164878 -0.06299027 -0.08775608 -0.0126823895 0.005519641 -0.0179343 -0.049316995
-0.13010116 -0.08986062 -0.01978449 0.008368339 -0.09719437 -0.069709405 -0.023085942 -0.12723657
-0.17317918 -0.04671519 -0.09632028 -0.14375179 -0.06452265 0.14425674 0.045604434 -0.18428348
-0.12705207 -0.094067216 -0.1811603 -0.050244063 -0.12221986 -0.17628519 -0.0041364366 -0.064939015
-0.022519622 0.006273838 -0.20405997 -0.1374158 0.031024203 0.06026508 0.0025633192 -0.010931116
0.11288568 0.07899611 0.05515013 0.034291264 0.036588322 -0.009952371 -0.005006978 -0.012380135
0.031056155 -0.035210975 -0.033301402 -0.071915455 0.0074868496 -0.01332498 0.0055865836 -0.032142945
-0.033331234 -0.120264985 -0.09126265 -0.01095427 0.0070610335 -0.0630885 -0.031556934 -0.039159678
00000000: 17e9 8d3c 4b19 c63b 866f f4bc 6e07 b6bd
00000010: a301 11be 04b3 24bd 4adc 72bc 3088 123c
00000020: d422 82bd 5f0d 81bd fb4d 2abd 2814 a1bd
00000030: 5d17 f6bd f821 edbc 7225 8f3b 6ab1 7ebd
00000040: a6bb 163d fba7 c13d 3519 68bd 67a0 b9bd
00000050: a0a6 fbbc a92c 95bd 2d61 3abd 554d bf3d
00000060: 0a83 8dbc 5d92 b8bd b6de ed3d e2a3 bb3d
00000070: 7d0e 60bd 6a86 21ba ac18 f4bc 1c08 23be
00000080: b9cd 003c 1c32 bd3d 2561 853d 2451 1fbd
00000090: c2ca 903d 6e6a 2b3d 0d6c 38bc bb1d bbbb
000000a0: b3d9 013d 4564 e03c 2cec 3ebd 9a98 b23b
000000b0: 87c1 333d 169d f43b 47f2 57bd 0d91 64bd
000000c0: 69b5 a1bc caf3 203b ae78 e6bc 7ec2 d5bd
000000d0: 5a5e dabc 466f 34bd 1380 5bbd df42 69bd
000000e0: 1219 bcbc 38fe 68bc 9d7d 8fbd 661b e0bc
000000f0: 1281 0b3d c28a 3e3d afb2 00bd d311 0b3c
00000100: 22c3 4ebc a515 5a3d 01bd a43c d319 843a
00000110: 459a 9b3d bf1c d13c 8112 68bd be53 6a3d
00000120: 58a9 d83d 2114 dabd 1fe1 2ebe b5c0 a73d
00000130: 2151 873d 4bb1 01be 0ab2 e1bc fb38 a73d
00000140: 0a4b c1bd 1e6a f0bc 209d b93d 8b0a e23c
00000150: 49cb c5bd 53d5 47bd 3ca2 8b3d 0b80 bcba
00000160: 697a c43c f479 81ba bfea 7abc 5669 d1bb
00000170: 59b7 8abd 5939 acbc 0ec7 283a 3a5a 7bbd
00000180: 2980 86bd a473 02bd 49f9 e8bc 8483 95bc
00000190: 983a 42bc 9934 d7bb 773c c1ba 6ad6 3ebd
000001a0: 001c c8bc bdc4 203c bfe8 6bbd 3e18 d1bc
000001b0: 9a3f 713c 4a22 623d 79c9 973b 6963 883c
000001c0: 4f82 8bbd 77ac 57bc 4d14 e53c c84c 17bd
000001d0: 8971 383c 4dae dd3d 7065 aa3d 892e 57bd
000001e0: 43b8 0e3d e568 593d fa78 77be 5a85 cfbd
000001f0: 394e c93d 7cff ce3d 8768 b4bd a9e0 a53c
00000200: 5ad8 d93d 1c5e 2d3d 886a 35bc be42 9d3d
00000210: bbff 233d e620 87bd 0676 e0bb 7d64 0d3d
00000220: eef9 363d 80b9 72bd a71a acbc ffe6 b2bb
00000230: 82e4 45bd 7d16 bcbd 409f 03be 368f f1bd
00000240: 7ad1 f3bd 3c0b f7bd a825 7ebd 8811 8ebd
00000250: 63cf b1bd b114 59bc 0fd4 babb dbf4 223d
00000260: 97af 31bd 2d6d 64bd d9bb 41bc e9c3 dabc
00000270: c0fb 38bd fada d33c d2b9 163d 12f7 a93c
00000280: 8e79 da3c f3e8 1c3d b999 f63c 65ec 583c
00000290: 0b0b d53c 5c58 703c dc87 893d 46d5 de3d
000002a0: 506b a73d beb3 943d 8275 223c 7fee c1bd
000002b0: 74e4 76bd 1cbc 383d f256 9e3d 34c0 843c
000002c0: 70ea d93d 0377 4b3d dc6b 79bd 7076 f1bb
000002d0: 0a8d 963d 9c75 323d 4aef bf3c 5da7 b53c
000002e0: ef3e 693d 7a94 4a3c 05cc 54bc 4d4f 25bc
000002f0: 1a72 143d e20a debc 2de5 9ebc 8646 aa3b
00000300: a7fc 433c 0c09 10bd 0b01 81bd 76b9 b3bd
00000310: ccc9 4fbc 1bde b43b f4ea 92bc 9e00 4abd
00000320: 3d39 05be d808 b8bd 1513 a2bc 5c1b 093c
00000330: d80d c7bd cec3 8ebd bb1e bdbc 4e4a 02be
00000340: e255 31be 6d58 3fbd 9143 c5bd ab33 13be
00000350: 7324 84bd 0ab8 133e b7cb 3a3d cfb4 3cbe
00000360: f019 02be 50a6 c0bd 1682 39be b8cc 4dbd
00000370: 684e fabd 1b84 34be f28a 87bb bffe 84bd
00000380: 127b b8bc c594 cd3b 19f5 50be bab6 0cbe
00000390: 7826 fe3c 84d8 763d 5cfd 273b 6c18 33bc
000003a0: 9b30 e73d b6c8 a13d 1ae5 613d ff74 0c3d
000003b0: a3dd 153d 450f 23bc 9311 a4bb 0dd6 4abc
000003c0: 7a69 fe3c 6239 10bd 0d67 08bd 6948 93bd
000003d0: 3f54 f53b 0451 5abc a90f b73b 52a8 03bd
000003e0: 5586 08bd 7d4d f6bd eae7 babd 8a79 33bc
000003f0: 3e60 e73b 8b34 81bd d841 01bd e665 20bd

linear.bias f4 [10]
0.009900607 0.05869635 -0.0017042207 -0.031107118 -0.0036477654 -0.025467241 0.023775196 0.024814242
-0.044100627 -0.010520149
00000000: 2836 223c 956b 703d 2860 dfba 5bd4 febc
00000010: 590f 6fbb ada0 d0bc 33c4 c23c 3d47 cb3c
00000020: dca2 34bd b45c 2cbc
