plot/model/model_epoch5.pth (torch, 43647 bytes, 6 tensors)

conv1.weight f4 [16, 1, 3, 3]
-0.15636644 -0.061390247 -0.3891664 0.27768284 0.33866772 0.31450802 0.45493805 0.016435824
0.05952365 -0.41566622 -0.247297 0.3685649 -0.4785047 -0.16008157 0.44379324 -0.58120763
0.25079495 0.5081103 -0.13241649 -0.09187947 0.096312396 -0.09070058 -0.10084812 -0.09228707
0.22048311 -0.045208953 -0.2599594 0.63766783 0.44301876 0.54291946 0.505538 0.33696315
-0.10521473 0.1849732 -0.42901543 0.07976961 0.052013297 0.5256318 0.6699221 -0.18021512
-0.09647193 -0.07807406 -0.091840185 -0.7222355 -0.21317053 0.19670136 0.25314915 0.13171482
-0.123150736 0.06490336 0.13520342 -0.0042862548 0.048036985 0.20214264 0.24659605 0.29248673
0.30501005 0.32037997 -0.22023083 0.24200532 -0.30379346 0.08413539 0.3454739 0.17804919
0.28206676 0.49811575 0.40673777 0.22366479 0.23566195 0.1446063 -0.08650204 -0.09172741
0.20993657 -0.16914411 -0.5203065 -0.055889294 0.13366415 0.057918493 0.40469447 0.29435462
0.27085277 0.36048076 0.49247837 0.09981314 -0.024903446 0.026300801 0.29949504 -0.66072404
-0.5556967 -0.049957987 -0.66484904 -0.39198363 -0.19411592 -0.36190602 0.13576514 0.04694812
0.5735111 0.3545802 0.21584961 -0.17124435 0.16801172 0.01746069 -0.23811366 0.3532038
0.48763287 0.19705324 -0.16504209 0.24116676 -0.04978178 0.7214682 0.43876833 -0.82708675
-0.18332042 -0.40552828 -0.36893308 -0.45838237 -0.60226744 -0.23815195 0.17962512 0.16061804
0.5287377 0.37498352 0.17340414 0.22862169 -0.32697538 -0.50067896 0.3365426 0.0053946036
0.21042928 0.21113883 0.025417889 0.6343836 0.422731 0.16285811 0.28981978 0.11730638
-0.4635685 -0.555321 0.527523 -0.1672248 0.06618586 0.4082098 -0.21495615 0.4241642
00000000: 861e 20be 5774 7bbd d240 c7be 722c 8e3e
00000010: db65 ad3e 3207 a13e a4ed e83e 6ca4 863c
00000020: 12cf 733d 34d2 d4be 6d3b 7dbe 8ab4 bc3e
00000030: 91fe f4be 6cec 23be de38 e33e 06ca 14bf
00000040: 3268 803e 8413 023f 3098 07be 4e2b bcbd
00000050: 6f3f c53d 3ac1 b9bd 7689 cebd 0101 bdbd
00000060: 53c6 613e 062d 39bd 6619 85be 333e 233f
00000070: 5bd3 e23e c5fc 0a3f f06a 013f 6f86 ac3e
00000080: d27a d7bd 9d69 3d3e e9a7 dbbe 405e a33d
00000090: e50b 553d ce8f 063f 0480 2b3f 508a 38be
000000a0: 1393 c5bd 4be5 9fbd b516 bcbd 6de4 38bf
000000b0: 6049 5abe 156c 493e c49c 813e 40e0 063e
000000c0: 7436 fcbd 0eec 843d c472 0a3e b673 8cbb
000000d0: 6ec2 443d 7bfe 4e3e ad83 7c3e d2c0 953e
000000e0: 472a 9c3e d808 a43e 3184 61be 3ed0 773e
000000f0: d18a 9bbe 2d4f ac3d f4e1 b03e 8752 363e
00000100: 0e6b 903e 0709 ff3e ef3f d03e 6208 653e
00000110: 5e51 713e ad13 143e fb27 b1bd 95db bbbd
00000120: 9df9 563e 1d34 2dbe cf32 05bf 2cec 64bd
00000130: 41df 083e f13b 6d3d 1d34 cf3e a6b5 963e
00000140: 37ad 8a3e ef90 b83e 2026 fc3e d56a cc3d
00000150: 5002 ccbc c774 d73c 6a57 993e 3625 29bf
00000160: 2442 0ebf bfa0 4cbd 8c33 2abf 14b2 c8be
00000170: 53c6 46be bf4b b9be 0406 0b3e ac4c 403d
00000180: a0d1 123f 898b b53e ae07 5d3e ae5a 2fbe
00000190: 440b 2c3e b909 8f3c 11d4 73be 21d7 b43e
000001a0: 04ab f93e 53c8 493e cb00 29be 6bf4 763e
000001b0: fbe7 4bbd 24b2 383f 3ea6 e03e f5bb 53bf
000001c0: 59b8 3bbe 67a1 cfbe cce4 bcbe 18b1 eabe
000001d0: 332e 1abf 1bde 73be a6ef 373e 0e79 243e
000001e0: 5b5b 073f d7fd bf3e db90 313e ce1b 6a3e
000001f0: 5169 a7be 7f2c 00bf 504f ac3e 37c5 b03b
00000200: c67a 573e c734 583e 2d39 d03c f766 223f
00000210: 3370 d83e 47c4 263e 4263 943e 543e f03d
00000220: da58 edbe 8429 0ebf bf0b 073f fa3c 2bbe
00000230: 748c 873d e000 d13e 771d 5cbe 0d2c d93e

conv1.bias f4 [16]
-0.0025361804 -0.07141548 -0.34008157 0.012638869 -0.0101009505 0.07970263 -0.36442676 -0.013535201
-0.13655216 -0.026756847 0.21386947 -0.0040680906 0.12702921 -0.033426423 -0.003572224 -0.017142344
00000000: 0c36 26bb 4742 92bd 2c1f aebe 4213 4f3c
00000010: 757e 25bc 223b a33d 2596 babe bfc2 5dbc
00000020: 54d4 0bbe 2d31 dbbc 9900 5b3e 9e4d 85bb
00000030: f213 023e 25ea 08bd f91b 6abb 1a6e 8cbc

conv2.weight f4 [16, 16, 3, 3]
-0.07358565 0.15500915 0.060272917 0.17137341 0.10866582 -0.047994982 -0.063242875 -0.056392707
-0.17893445 0.39490584 0.16835776 0.18296477 0.14715736 0.08605003 -0.44928464 -0.31867248
-0.3167339 -0.29665542 -0.066939846 0.07172113 0.012553841 -0.076291025 -0.075800925 0.04218651
0.06269776 -0.03626156 0.085996404 -0.043435097 0.10776065 0.09988524 -0.09293695 0.15802255
0.030493293 0.013643373 -0.00265142 -0.11302648 -0.105497904 -0.19343406 -0.1714214 -0.34273803
-0.09914111 -0.030513449 0.07215984 -0.07348228 -0.029662121 0.09624487 0.1451917 0.022536848
0.07752458 0.035177127 -0.13498603 0.09815992 0.004057038 -0.18638115 -0.021310996 0.17927106
0.13430105 -0.12989332 0.13929303 -0.10775964 0.124675624 0.060373105 -0.27007112 -0.1570335
0.17130043 0.041382007 -0.053248636 0.059387017 -0.029330757 0.117376715 -0.038393676 -0.07734792
-0.13716555 0.12296807 -0.015201603 0.06276037 -0.051372256 -0.23630586 -0.12803333 -0.19099845
-0.14146058 -0.00620578 -0.13170268 -0.22986679 -0.40186012 0.03279791 -0.12820485 0.23605292
0.023860145 0.070501104 0.113069534 0.0042812303 -0.09038382 0.18474014 -0.035296574 -0.24631445
0.09532948 -0.1866165 -0.06595424 0.08166137 0.19524539 0.10825554 0.19747785 0.11937808
-0.23791213 -0.086596526 -0.095500045 -0.22613378 -0.03723931 -0.1454769 0.01942493 -0.31006444
-0.23889543 -0.21377003 -0.058247793 0.14868961 0.1386612 -0.11089981 0.10112061 0.3120271
0.25004026 0.15181881 0.05918306 0.2512417 0.04984332 -0.036581386 -0.17706709 0.16746448
-0.015310223 0.020537285 0.15095963 -0.10021272 0.028429022 -0.10260964 -0.15108855 -0.22189575
-0.04399481 -0.1637151 -0.17281914 -0.010153652 -0.21056752 -0.21839604 -0.1613888 -0.042520497
0.017844306 0.06254013 0.14454836 0.16187759 0.087304935 -0.112263575 -0.091605775 0.053488832
-0.21710813 -0.004381373 0.019967964 0.1338229 0.05381857 0.17516376 -0.046000633 0.62472343
0.17175837 -0.060945515 0.012087683 -0.027665915 0.01762079 -0.04406976 -0.031437464 0.077615455
-0.00096858543 0.065095544 0.03015399 -0.03875483 -0.060521863 -0.054319695 -0.03134152 0.016516684
0.10388574 0.03797792 0.15145792 0.022352705 -0.09657138 -0.4143012 -0.582183 -0.089186415
-0.02890309 0.28227657 0.12109348 0.0005688992 -0.030153647 -0.01644989 -0.009640589 -0.09396806
0.022395652 -0.038001724 -0.08665857 0.04240994 0.06950726 -0.25606364 -0.10307307 -0.12498344
-0.009851741 0.025336778 -0.026370462 0.01489307 0.08517493 0.023428872 -0.37718937 -0.0080263475
-0.08895763 -0.048906278 0.038671423 0.10710335 0.099588946 -0.03309396 0.16808178 -0.20587488
-0.09606156 0.017396849 0.24333076 0.06039119 0.011872097 -0.18408139 -0.21266003 -0.04791242
-0.24043167 -0.1019251 -0.26412416 -0.44138697 -0.0951902 -0.12290635 0.14361258 0.21900326
0.056400966 0.0062112096 0.12308569 0.047400113 0.22613412 0.07501442 -0.0030015945 -0.08690586
-0.10814417 0.12749366 -0.11400904 0.034739293 -0.01683982 0.083531424 -0.026938975 -0.011368629
-0.12472832 -0.021119239 0.09680727 -0.2755186 0.043837562 0.027237102 -0.24255665 -0.0966128
00000000: 13b4 96bd b8ba 1e3e bce0 763d 837c 2f3e
00000010: 2f8c de3d 6396 44bd 7b85 81bd 0afc 66bd
00000020: 983a 37be 1931 ca3e fa65 2c3e 1e5b 3b3e
00000030: 6bb0 163e 003b b03d a308 e6be 0a29 a3be
00000040: f22a a2be 38e3 97be c217 89bd 87e2 923d
00000050: a0ae 4d3c 783e 9cbd 843d 9bbd c3cb 2c3d
00000060: af67 803d 0087 14bd e21e b03d 00e9 31bd
00000070: 9eb1 dc3d a290 cc3d ba55 bebd aad0 213e
00000080: 12cd f93c 7488 5f3c 72c3 2dbb 6d7a e7bd
00000090: 490f d8bd 9413 46be 1789 2fbe 5c7b afbe
000000a0: 7f0a cbbd 57f7 f9bc 8ac8 933d e17d 96bd
000000b0: fafd f2bc 081c c53d 22ad 143e 329f b83c
000000c0: 35c5 9e3d e415 103d c739 0abe 1108 c93d
000000d0: e7f0 843b b3da 3ebe 6694 aebc d592 373e
000000e0: 3786 093e c102 05be d5a2 0e3e 16b1 dcbd
000000f0: ef55 ff3d ca49 773d c346 8abe 64cd 20be
00000100: 6169 2f3e 2e80 293d 3e1b 5abd cd3f 733d
00000110: 0e47 f0bc 3463 f03d b042 1dbd 9668 9ebd
00000120: 2075 0cbe afd6 fb3d 2510 79bc 8288 803d
00000130: b76b 52bd 2afa 71be 2b1b 03be 1995 43be
00000140: 0bdb 10be db59 cbbb 11dd 06be 3362 6bbe
00000150: 9cc0 cdbe 1a57 063d 2248 03be dbb7 713e
00000160: 5a76 c33c e262 903d 0091 e73d 9049 8c3b
00000170: 271b b9bd 852c 3d3e 2493 10bd db39 7cbe
00000180: 1a3c c33d 6518 3fbe 0413 87bd 143e a73d
00000190: 68ee 473e 15b5 dd3d a237 4a3e 7f7c f43d
000001a0: 3d9f 73be 8559 b1bd 8795 c3bd 9d8f 67be
000001b0: 3f88 18bd e5f7 14be 0821 9f3c c4c0 9ebe
000001c0: 01a1 74be 88e6 5abe 3d95 6ebd 1742 183e
000001d0: 34fd 0d3e 711f e3bd 5318 cf3d 04c2 9f3e
000001e0: 4705 803e 6476 1b3e f069 723d c1a2 803e
000001f0: 8228 4c3d 5dd6 15bd 1351 35be cf7b 2b3e
00000200: bbd7 7abc cf3d a83c 2995 1a3e 543c cdbd
00000210: fbe3 e83c 0125 d2bd f5b6 1abe a438 63be
00000220: e733 34bd eea4 27be 80f7 30be 815b 26bc
00000230: 039f 57be 36a3 5fbe 1b43 25be f929 2ebd
00000240: 392e 923c 0a15 803d 7c04 143e 3dc3 253e
00000250: eecc b23d 72ea e5bd cf9b bbbd 1b17 5b3d
00000260: 9851 5ebe 9f91 8fbb db93 a33c df08 093e
00000270: dc70 5c3d 215e 333e 296b 3cbd e0ed 1f3f
00000280: 6de1 2f3e 01a2 79bd 6b0b 463c a1a3 e2bc
00000290: 7a59 903c 7e82 34bd 92c4 00bd daf4 9e3d
000002a0: abe8 7dba d050 853d 8005 f73c 62bd 1ebd
000002b0: c6e5 77bd 547e 5ebd f75f 00bd ff4d 873c
000002c0: 0cc2 d43d bc8e 1b3d c917 1b3e 051d b73c
000002d0: 37c7 c5bd 491f d4be f209 15bf 5ea7 b6bd
000002e0: 2cc6 ecbc 8e86 903e dcff f73d 2e22 153a
000002f0: c804 f7bc ebc1 86bc 90f3 1dbc 5472 c0bd
00000300: 1677 b73c b2a7 1bbd 0c7a b1bd 0cb6 2d3d
00000310: d359 8e3d c61a 83be f917 d3bd 51f7 ffbd
00000320: 3269 21bc 138f cf3c de06 d8bc 1002 743c
00000330: 3270 ae3d e8ed bf3c f71e c1be f180 03bc
00000340: 6b2f b6bd f351 48bd ed65 1e3d 0059 db3d
00000350: 4af5 cb3d 888d 07bd a11d 2c3e ddd0 52be
00000360: ecbb c4bd d683 8e3c b32b 793e c15c 773d
00000370: 2f83 423c d57f 3cbe 8dc3 59be d03f 44bd
00000380: b833 76be 1bbe d0bd 483b 87be 79fd e1be
00000390: 14f3 c2bd 53b6 fbbd 2d0f 133e 6442 603e
000003a0: b304 673d 6787 cb3b 5a14 fc3d 9f26 423d
000003b0: b48f 673e 29a1 993d 66b6 44bb b3fb b1bd
000003c0: b17a ddbd b38d 023e 927d e9bd ca4a 0e3d
000003d0: aaf3 89bc 8612 ab3d 20af dcbc 7c43 3abc
000003e0: 9071 ffbd 4102 adbc e442 c63d c610 8dbe
000003f0: 048f 333d 5820 df3c c560 78be efdc c5bd

conv2.bias f4 [16]
0.09074123 -0.032047845 0.0054444196 -0.14118513 -0.11916639 -0.021714758 -0.023178793 -0.14093897
3.6404945e-05 0.052435424 -0.07859636 0.05950991 -0.13709176 0.00890479 -0.056483172 0.043563284
00000000: 8ad6 b93d 9a44 03bd 1a67 b23b d692 10be
00000010: 820d f4bd 26e3 b1bc 74e1 bdbc 4e52 10be
00000020: 83b1 1838 87c6 563d 21f7 a0bd aac0 733d
00000030: c861 0cbe 65e5 113c e65a 67bd 6a6f 323d

linear.weight f4 [10, 784]
0.017252767 -0.018608363 -0.11161884 -0.15410192 -0.314232 -0.16538258 -0.02262392 0.0062745255
-0.16293898 -0.13648924 -0.06468025 -0.18836643 -0.28671074 0.001275879 -0.008164641 -0.0063418243
0.08244278 0.10771563 -0.27954376 -0.29136518 -0.053766206 -0.12720495 0.0009874839 0.1436806
0.08930428 -0.09740226 0.09412045 0.14111122 -0.053571332 -0.0396542 -0.081643485 -0.1732413
0.092351265 0.09528076 0.15159564 -0.051594667 0.059173886 0.043337334 -0.08471295 -0.075935654
0.089695945 0.09526719 0.028627276 0.028290724 -0.023420474 -0.08047246 -0.37600958 -0.2792059
0.0141570205 0.015759012 -0.06900761 -0.25005642 -0.012139643 -0.11227339 -0.0059342696 -0.03616832
-0.059752595 -0.11012741 -0.045547627 -0.08136749 0.03838816 0.02123969 0.08812301 0.016548045
0.027654467 0.15091352 0.0035340756 0.064868666 0.11657463 0.095054254 -0.064504825 0.045863774
0.18947661 -0.1589063 -0.16094202 0.14281836 0.13110742 -0.15164648 -0.1025568 0.11633244
-0.0037831976 0.0021782976 0.03359739 0.04398823 -0.15710543 -0.0090756295 -0.03485486 0.013693914
-0.009184046 -0.07806602 -0.03531064 -0.072238296 -0.29065332 -0.21963403 -0.13430217 -0.15793125
-0.14589633 -0.025662165 -0.10989816 -0.04736932 -0.022391709 -0.03167392 0.0059871343 -0.0458
-0.08492564 -0.058278 0.003548344 -0.12436206 0.029828181 0.07605776 -0.048520755 0.10824387
-0.11159961 -0.06133222 0.111018635 -0.09068504 0.07185812 0.16931638 0.13070205 -0.005739162
0.042243604 0.16632226 -0.38226962 -0.025064804 0.19856963 0.14189671 -0.006302621 -0.08345092
0.1884974 0.17724642 0.06337349 0.0103548225 0.046726156 -0.100658536 -0.0961571 -0.010064561
0.00948385 -0.11545559 -0.12675914 -0.06435973 -0.05191001 -0.19884068 -0.25901335 -0.33373713
-0.34169438 -0.32484677 -0.12811318 -0.11212214 -0.16712949 -0.0048096906 -0.03208625 0.011220804
-0.009655886 -0.02355908 -0.022280302 0.016436202 -0.0570364 -0.030436495 0.0774791 0.009945763
0.092838295 0.10859477 0.039669465 0.036174152 0.072749645 0.049113333 0.15773523 0.14263389
0.12798105 0.12665926 0.102212064 -0.09622724 -0.07004183 0.16572319 0.11088302 0.046941448
0.16318086 0.10897499 0.0035906304 0.04205743 0.13658309 0.06896484 0.16032071 0.011256853
0.09900453 0.03161735 -0.11198461 -0.06969504 0.011094006 -0.043374155 -0.075303815 -0.116908245
-0.0058654677 0.017350605 -0.1701296 -0.2478537 0.06467296 0.096678965 0.04355476 0.024971122
-0.17046848 -0.13642153 -0.14230146 -0.018111447 -0.2601479 -0.05949331 -0.0802786 -0.18077514
-0.23907863 -0.0050233398 -0.095101126 -0.041591786 -0.1408856 0.19823053 0.033228982 -0.37981665
-0.22063626 -0.08387131 -0.20331979 -0.24709173 -0.1368203 -0.23428763 0.060559478 -0.08805569
-0.013313807 -0.026866846 -0.28693277 -0.22255507 -0.00023968748 0.014516995 0.036915246 -0.03873656
0.09445151 0.13800107 0.12917456 0.017419443 0.012840211 -0.028651152 0.0340831 -0.01918174
0.0812354 -0.11874375 -0.08960681 -0.17895313 -0.010161369 0.034418397 0.06413038 0.14639226
0.10339772 -0.04259722 -0.033175014 -0.031563867 -0.030254468 -0.08011561 -0.047029164 -0.064391226
00000000: ad55 8d3c 9170 98bc 6b98 e4bd e5cc 1dbe
00000010: 04e3 a0be 0d5a 29be cd55 b9bc 899a cd3b
00000020: 7ad9 26be d6c3 0bbe 1477 84bd 21e3 40be
00000030: c0cb 92be 653b a73a fdc4 05bc 14cf cfbb
00000040: c3d7 a83d 039a dc3d 5c20 8fbe d12d 95be
00000050: f439 5cbd 0442 02be 766e 813a 0221 133e
00000060: 2ae5 b63d d67a c7bd 39c2 c03d 767f 103e
00000070: 9d6d 5bbd 716c 22bd b334 a7bd 2b66 31be
00000080: a922 bd3d 8f22 c33d e33b 1b3e ee54 53bd
00000090: 5160 723d 7d82 313d fc7d adbd 2784 9bbd
000000a0: 82b2 b73d 721b c33d c083 ea3c f3c1 e73c
000000b0: 4bdc bfbc bfce a4bd 5484 c0be 13f4 8ebe
000000c0: d9f2 673c 0b19 813c dd53 8dbd 6507 80be
000000d0: 5ae5 46bc 97ef e5bd 4374 c2bb 3b25 14bd
000000e0: 23bf 74bd 7b8a e1bd 2690 3abd 00a4 a6bd
000000f0: e73c 1d3d dcfe ad3c d679 b43d c48f 873c
00000100: 9f8b e23c 1389 1a3e f39b 673b ddd9 843d
00000110: aebe ee3d ceab c23d 1b1b 84bd a7db 3b3d
00000120: 2806 423e 55b8 22be fccd 24be fa3e 123e
00000130: 0641 063e 3749 1bbe 4d09 d2bd b43f ee3d
00000140: 86ef 77bb c5c1 0e3b 6b9d 093d 012d 343d
00000150: 3fe0 20be f3b1 14bc f8c3 0ebd 705c 603c
00000160: ae78 16bc 14e1 9fbd e4a1 10bd acf1 93bd
00000170: 83d0 94be bee7 60be 8286 09be bbb8 21be
00000180: d965 15be 7639 d2bc 4912 e1bd 5506 42bd
00000190: d16e b7bc 83bc 01bd b92f c43b c898 3bbd
000001a0: 7eed adbd eab4 6ebd 558b 683b 89b1 febd
000001b0: 3b5a f43c 2cc4 9b3d b3bd 46bd f6ae dd3d
000001c0: 568e e4bd 7e37 7bbd bd5d e33d 14b9 b9bd
000001d0: 5a2a 933d 4661 2d3e c2d6 053e 950f bcbb
000001e0: a107 2d3d 6250 2a3e d8b8 c3be b454 cdbc
000001f0: d655 4b3e 5f4d 113e 3886 cebb 51e8 aabd
00000200: 7605 413e 1680 353e f6c9 813d 46a7 293c
00000210: ed63 3f3d 1026 cebd 03ee c4bd d4e5 24bc
00000220: 2662 1b3c fb73 ecbd 26cd 01be 09cf 83bd
00000230: 979f 54bd e49c 4bbe 669d 84be 98df aabe
00000240: 91f2 aebe 5152 a6be 1a30 03be 4ba0 e5bd
00000250: fe23 2bbe 9c9a 9dbb df6c 03bd 77d7 373c
00000260: b933 1ebc f9fe c0bc 2e85 b6bc 37a5 863c
00000270: 009f 69bd f555 f9bc 5dad 9e3d 8ef3 223c
00000280: 0122 be3d ef66 de3d 737c 223d 592b 143d
00000290: c4fd 943d 102b 493d 5885 213e 9e0e 123e
000002a0: 770d 033e f7b2 013e 8f54 d13d ca12 c5bd
000002b0: 1772 8fbd 57b3 293e a316 e33d ad45 403d
000002c0: e218 273e 482e df3d c850 6b3b 6944 2c3d
000002d0: 70dc 0b3e 703d 8d3d 1d2b 243e aa6e 383c
000002e0: e3c2 ca3d 3281 013d 3058 e5bd 46bc 8ebd
000002f0: a2c3 353c 19a9 31bd e338 9abd 976d efbd
00000300: 1c33 c0bb db22 8e3c 7436 2ebe 5ccd 7dbe
00000310: 4273 843d 9fff c53d 7a66 323d 3d90 cc3c
00000320: 4a8f 2ebe 16b2 0bbe 79b7 11be 755e 94bc
00000330: 1b32 85be 42af 73bd 1b69 a4bd 1e1d 39be
00000340: 07d1 74be d49a a4bb 61c4 c2bd 265c 2abd
00000350: 5144 10be f2fc 4a3e 1d1b 083d 5477 c2be
00000360: 79ee 61be b9c4 abbd 1033 50be 9d05 7dbe
00000370: 9f1a 0cbe 19e9 6fbe 370d 783d 8b56 b4bd
00000380: 2722 5abc dc17 dcbc dae8 92be 7ae5 63be
00000390: 9e54 7bb9 b1d8 6d3c 7134 173d 3aaa 1ebd
000003a0: cb6f c13d 2750 0d3e 5646 043e 38b3 8e3c
000003b0: c05f 523c d2b5 eabc b89a 0b3d 0623 9dbc
000003c0: bf5e a63d ec2f f3bd c683 b7bd 7d3f 37be
000003d0: df7b 26bc 4efa 0c3d ca56 833d dae7 153e
000003e0: 2fc2 d33d 6c7a 2ebd 86e2 07bd 1d49 01bd
000003f0: 38d8 f7bc a713 a4bd a7a1 40bd 8cdf 83bd

linear.bias f4 [10]
0.052700747 0.10871874 0.017879315 -0.0710465 -0.04664919 -0.02342392 0.025284853 0.04120532
-0.06203053 -0.014465155
00000000: bddc 573d eea7 de3d a477 923c d480 91bd
00000010: 3913 3fbd 85e3 bfbc 2e22 cf3c e9c6 283d
00000020: ba13 7ebd 42ff 6cbc
