plot/model/model_epoch2.pth (torch, 43647 bytes, 6 tensors)

conv1.weight f4 [16, 1, 3, 3]
0	0xbdb51d6b	-0.08843502
1	0x3cf85bbb	0.030317178
2	0xbe9fd5d8	-0.31217837
3	0x3e80f5be	0.25187486
4	0x3e926a06	0.28596514
5	0x3e901859	0.28143576
6	0x3eeb69a4	0.45979035
7	0xbc69bc2e	-0.014266057
8	0x3dfdbfb7	0.12390082
9	0xbea984cf	-0.33109137
10	0xbe696d9e	-0.22795722
11	0x3ec3ebba	0.38265783
12	0xbee1471c	-0.43999565
13	0xbe38c71c	-0.18044704
14	0x3edfb11f	0.4368982
15	0xbf0b7075	-0.5446847
16	0x3e66c1ef	0.22534917
17	0x3eef3dd9	0.46726874
18	0xbe079830	-0.13241649
19	0xbdbc2b4e	-0.09187947
20	0x3dc53f6f	0.096312396
21	0xbdb9c13a	-0.09070058
22	0xbdce8976	-0.10084812
23	0xbdbd0101	-0.09228707
24	0x3e61c653	0.22048311
25	0xbd392d06	-0.045208953
26	0xbe851966	-0.2599594
27	0x3f030110	0.51173496
28	0x3e867fad	0.26269284
29	0x3ebd3cad	0.36960354
30	0x3f054ddb	0.52071923
31	0x3eba561e	0.36393827
32	0xbdad79d5	-0.08470503
33	0x3e5bca80	0.21463966
34	0xbebd9037	-0.3702409
35	0x3e37f8ee	0.17966053
36	0x3d836cd2	0.0641724
37	0x3f0ce369	0.550345
38	0x3f29cb41	0.66325766
39	0xbe4dfb2b	-0.20115344
40	0xbdbd604a	-0.09246881
41	0xbdf918b8	-0.12162918
42	0xbdcf99e4	-0.10136774
43	0xbf25b910	-0.6473551
44	0xbe76918a	-0.24078956
45	0x3e61a486	0.22035417
46	0x3e84162f	0.25798175
47	0x3e048b4b	0.12943761
48	0xbe15da7e	-0.1463413
49	0x3d1a054d	0.03760271
50	0x3e1ef1b4	0.1552189
51	0xbc8d0eb3	-0.017218923
52	0x3c6e2401	0.014534951
53	0x3e602b2d	0.2189147
54	0x3e73d8d0	0.23813176
55	0x3eabaf02	0.33531958
56	0x3ea72816	0.3264777
57	0x3ea8ba6b	0.32954726
58	0xbe7ba98e	-0.24576399
59	0x3e54ade7	0.20769463
60	0xbe9ff6d1	-0.31242993
61	0x3dd40adb	0.10353633
62	0x3e91efae	0.28503174
63	0x3df380cc	0.118898004
64	0x3e84c578	0.25931907
65	0x3edd4d45	0.43223014
66	0x3ec864a6	0.3913929
67	0x3e89b56c	0.26896226
68	0x3e6bd463	0.23030238
69	0x3e3978dd	0.18112512
70	0xbd8784f1	-0.066171534
71	0xbd4803f9	-0.048831914
72	0x3e6e50a4	0.2327295
73	0xbdafd771	-0.08586014
74	0xbed767bc	-0.4207133
75	0xbd9fa4c4	-0.077950984
76	0x3dc7ad9a	0.09749909
77	0x3d02d6ba	0.03194306
78	0x3ede55f9	0.43424967
79	0x3e8d30bd	0.27576247
80	0x3e83d6ad	0.25749722
81	0x3eb20e82	0.34776694
82	0x3f08bb6b	0.5341098
83	0x3dd726b4	0.10505429
84	0xbcbd3bea	-0.023099858
85	0x3b216c0b	0.002463105
86	0x3e72284a	0.23648182
87	0xbf110f8b	-0.5666434
88	0xbeffeaa1	-0.49983695
89	0xbda0e9f2	-0.078571215
90	0xbf1788c4	-0.5919306
91	0xbe849424	-0.25894272
92	0xbe00fff8	-0.12597644
93	0xbeba41cc	-0.36378324
94	0x3df33270	0.118748546
95	0x3cb018ef	0.021496264
96	0x3eef43f0	0.4673152
97	0x3e852b41	0.26009563
98	0x3e5822e0	0.21107054
99	0xbe2c6899	-0.16836776
100	0x3e19ad45	0.15007503
101	0x3af8cfa0	0.0018982776
102	0xbe4ce392	-0.20008686
103	0x3eba76eb	0.36418852
104	0x3ef8dc5d	0.48605624
105	0x3e5a4731	0.2131622
106	0xbe29cbc2	-0.16581634
107	0x3e4a7e75	0.19774802
108	0xbd718c02	-0.058971412
109	0x3f28053b	0.6563298
110	0x3eaf6e41	0.34263805
111	0xbf20556f	-0.6263036
112	0xbe8f4ea6	-0.27989691
113	0xbec761a0	-0.3894167
114	0xbe89d016	-0.2691657
115	0xbeb6fac1	-0.35738185
116	0xbefc612d	-0.4929289
117	0xbe5f8067	-0.21826325
118	0x3e5eed33	0.21770172
119	0x3e29f308	0.16596615
120	0x3eee2bbb	0.4651774
121	0x3ea5a585	0.32352844
122	0x3e8a59e8	0.27021718
123	0x3e4ad633	0.19808273
124	0xbea572bf	-0.32314107
125	0xbeb2a98e	-0.34894985
126	0x3eb6873a	0.35650045
127	0x3d9ccebb	0.07656618
128	0x3e5b19d2	0.21396568
129	0x3e0a97d5	0.13534482
130	0x3dbc0dd5	0.09182326
131	0x3f073d8b	0.5282828
132	0x3ec1b75f	0.37835214
133	0x3e3eb61c	0.18624157
134	0x3e6b78d2	0.22995308
135	0x3e3a5134	0.18195039
136	0xbea21d6c	-0.31663072
137	0xbebaaea9	-0.3646138
138	0x3ee912f9	0.45522287
139	0xbe5620dd	-0.20910974
140	0x3dd1e1ab	0.10248121
141	0x3eccdc6d	0.40011922
142	0xbe390e9a	-0.18071976
143	0x3eeaf2b6	0.458883

conv1.bias f4 [16]
0	0x390efd90	0.00013636635
1	0xbdd06881	-0.101761825
2	0xbeae1f2c	-0.34008157
3	0x3d4ae9fa	0.049539544
4	0xbc23d871	-0.010000334
5	0x3de10273	0.10986795
6	0xbe8c11ac	-0.27357233
7	0xbb3da4e9	-0.0028937405
8	0xbd7d295e	-0.06180703
9	0xbb936fa2	-0.0044993917
10	0x3e9651d3	0.29359302
11	0x3d6181da	0.055055477
12	0x3e410a28	0.1885153
13	0xbc4aced3	-0.012378412
14	0x3a6c33eb	0.0009010422
15	0xbb01c4f9	-0.0019801243

conv2.weight f4 [16, 16, 3, 3]
0	0xbd68c25b	-0.056825977
1	0x3df16491	0.1178676
2	0x3d6f7b72	0.058467336
3	0x3e004a24	0.12528282
4	0x3db7f694	0.08982578
5	0xbd0347ef	-0.032051023
6	0xbda7ad00	-0.08187294
7	0xbd10dd98	-0.03536758
8	0xbe28e4a4	-0.1649347
9	0x3ed8ad7f	0.42319867
10	0x3e0675b7	0.13130842
11	0x3e0d3108	0.13788235
12	0x3e1ef45b	0.15522902
13	0xbcb8bb23	-0.022550171
14	0xbe8a4fcc	-0.27014005
15	0xbe6c018c	-0.23047465
16	0xbe7c66fa	-0.24648657
17	0xbe85e9d3	-0.26154956
18	0xbd8917c2	-0.066939846
19	0x3d92e287	0.07172113
20	0x3c4daea0	0.012553841
21	0xbd9c3e78	-0.076291025
22	0xbd9b3d84	-0.075800925
23	0x3d2ccbc3	0.04218651
24	0x3d8067af	0.06269776
25	0xbd148700	-0.03626156
26	0x3db01ee2	0.085996404
27	0xbd8845eb	-0.06653961
28	0x3deef201	0.11667252
29	0x3da5f3d5	0.08103148
30	0xbceadf61	-0.028670968
31	0x3db13f45	0.08654646
32	0x3ce749cd	0.028233433
33	0xbc22b69e	-0.009931235
34	0xbb461ccb	-0.0030229564
35	0xbdf49fcd	-0.11944542
36	0xbddea153	-0.10870614
37	0xbe346be0	-0.17619276
38	0xbdc61bee	-0.09673296
39	0xbe9a3eab	-0.30125937
40	0xbdb50457	-0.088387184
41	0x3d8ffdca	0.07030828
42	0x3dc0ad56	0.09408061
43	0xbd83f918	-0.06443995
44	0x3c5aec10	0.013361946
45	0x3dc87bf4	0.09789267
46	0x3db412b7	0.08792632
47	0x3c520cfb	0.012820478
48	0x3d52ddc4	0.051481023
49	0xbba94194	-0.005165288
50	0xbdead129	-0.114656754
51	0x3d9af82e	0.07566868
52	0xbc3977e7	-0.011320091
53	0xbe223840	-0.1584177
54	0xbd0a61ff	-0.033784863
55	0x3e0fe3da	0.14051762
56	0x3e042a8b	0.12906854
57	0xbe042164	-0.12903363
58	0x3deb9c4b	0.1150442
59	0xbd790b26	-0.060801648
60	0x3d81cd66	0.06338005
61	0x3cbb29d8	0.022847101
62	0xbe7442c2	-0.23853591
63	0xbe0db89b	-0.13839953
64	0x3e144884	0.14480788
65	0x3d2ed9ca	0.04268817
66	0xbccc1127	-0.024910523
67	0x3c5f7e6f	0.013640984
68	0x3c679751	0.014135198
69	0x3ddcfe55	0.107906975
70	0xbd33fd0f	-0.043942507
71	0xbd9ca59b	-0.07648774
72	0xbda1ddf1	-0.0790366
73	0x3e168593	0.14699392
74	0x3da3cf5b	0.07998534
75	0x3d4fab43	0.050700437
76	0xbc426ed8	-0.0118672475
77	0xbe3666b7	-0.1781262
78	0xbdd48699	-0.10377235
79	0xbe379efb	-0.1793174
80	0xbe2317e9	-0.1592709
81	0xbd13511d	-0.035966028
82	0xbdc3cb16	-0.0956022
83	0xbe1b7e8d	-0.15184994
84	0xbeb505c0	-0.3535595
85	0x3cbfa4c8	0.023394004
86	0xbdb4d67b	-0.088299714
87	0x3e1ffd0d	0.15623875
88	0x3d13a4ee	0.03604596
89	0x3d74fef4	0.059813455
90	0x3dc9fd31	0.098627456
91	0x3cb51d52	0.022108708
92	0xbd6c38e5	-0.057671446
93	0x3dc78d0a	0.09743698
94	0xbd4465f7	-0.047948804
95	0xbe11c07b	-0.14233582
96	0x3d5f18c0	0.054466963
97	0xbe1fefdd	-0.15618844
98	0xbd632cad	-0.055462528
99	0x3db11f58	0.086485565
100	0x3e16f482	0.1474171
101	0x3df9463a	0.12171598
102	0x3e15dfeb	0.14636199
103	0x3dadf37b	0.08493706
104	0xbe240305	-0.16016777
105	0xbdb8b3f6	-0.090187
106	0xbdc2c334	-0.09509888
107	0xbe1cb73e	-0.15304276
108	0x3c2de171	0.010612831
109	0xbdbcdbae	-0.09221588
110	0x3c4608a2	0.012087019
111	0xbe6741af	-0.2258365
112	0xbe4e6e15	-0.2015918
113	0xbdb38d66	-0.08767204
114	0xbb8a02e7	-0.004211772
115	0x3e131f22	0.14367345
116	0x3e00dfc8	0.12585366
117	0xbe1025f3	-0.14076976
118	0x3d7f4516	0.062321745
119	0x3e6ddba5	0.23228319
120	0x3e57733a	0.21040049
121	0x3db8d8cc	0.09025726
122	0x3d799c35	0.060939986
123	0x3e3978d2	0.18112496
124	0xbc8c4759	-0.017123865
125	0xbd9ca24a	-0.07648142
126	0xbde9c701	-0.1141491
127	0x3dfa9f79	0.12237448
128	0x3c4d3601	0.012525083
129	0xbc405606	-0.01173926
130	0x3df2ff60	0.11865115
131	0xbd28568d	-0.041098166
132	0x3d86a99e	0.06575321
133	0xbd9e44b5	-0.077279486
134	0xbe37b3f5	-0.17939742
135	0xbdcf5ed6	-0.101255104
136	0xbc847923	-0.016171044
137	0xbce0037c	-0.027345411
138	0xbe084a30	-0.1330955
139	0x3d8f5ff3	0.07000723
140	0xbe17d5f7	-0.14827715
141	0xbe3a9d37	-0.18224035
142	0xbddec9a5	-0.108783044
143	0xbda18310	-0.07886326
144	0x3d7a88ca	0.06116561
145	0x3d8af4a6	0.06784944
146	0x3d7f58c7	0.062340524
147	0x3df35488	0.118813574
148	0x3d8650de	0.06558393
149	0xbd8ffed8	-0.070310295
150	0xbcc38976	-0.023869257
151	0x3d2ed3e4	0.042682543
152	0xbe166850	-0.1468823
153	0x3d074aa0	0.033030152
154	0x3d8eb531	0.06968153
155	0x3df9e825	0.12202481
156	0x3ce6c703	0.028171068
157	0x3e1859b1	0.14877965
158	0xbdbffd73	-0.093745135
159	0x3edbe5cd	0.42948762
160	0x3df12d68	0.11776239
161	0xbe1e82d1	-0.1547959
162	0x3c460b6b	0.012087683
163	0xbce2a3a1	-0.027665915
164	0x3c90597a	0.01762079
165	0xbd34827e	-0.04406976
166	0xbd00c492	-0.031437464
167	0x3d9ef4da	0.077615455
168	0xba7de8ab	-0.00096858543
169	0x3d8550d0	0.065095544
170	0x3cf70580	0.03015399
171	0xbcf4ecab	-0.029898008
172	0x3b7ac498	0.0038264152
173	0x3c38d67f	0.011281609
174	0xbd100ad0	-0.03516656
175	0x3d21ec98	0.039532274
176	0x3d9bb6e0	0.0760324
177	0x3d1d0fcf	0.038345154
178	0x3e066e13	0.13127927
179	0x3d2e8a46	0.042612337
180	0xbe08ada9	-0.13347496
181	0xbeb437ad	-0.35198727
182	0xbecb9a98	-0.39766383
183	0xbd32c2fd	-0.043642987
184	0x3be55a1c	0.0069992673
185	0x3e85e9e0	0.26154995
186	0x3d818198	0.06323546
187	0xbb3cde2c	-0.0028818948
188	0xbc9351ca	-0.017983336
189	0xbcfa4836	-0.030552011
190	0xbcea3e38	-0.028594121
191	0xbdd98392	-0.10620798
192	0x3d0d80e6	0.034546755
193	0xbc8ea2e4	-0.017411657
194	0xbd93bd80	-0.07213879
195	0x3c43e419	0.011956238
196	0x3d5d2253	0.053987812
197	0xbe3cafe0	-0.18426466
198	0xbe1df5e4	-0.15425831
199	0xbe194b74	-0.1497019
200	0x3af654b0	0.0018793549
201	0x3d0aa0ae	0.033844642
202	0xbc5c5035	-0.013446857
203	0x3c759ed8	0.014991485
204	0x3d973725	0.07383565
205	0x3d05d576	0.032674275
206	0xbe8a3840	-0.2699604
207	0x3c504c58	0.012713514
208	0xbca550b3	-0.020180082
209	0xbc2ec7f8	-0.010667793
210	0x3cf201b8	0.029541835
211	0x3df6b7b8	0.1204676
212	0x3db5c297	0.08875006
213	0x3b2091d7	0.002450099
214	0x3e11d10e	0.14239904
215	0xbe2505f0	-0.16115546
216	0xbd739984	-0.059472576
217	0x3d48f8c0	0.04906535
218	0x3e380e0d	0.1797411
219	0x3d9f032b	0.07764276
220	0x3d607a9a	0.054804422
221	0xbd3d624c	-0.04623632
222	0xbe2037d1	-0.15646292
223	0xbd6241f0	-0.055238664
224	0xbe0c7feb	-0.13720672
225	0xbe074af7	-0.1321219
226	0xbe43c953	-0.19119768
227	0xbe9a206b	-0.30102858
228	0xbd82c44c	-0.06385097
229	0xbdb2005f	-0.08691477
230	0x3e0a5321	0.13508274
231	0x3e1e7891	0.1547568
232	0x3d30229e	0.043001764
233	0x3cff5625	0.031169007
234	0x3df6ff4e	0.12060414
235	0x3da50916	0.08058374
236	0x3e37b8b3	0.17941551
237	0x3d30e47b	0.043186646
238	0x3d0cdcc9	0.034390245
239	0xbd63fe02	-0.055662163
240	0xbdb19dfb	-0.086727105
241	0x3db2ef15	0.087370075
242	0xbdedf40a	-0.116188124
243	0x3d412f1d	0.04716407
244	0xbcec98eb	-0.02888151
245	0x3d282047	0.041046407
246	0xbd7fc4be	-0.062443487
247	0xbcbd576d	-0.023112977
248	0xbdbc06d3	-0.09180989
249	0x3b7fde5d	0.003904245
250	0x3dc6693a	0.09688039
251	0xbe67ac5b	-0.22624342
252	0x3c105d3a	0.008811289
253	0x3acf33d9	0.0015808298
254	0xbe561c14	-0.20909148
255	0xbd1460e0	-0.0362252

conv2.bias f4 [16]
0	0x3da6bd6b	0.08141597
1	0xbd2231de	-0.03959834
2	0x3d05a40f	0.03262716
3	0xbdd2ed98	-0.10299224
4	0xbd9451fd	-0.072422005
5	0xbbc64d06	-0.0060516624
6	0x3c7bf401	0.015377999
7	0xbdc6c8fc	-0.097063035
8	0xbc279ada	-0.010229791
9	0x3c7bb7f8	0.015363686
10	0xbd5a0f40	-0.0532372
11	0x3d6be47d	0.05759095
12	0xbdc3ffaa	-0.095702484
13	0x3d006c07	0.031353023
14	0xbd2fcbdd	-0.04291903
15	0x3d08ade5	0.033368964

linear.weight f4 [10, 784]
0	0x3c8df7d6	0.017330091
1	0x3bec865c	0.0072181653
2	0xbd2da0d0	-0.04238969
3	0xbe034c4d	-0.12822075
4	0xbe5035b7	-0.2033299
5	0xbd93ae67	-0.07210999
6	0xbc439e60	-0.011939615
7	0x3bcec7e7	0.0063104513
8	0xbda24d8c	-0.07924947
9	0xbdb78833	-0.08961525
10	0xbd88d587	-0.06681352
11	0xbdfef37f	-0.12448787
12	0xbe3024de	-0.17201564
13	0xbc70cb77	-0.014696947
14	0x3c0e888e	0.008699549
15	0xbd05a858	-0.03263125
16	0x3d13596b	0.035973947
17	0x3df69a74	0.12041178
18	0xbdf16c40	-0.11788225
19	0xbe114e44	-0.14190012
20	0xbd3b6030	-0.04574603
21	0xbdb64f54	-0.089018494
22	0xbd14a28e	-0.036287837
23	0x3ddf74c1	0.10910941
24	0x3ca7c21c	0.0204783
25	0xbdc6460d	-0.0968133
26	0x3deff9aa	0.117175415
27	0x3dd7bdb4	0.1053423
28	0xbd4a76f0	-0.049429834
29	0xbccd0407	-0.025026334
30	0xbd5cc2c0	-0.053896666
31	0xbe222c08	-0.15837109
32	0x3d0a1b2a	0.033717312
33	0x3dc22fe9	0.094817944
34	0x3de666ad	0.112500526
35	0xbd2b23f6	-0.041782342
36	0x3d5a5879	0.05330703
37	0x3d56db29	0.0524551
38	0xbce7caf1	-0.028295012
39	0xbcb1e9ef	-0.021717994
40	0x3d433937	0.047661986
41	0x3d5738f5	0.052544553
42	0xbd252446	-0.040317796
43	0xbc3c8525	-0.0115063535
44	0x3d34dd5a	0.04415641
45	0xbca50a6e	-0.020146575
46	0xbe122f33	-0.14275818
47	0xbddd581a	-0.1080782
48	0xbc29562b	-0.010335485
49	0x3b7e9cbf	0.0038850752
50	0xbd255ba6	-0.040370606
51	0xbe1ccbc0	-0.153121
52	0xbd29b074	-0.041428044
53	0xbd84e7f6	-0.064895555
54	0xbd60ebf6	-0.05491253
55	0xbd2a3dd6	-0.041562878
56	0xbcafb474	-0.021448351
57	0xbcaf4a5d	-0.021397764
58	0xbd8bde96	-0.06829564
59	0xbd4c0d52	-0.04981739
60	0x3d220d80	0.039563656
61	0x3d385fc0	0.04501319
62	0x3afda1b5	0.0019350561
63	0x3c986529	0.018602924
64	0x3bba587a	0.0056868168
65	0x3d96b5bb	0.07358881
66	0x3d0d079c	0.034431085
67	0x3c3b370b	0.0114266975
68	0x3dcb4fe5	0.09927348
69	0x3d77a695	0.0604616
70	0xbd3fb32a	-0.046801724
71	0x3d49d7b7	0.049277987
72	0x3e0ec75c	0.13943237
73	0xbe024b2b	-0.12723987
74	0xbe442814	-0.19155914
75	0x3dd5a16e	0.10431181
76	0x3dbd054a	0.092295244
77	0xbe02f111	-0.12787272
78	0xbd8eafbb	-0.06967112
79	0x3dd0f63b	0.10203215
80	0xbd60318c	-0.05473475
81	0xbc9ed963	-0.019390767
82	0x3d9b984f	0.0759741
83	0x3d51001d	0.0510255
84	0xbdf6223e	-0.1201825
85	0xbd58f751	-0.052970234
86	0x3d1c58fc	0.0381708
87	0x3c4dd964	0.012564037
88	0x3c16598a	0.009176621
89	0xbbfab89a	-0.0076514008
90	0xbc7e2ee3	-0.015514108
91	0xbd062623	-0.032751214
92	0xbe0b7c7c	-0.13621706
93	0xbd9aacd3	-0.07552495
94	0xbd2be7b1	-0.041969005
95	0xbdc96d13	-0.098352574
96	0xbdc2120f	-0.09476101
97	0xbced1029	-0.02893837
98	0xbd25cfde	-0.04048144
99	0xbcc43f1d	-0.023955876
100	0xbcb356e0	-0.021892011
101	0xbc9288bd	-0.017887468
102	0xbc14d248	-0.009083338
103	0xbd2cc45d	-0.042179454
104	0xbcab51f7	-0.020913107
105	0x3bd09bf6	0.0063662482
106	0xbd36864a	-0.04456166
107	0xbd690e0a	-0.056898154
108	0x3cc78424	0.024355002
109	0x3d8fed29	0.070276566
110	0xbbcfb589	-0.0063387793
111	0x3d3d5300	0.046221733
112	0xbd880d97	-0.06643217
113	0xbccbcfd2	-0.02487937
114	0x3d549350	0.0518983
115	0xbd4959ac	-0.049157783
116	0x3d032e58	0.03202662
117	0x3e084790	0.13308549
118	0x3ddffb7b	0.10936638
119	0xbd14fd11	-0.036374155
120	0x3d144d55	0.036206562
121	0x3daead83	0.085291885
122	0xbe950c47	-0.2911093
123	0xbdccff9e	-0.100096926
124	0x3e0499b5	0.1294926
125	0x3dfeb40b	0.12436684
126	0xbd9ac609	-0.075573035
127	0xbc59c81c	-0.013292339
128	0x3e0ca072	0.1373308
129	0x3daf260a	0.08552177
130	0x3c8e9b77	0.017408116
131	0x3d8016a5	0.06254319
132	0x3d7744a0	0.06036818
133	0xbda19188	-0.07889086
134	0xbd5afd57	-0.05346426
135	0x3d0738b6	0.03301307
136	0x3d09a5fd	0.033605564
137	0xbd9325ea	-0.07184966
138	0xbd333135	-0.0437481
139	0xbc4bee67	-0.012446976
140	0xbd3de3aa	-0.046359695
141	0xbe07118b	-0.13190286
142	0xbe39d944	-0.18149287
143	0xbe3efc73	-0.18650989
144	0xbe3f5cb5	-0.18687709
145	0xbe35f0eb	-0.17767684
146	0xbd8b1de5	-0.06792811
147	0xbd937b0b	-0.07201203
148	0xbdd47495	-0.10373799
149	0xbc279af7	-0.010229818
150	0xbca1efb5	-0.019767622
151	0x3c9ebfae	0.01937851
152	0xbd3e160c	-0.046407744
153	0xbd0d6a0f	-0.034524973
154	0xbc10f9d0	-0.008848622
155	0xbc84cbce	-0.016210463
156	0xbd603129	-0.054734383
157	0x3c770bde	0.015078513
158	0x3d690580	0.05689001
159	0x3cc07b64	0.023496337
160	0x3d296599	0.041356657
161	0x3d8ad01d	0.06777976
162	0x3d05ec41	0.032696012
163	0x3cc61cf7	0.024183733
164	0x3d1fd340	0.039019823
165	0x3ccd1354	0.02503363
166	0x3dc18f80	0.094511986
167	0x3e003615	0.1252063
168	0x3dcf3c9b	0.101189815
169	0x3db66e39	0.08907742
170	0x3d0bdacf	0.03414422
171	0xbdcd3e8b	-0.10021695
172	0xbd90f471	-0.070778735
173	0x3d9ebef8	0.07751268
174	0x3db08973	0.08619966
175	0x3cad45ed	0.021151507
176	0x3e009976	0.1255854
177	0x3d8b1046	0.06790213
178	0xbd20b5b9	-0.039235804
179	0x3bbd6b96	0.0057806475
180	0x3dc344df	0.095346205
181	0x3d712733	0.058875274
182	0x3d222fb0	0.03959626
183	0x3bceaafd	0.0063070045
184	0x3d98d666	0.07462768
185	0x3cb111b4	0.021614887
186	0xbd1e13b2	-0.038593
187	0xbd0cee45	-0.03440692
188	0x3d312ad6	0.043253742
189	0xbd087352	-0.033313103
190	0xbd457534	-0.048207477
191	0xbd0d75bc	-0.03453611
192	0xba200bac	-0.0006105255
193	0xbd381a9f	-0.044947263
194	0xbdda15f9	-0.10648722
195	0xbe130cac	-0.14360303
196	0x3bc55630	0.0060222372
197	0x3cf4cb49	0.02988209
198	0x3a49a262	0.00076917384
199	0xbd0f7e18	-0.03503236
200	0xbe18c8b2	-0.14920309
201	0xbddc6883	-0.107621215
202	0xbd04e673	-0.032446336
203	0x3c174a64	0.009234045
204	0xbe1b241b	-0.15150492
205	0xbda260da	-0.07928629
206	0xbd362b33	-0.04447479
207	0xbe25568e	-0.16146299
208	0xbe528748	-0.20559418
209	0xbcf1f8da	-0.029537607
210	0xbda645d7	-0.0811879
211	0xbe087658	-0.13326395
212	0xbdb7a877	-0.08967679
213	0x3e2c5889	0.16830648
214	0x3d49f4c0	0.049305677
215	0xbe735402	-0.23762515
216	0xbe2369e9	-0.1595837
217	0xbd8555e9	-0.06510527
218	0xbe524e87	-0.20537768
219	0xbdfa1601	-0.12211228
220	0xbe264d90	-0.16240525
221	0xbe53a318	-0.20667684
222	0x3c098d3b	0.008395488
223	0xbdb1105b	-0.08645698
224	0xbcc15664	-0.023600765
225	0x3be59499	0.0070062396
226	0xbe6a1311	-0.22858836
227	0xbe21329c	-0.15741962
228	0x3cf77b6d	0.030210221
229	0x3d558378	0.05212733
230	0x3cc21a9f	0.023694335
231	0xbcfcbef3	-0.03085277
232	0x3df675b4	0.12034169
233	0x3ddac69c	0.10682413
234	0x3dac7a3d	0.084217526
235	0x3ceccc3c	0.02890598
236	0x3d0bed31	0.03416175
237	0xbbfd4578	-0.0077292286
238	0xbbce9943	-0.0063048913
239	0xbcdcca56	-0.02695195
240	0x3d141c0f	0.03615957
241	0xbd7c48f9	-0.06159303
242	0xbd88ef09	-0.06686217
243	0xbdcfaf61	-0.10140873
244	0x3c25ba03	0.010115149
245	0x3a7ba7e5	0.00095999084
246	0x3cdacca8	0.026708916
247	0x3c6eab01	0.014567138
248	0x3ba7d72b	0.0051220856
249	0xbdd4c3cd	-0.103889085
250	0xbda36e6a	-0.07980044
251	0xbc3d7db5	-0.011565615
252	0x3c55840f	0.0130319735
253	0xbd81b002	-0.06332399
254	0xbce5fd77	-0.028074963
255	0xbd4fe855	-0.05075868

linear.bias f4 [10]
0	0x3cb800a2	0.02246124
1	0x3d971fd6	0.07379119
2	0x3bc256c0	0.0059307516
3	0xbd3b6c6b	-0.045757692
4	0xbc4c62d6	-0.012474736
5	0xbcc27f20	-0.023742259
6	0x3cdb45ad	0.026766622
7	0x3cfa60dc	0.030563764
8	0xbd57605f	-0.05258214
9	0xbc61eda5	-0.013789569
